[
  {
    "file-line": 17,
    "subnet_id": 0,
    "core_id": 0,
    "opcode": "tpu.Load",
    "is_local": true,
    "tiu_dma_id(before)": [
      0,
      0
    ],
    "tiu_dma_id(after)": [
      0,
      1
    ],
    "operands": [
      {
        "address": 4309655552,
        "layout": "continuous",
        "memory_type": "<1x3x46x640xf32>",
        "name": "images",
        "reshape": "<1x3x1x640x640>",
        "shape": [
          1,
          3,
          640,
          640
        ],
        "slice": "[0:1, 0:3, 0:1, 0:46, 0:640]",
        "type": "tensor<1x3x640x640xf32, 4309655552 : i64>"
      }
    ],
    "results": [
      {
        "address": 0,
        "layout": "eu_align",
        "memory_type": "<1x3x46x640xf32>",
        "name": "load_0",
        "reshape": "<1x3x1x640x640>",
        "shape": [
          1,
          3,
          640,
          640
        ],
        "slice": "[0:1, 0:3, 0:1, 0:46, 0:640]",
        "type": "tensor<1x3x640x640xf32>"
      }
    ],
    "buffers": []
  },
  {
    "file-line": 20,
    "subnet_id": 0,
    "core_id": 0,
    "opcode": "tpu.Cast",
    "is_local": true,
    "tiu_dma_id(before)": [
      0,
      1
    ],
    "tiu_dma_id(after)": [
      1,
      1
    ],
    "operands": [
      {
        "address": 0,
        "layout": "eu_align",
        "memory_type": "<1x3x46x640xf32>",
        "name": "load_0",
        "reshape": "<1x3x1x640x640>",
        "shape": [
          1,
          3,
          640,
          640
        ],
        "slice": "[0:1, 0:3, 0:1, 0:46, 0:640]",
        "type": "tensor<1x3x640x640xf32>"
      }
    ],
    "results": [
      {
        "address": 131072,
        "layout": "eu_align",
        "memory_type": "<1x3x46x640xf16>",
        "name": "images122_Conv_f16",
        "reshape": "<1x3x1x640x640>",
        "shape": [
          1,
          3,
          640,
          640
        ],
        "slice": "[0:1, 0:3, 0:1, 0:46, 0:640]",
        "type": "tensor<1x3x640x640xf16>"
      }
    ],
    "buffers": []
  },
  {
    "file-line": 18,
    "subnet_id": 0,
    "core_id": 0,
    "opcode": "tpu.Load",
    "is_local": true,
    "tiu_dma_id(before)": [
      0,
      1
    ],
    "tiu_dma_id(after)": [
      0,
      2
    ],
    "operands": [
      {
        "address": 4294971392,
        "layout": "continuous",
        "memory_type": "<1x32x1x192xf16>",
        "name": "122_Conv_filter_reorderd",
        "reshape": "<1x32x1x1x192>",
        "shape": [
          1,
          32,
          1,
          192
        ],
        "slice": "[0:1, 0:32, 0:1, 0:1, 0:192]",
        "type": "tensor<1x32x1x192xf16, 4294971392 : i64>"
      }
    ],
    "results": [
      {
        "address": 259136,
        "layout": "compact",
        "memory_type": "<1x32x1x192xf16>",
        "name": "load_122_Conv_filter_reorderd",
        "reshape": "<1x32x1x1x192>",
        "shape": [
          1,
          32,
          1,
          192
        ],
        "slice": "[0:1, 0:32, 0:1, 0:1, 0:192]",
        "type": "tensor<1x32x1x192xf16>"
      }
    ],
    "buffers": []
  },
  {
    "file-line": 19,
    "subnet_id": 0,
    "core_id": 0,
    "opcode": "tpu.Load",
    "is_local": true,
    "tiu_dma_id(before)": [
      0,
      2
    ],
    "tiu_dma_id(after)": [
      0,
      3
    ],
    "operands": [
      {
        "address": 4294967296,
        "layout": "continuous",
        "memory_type": "<1x32x1x1xf32>",
        "name": "model.0.conv.bias",
        "reshape": "<1x32x1x1x1>",
        "shape": [
          1,
          32,
          1,
          1
        ],
        "slice": "[0:1, 0:32, 0:1, 0:1, 0:1]",
        "type": "tensor<1x32x1x1xf32, 4294967296 : i64>"
      }
    ],
    "results": [
      {
        "address": 195712,
        "layout": "compact",
        "memory_type": "<1x32x1x1xf32>",
        "name": "load_model.0.conv.bias",
        "reshape": "<1x32x1x1x1>",
        "shape": [
          1,
          32,
          1,
          1
        ],
        "slice": "[0:1, 0:32, 0:1, 0:1, 0:1]",
        "type": "tensor<1x32x1x1xf32>"
      }
    ],
    "buffers": []
  },
  {
    "file-line": 21,
    "subnet_id": 0,
    "core_id": 0,
    "opcode": "tpu.Conv2D",
    "is_local": true,
    "tiu_dma_id(before)": [
      1,
      3
    ],
    "tiu_dma_id(after)": [
      13,
      3
    ],
    "operands": [
      {
        "address": 131072,
        "layout": "eu_align",
        "memory_type": "<1x3x46x640xf16>",
        "name": "images122_Conv_f16",
        "reshape": "<1x3x1x640x640>",
        "shape": [
          1,
          3,
          640,
          640
        ],
        "slice": "[0:1, 0:3, 0:1, 0:46, 0:640]",
        "type": "tensor<1x3x640x640xf16>"
      },
      {
        "address": 259136,
        "layout": "compact",
        "memory_type": "<1x32x1x192xf16>",
        "name": "load_122_Conv_filter_reorderd",
        "reshape": "<1x32x1x1x192>",
        "shape": [
          1,
          32,
          1,
          192
        ],
        "slice": "[0:1, 0:32, 0:1, 0:1, 0:192]",
        "type": "tensor<1x32x1x192xf16>"
      },
      {
        "address": 195712,
        "layout": "compact",
        "memory_type": "<1x32x1x1xf32>",
        "name": "load_model.0.conv.bias",
        "reshape": "<1x32x1x1x1>",
        "shape": [
          1,
          32,
          1,
          1
        ],
        "slice": "[0:1, 0:32, 0:1, 0:1, 0:1]",
        "type": "tensor<1x32x1x1xf32>"
      }
    ],
    "results": [
      {
        "address": 196608,
        "layout": "eu_align",
        "memory_type": "<1x32x22x320xf16>",
        "name": "122_Conv",
        "reshape": "<1x32x1x320x320>",
        "shape": [
          1,
          32,
          320,
          320
        ],
        "slice": "[0:1, 0:32, 0:1, 0:22, 0:320]",
        "type": "tensor<1x32x320x320xf16>"
      }
    ],
    "buffers": [
      {
        "address": 212992,
        "size": 29580
      }
    ]
  },
  {
    "file-line": 17,
    "subnet_id": 0,
    "core_id": 0,
    "opcode": "tpu.Load",
    "is_local": true,
    "tiu_dma_id(before)": [
      1,
      3
    ],
    "tiu_dma_id(after)": [
      1,
      4
    ],
    "operands": [
      {
        "address": 4309757952,
        "layout": "continuous",
        "memory_type": "<1x3x50x640xf32>",
        "name": "images",
        "reshape": "<1x3x1x640x640>",
        "shape": [
          1,
          3,
          640,
          640
        ],
        "slice": "[0:1, 0:3, 0:1, 40:90, 0:640]",
        "type": "tensor<1x3x640x640xf32, 4309655552 : i64>"
      }
    ],
    "results": [
      {
        "address": 0,
        "layout": "eu_align",
        "memory_type": "<1x3x50x640xf32>",
        "name": "load_0",
        "reshape": "<1x3x1x640x640>",
        "shape": [
          1,
          3,
          640,
          640
        ],
        "slice": "[0:1, 0:3, 0:1, 40:90, 0:640]",
        "type": "tensor<1x3x640x640xf32>"
      }
    ],
    "buffers": []
  },
  {
    "file-line": 22,
    "subnet_id": 0,
    "core_id": 0,
    "opcode": "tpu.Cast",
    "is_local": true,
    "tiu_dma_id(before)": [
      13,
      4
    ],
    "tiu_dma_id(after)": [
      14,
      4
    ],
    "operands": [
      {
        "address": 196608,
        "layout": "eu_align",
        "memory_type": "<1x32x22x320xf16>",
        "name": "122_Conv",
        "reshape": "<1x32x1x320x320>",
        "shape": [
          1,
          32,
          320,
          320
        ],
        "slice": "[0:1, 0:32, 0:1, 0:22, 0:320]",
        "type": "tensor<1x32x320x320xf16>"
      }
    ],
    "results": [
      {
        "address": 128000,
        "layout": "eu_align",
        "memory_type": "<1x32x22x320xf32>",
        "name": "122_Conv124_Mul_f32",
        "reshape": "<1x32x1x320x320>",
        "shape": [
          1,
          32,
          320,
          320
        ],
        "slice": "[0:1, 0:32, 0:1, 0:22, 0:320]",
        "type": "tensor<1x32x320x320xf32>"
      }
    ],
    "buffers": []
  },
  {
    "file-line": 24,
    "subnet_id": 0,
    "core_id": 0,
    "opcode": "tpu.Active",
    "is_local": true,
    "tiu_dma_id(before)": [
      14,
      4
    ],
    "tiu_dma_id(after)": [
      31,
      4
    ],
    "operands": [
      {
        "address": 128000,
        "layout": "eu_align",
        "memory_type": "<1x32x22x320xf32>",
        "name": "122_Conv124_Mul_f32",
        "reshape": "<1x32x1x320x320>",
        "shape": [
          1,
          32,
          320,
          320
        ],
        "slice": "[0:1, 0:32, 0:1, 0:22, 0:320]",
        "type": "tensor<1x32x320x320xf32>"
      }
    ],
    "results": [
      {
        "address": 163840,
        "layout": "eu_align",
        "memory_type": "<1x32x22x320xf32>",
        "name": "124_Mul",
        "reshape": "<1x32x1x320x320>",
        "shape": [
          1,
          32,
          320,
          320
        ],
        "slice": "[0:1, 0:32, 0:1, 0:22, 0:320]",
        "type": "tensor<1x32x320x320xf32>"
      }
    ],
    "buffers": [
      {
        "address": 196608,
        "size": 59008
      }
    ]
  },
  {
    "file-line": 23,
    "subnet_id": 0,
    "core_id": 0,
    "opcode": "tpu.Load",
    "is_local": true,
    "tiu_dma_id(before)": [
      14,
      4
    ],
    "tiu_dma_id(after)": [
      14,
      5
    ],
    "operands": [
      {
        "address": 4294983680,
        "layout": "continuous",
        "memory_type": "<1x64x1x1xf32>",
        "name": "model.1.conv.bias",
        "reshape": "<1x64x1x1x1>",
        "shape": [
          1,
          64,
          1,
          1
        ],
        "slice": "[0:1, 0:64, 0:1, 0:1, 0:1]",
        "type": "tensor<1x64x1x1xf32, 4294983680 : i64>"
      }
    ],
    "results": [
      {
        "address": 195072,
        "layout": "compact",
        "memory_type": "<1x64x1x1xf32>",
        "name": "load_model.1.conv.bias",
        "reshape": "<1x64x1x1x1>",
        "shape": [
          1,
          64,
          1,
          1
        ],
        "slice": "[0:1, 0:64, 0:1, 0:1, 0:1]",
        "type": "tensor<1x64x1x1xf32>"
      }
    ],
    "buffers": []
  },
  {
    "file-line": 26,
    "subnet_id": 0,
    "core_id": 0,
    "opcode": "tpu.Cast",
    "is_local": true,
    "tiu_dma_id(before)": [
      31,
      5
    ],
    "tiu_dma_id(after)": [
      32,
      5
    ],
    "operands": [
      {
        "address": 163840,
        "layout": "eu_align",
        "memory_type": "<1x32x22x320xf32>",
        "name": "124_Mul",
        "reshape": "<1x32x1x320x320>",
        "shape": [
          1,
          32,
          320,
          320
        ],
        "slice": "[0:1, 0:32, 0:1, 0:22, 0:320]",
        "type": "tensor<1x32x320x320xf32>"
      }
    ],
    "results": [
      {
        "address": 128000,
        "layout": "eu_align",
        "memory_type": "<1x32x22x320xf16>",
        "name": "124_Mul125_Conv_f16",
        "reshape": "<1x32x1x320x320>",
        "shape": [
          1,
          32,
          320,
          320
        ],
        "slice": "[0:1, 0:32, 0:1, 0:22, 0:320]",
        "type": "tensor<1x32x320x320xf16>"
      }
    ],
    "buffers": []
  },
  {
    "file-line": 25,
    "subnet_id": 0,
    "core_id": 0,
    "opcode": "tpu.Load",
    "is_local": true,
    "tiu_dma_id(before)": [
      31,
      5
    ],
    "tiu_dma_id(after)": [
      31,
      6
    ],
    "operands": [
      {
        "address": 4294987776,
        "layout": "continuous",
        "memory_type": "<1x64x1x288xf16>",
        "name": "125_Conv_filter_reorderd",
        "reshape": "<1x64x1x1x288>",
        "shape": [
          1,
          64,
          1,
          288
        ],
        "slice": "[0:1, 0:64, 0:1, 0:1, 0:288]",
        "type": "tensor<1x64x1x288xf16, 4294987776 : i64>"
      }
    ],
    "results": [
      {
        "address": 195136,
        "layout": "compact",
        "memory_type": "<1x64x1x288xf16>",
        "name": "load_125_Conv_filter_reorderd",
        "reshape": "<1x64x1x1x288>",
        "shape": [
          1,
          64,
          1,
          288
        ],
        "slice": "[0:1, 0:64, 0:1, 0:1, 0:288]",
        "type": "tensor<1x64x1x288xf16>"
      }
    ],
    "buffers": []
  },
  {
    "file-line": 27,
    "subnet_id": 0,
    "core_id": 0,
    "opcode": "tpu.Conv2D",
    "is_local": true,
    "tiu_dma_id(before)": [
      32,
      6
    ],
    "tiu_dma_id(after)": [
      33,
      6
    ],
    "operands": [
      {
        "address": 128000,
        "layout": "eu_align",
        "memory_type": "<1x32x22x320xf16>",
        "name": "124_Mul125_Conv_f16",
        "reshape": "<1x32x1x320x320>",
        "shape": [
          1,
          32,
          320,
          320
        ],
        "slice": "[0:1, 0:32, 0:1, 0:22, 0:320]",
        "type": "tensor<1x32x320x320xf16>"
      },
      {
        "address": 195136,
        "layout": "compact",
        "memory_type": "<1x64x1x288xf16>",
        "name": "load_125_Conv_filter_reorderd",
        "reshape": "<1x64x1x1x288>",
        "shape": [
          1,
          64,
          1,
          288
        ],
        "slice": "[0:1, 0:64, 0:1, 0:1, 0:288]",
        "type": "tensor<1x64x1x288xf16>"
      },
      {
        "address": 195072,
        "layout": "compact",
        "memory_type": "<1x64x1x1xf32>",
        "name": "load_model.1.conv.bias",
        "reshape": "<1x64x1x1x1>",
        "shape": [
          1,
          64,
          1,
          1
        ],
        "slice": "[0:1, 0:64, 0:1, 0:1, 0:1]",
        "type": "tensor<1x64x1x1xf32>"
      }
    ],
    "results": [
      {
        "address": 255616,
        "layout": "eu_align",
        "memory_type": "<1x64x11x160xf16>",
        "name": "125_Conv",
        "reshape": "<1x64x1x160x160>",
        "shape": [
          1,
          64,
          160,
          160
        ],
        "slice": "[0:1, 0:64, 0:1, 0:11, 0:160]",
        "type": "tensor<1x64x160x160xf16>"
      }
    ],
    "buffers": []
  },
  {
    "file-line": 20,
    "subnet_id": 0,
    "core_id": 0,
    "opcode": "tpu.Cast",
    "is_local": true,
    "tiu_dma_id(before)": [
      33,
      6
    ],
    "tiu_dma_id(after)": [
      34,
      6
    ],
    "operands": [
      {
        "address": 0,
        "layout": "eu_align",
        "memory_type": "<1x3x50x640xf32>",
        "name": "load_0",
        "reshape": "<1x3x1x640x640>",
        "shape": [
          1,
          3,
          640,
          640
        ],
        "slice": "[0:1, 0:3, 0:1, 40:90, 0:640]",
        "type": "tensor<1x3x640x640xf32>"
      }
    ],
    "results": [
      {
        "address": 131072,
        "layout": "eu_align",
        "memory_type": "<1x3x50x640xf16>",
        "name": "images122_Conv_f16",
        "reshape": "<1x3x1x640x640>",
        "shape": [
          1,
          3,
          640,
          640
        ],
        "slice": "[0:1, 0:3, 0:1, 40:90, 0:640]",
        "type": "tensor<1x3x640x640xf16>"
      }
    ],
    "buffers": []
  },
  {
    "file-line": 21,
    "subnet_id": 0,
    "core_id": 0,
    "opcode": "tpu.Conv2D",
    "is_local": true,
    "tiu_dma_id(before)": [
      34,
      6
    ],
    "tiu_dma_id(after)": [
      46,
      6
    ],
    "operands": [
      {
        "address": 131072,
        "layout": "eu_align",
        "memory_type": "<1x3x50x640xf16>",
        "name": "images122_Conv_f16",
        "reshape": "<1x3x1x640x640>",
        "shape": [
          1,
          3,
          640,
          640
        ],
        "slice": "[0:1, 0:3, 0:1, 40:90, 0:640]",
        "type": "tensor<1x3x640x640xf16>"
      },
      {
        "address": 259136,
        "layout": "compact",
        "memory_type": "<1x32x1x192xf16>",
        "name": "load_122_Conv_filter_reorderd",
        "reshape": "<1x32x1x1x192>",
        "shape": [
          1,
          32,
          1,
          192
        ],
        "slice": "[0:1, 0:32, 0:1, 0:1, 0:192]",
        "type": "tensor<1x32x1x192xf16>"
      },
      {
        "address": 195712,
        "layout": "compact",
        "memory_type": "<1x32x1x1xf32>",
        "name": "load_model.0.conv.bias",
        "reshape": "<1x32x1x1x1>",
        "shape": [
          1,
          32,
          1,
          1
        ],
        "slice": "[0:1, 0:32, 0:1, 0:1, 0:1]",
        "type": "tensor<1x32x1x1xf32>"
      }
    ],
    "results": [
      {
        "address": 196608,
        "layout": "eu_align",
        "memory_type": "<1x32x23x320xf16>",
        "name": "122_Conv",
        "reshape": "<1x32x1x320x320>",
        "shape": [
          1,
          32,
          320,
          320
        ],
        "slice": "[0:1, 0:32, 0:1, 21:44, 0:320]",
        "type": "tensor<1x32x320x320xf16>"
      }
    ],
    "buffers": [
      {
        "address": 212992,
        "size": 29580
      }
    ]
  },
  {
    "file-line": 17,
    "subnet_id": 0,
    "core_id": 0,
    "opcode": "tpu.Load",
    "is_local": true,
    "tiu_dma_id(before)": [
      34,
      6
    ],
    "tiu_dma_id(after)": [
      34,
      7
    ],
    "operands": [
      {
        "address": 4309870592,
        "layout": "continuous",
        "memory_type": "<1x3x50x640xf32>",
        "name": "images",
        "reshape": "<1x3x1x640x640>",
        "shape": [
          1,
          3,
          640,
          640
        ],
        "slice": "[0:1, 0:3, 0:1, 84:134, 0:640]",
        "type": "tensor<1x3x640x640xf32, 4309655552 : i64>"
      }
    ],
    "results": [
      {
        "address": 0,
        "layout": "eu_align",
        "memory_type": "<1x3x50x640xf32>",
        "name": "load_0",
        "reshape": "<1x3x1x640x640>",
        "shape": [
          1,
          3,
          640,
          640
        ],
        "slice": "[0:1, 0:3, 0:1, 84:134, 0:640]",
        "type": "tensor<1x3x640x640xf32>"
      }
    ],
    "buffers": []
  },
  {
    "file-line": 22,
    "subnet_id": 0,
    "core_id": 0,
    "opcode": "tpu.Cast",
    "is_local": true,
    "tiu_dma_id(before)": [
      46,
      7
    ],
    "tiu_dma_id(after)": [
      47,
      7
    ],
    "operands": [
      {
        "address": 196608,
        "layout": "eu_align",
        "memory_type": "<1x32x23x320xf16>",
        "name": "122_Conv",
        "reshape": "<1x32x1x320x320>",
        "shape": [
          1,
          32,
          320,
          320
        ],
        "slice": "[0:1, 0:32, 0:1, 21:44, 0:320]",
        "type": "tensor<1x32x320x320xf16>"
      }
    ],
    "results": [
      {
        "address": 128000,
        "layout": "eu_align",
        "memory_type": "<1x32x23x320xf32>",
        "name": "122_Conv124_Mul_f32",
        "reshape": "<1x32x1x320x320>",
        "shape": [
          1,
          32,
          320,
          320
        ],
        "slice": "[0:1, 0:32, 0:1, 21:44, 0:320]",
        "type": "tensor<1x32x320x320xf32>"
      }
    ],
    "buffers": []
  },
  {
    "file-line": 24,
    "subnet_id": 0,
    "core_id": 0,
    "opcode": "tpu.Active",
    "is_local": true,
    "tiu_dma_id(before)": [
      47,
      7
    ],
    "tiu_dma_id(after)": [
      64,
      7
    ],
    "operands": [
      {
        "address": 128000,
        "layout": "eu_align",
        "memory_type": "<1x32x23x320xf32>",
        "name": "122_Conv124_Mul_f32",
        "reshape": "<1x32x1x320x320>",
        "shape": [
          1,
          32,
          320,
          320
        ],
        "slice": "[0:1, 0:32, 0:1, 21:44, 0:320]",
        "type": "tensor<1x32x320x320xf32>"
      }
    ],
    "results": [
      {
        "address": 163840,
        "layout": "eu_align",
        "memory_type": "<1x32x23x320xf32>",
        "name": "124_Mul",
        "reshape": "<1x32x1x320x320>",
        "shape": [
          1,
          32,
          320,
          320
        ],
        "slice": "[0:1, 0:32, 0:1, 21:44, 0:320]",
        "type": "tensor<1x32x320x320xf32>"
      }
    ],
    "buffers": [
      {
        "address": 196608,
        "size": 59008
      }
    ]
  },
  {
    "file-line": 28,
    "subnet_id": 0,
    "core_id": 0,
    "opcode": "tpu.Store",
    "is_local": true,
    "tiu_dma_id(before)": [
      47,
      7
    ],
    "tiu_dma_id(after)": [
      47,
      8
    ],
    "operands": [
      {
        "address": 255616,
        "layout": "eu_align",
        "memory_type": "<1x64x11x160xf16>",
        "name": "125_Conv",
        "reshape": "<1x64x1x160x160>",
        "shape": [
          1,
          64,
          160,
          160
        ],
        "slice": "[0:1, 0:64, 0:1, 0:11, 0:160]",
        "type": "tensor<1x64x160x160xf16>"
      },
      {}
    ],
    "results": [
      {
        "address": 4314570752,
        "layout": "continuous",
        "memory_type": "<1x64x11x160xf16>",
        "name": "125_Conv",
        "reshape": "<1x64x1x160x160>",
        "shape": [
          1,
          64,
          160,
          160
        ],
        "slice": "[0:1, 0:64, 0:1, 0:11, 0:160]",
        "type": "tensor<1x64x160x160xf16, 4314570752 : i64>"
      }
    ],
    "buffers": []
  },
  {
    "file-line": 26,
    "subnet_id": 0,
    "core_id": 0,
    "opcode": "tpu.Cast",
    "is_local": true,
    "tiu_dma_id(before)": [
      64,
      8
    ],
    "tiu_dma_id(after)": [
      65,
      8
    ],
    "operands": [
      {
        "address": 163840,
        "layout": "eu_align",
        "memory_type": "<1x32x23x320xf32>",
        "name": "124_Mul",
        "reshape": "<1x32x1x320x320>",
        "shape": [
          1,
          32,
          320,
          320
        ],
        "slice": "[0:1, 0:32, 0:1, 21:44, 0:320]",
        "type": "tensor<1x32x320x320xf32>"
      }
    ],
    "results": [
      {
        "address": 128000,
        "layout": "eu_align",
        "memory_type": "<1x32x23x320xf16>",
        "name": "124_Mul125_Conv_f16",
        "reshape": "<1x32x1x320x320>",
        "shape": [
          1,
          32,
          320,
          320
        ],
        "slice": "[0:1, 0:32, 0:1, 21:44, 0:320]",
        "type": "tensor<1x32x320x320xf16>"
      }
    ],
    "buffers": []
  },
  {
    "file-line": 27,
    "subnet_id": 0,
    "core_id": 0,
    "opcode": "tpu.Conv2D",
    "is_local": true,
    "tiu_dma_id(before)": [
      65,
      8
    ],
    "tiu_dma_id(after)": [
      66,
      8
    ],
    "operands": [
      {
        "address": 128000,
        "layout": "eu_align",
        "memory_type": "<1x32x23x320xf16>",
        "name": "124_Mul125_Conv_f16",
        "reshape": "<1x32x1x320x320>",
        "shape": [
          1,
          32,
          320,
          320
        ],
        "slice": "[0:1, 0:32, 0:1, 21:44, 0:320]",
        "type": "tensor<1x32x320x320xf16>"
      },
      {
        "address": 195136,
        "layout": "compact",
        "memory_type": "<1x64x1x288xf16>",
        "name": "load_125_Conv_filter_reorderd",
        "reshape": "<1x64x1x1x288>",
        "shape": [
          1,
          64,
          1,
          288
        ],
        "slice": "[0:1, 0:64, 0:1, 0:1, 0:288]",
        "type": "tensor<1x64x1x288xf16>"
      },
      {
        "address": 195072,
        "layout": "compact",
        "memory_type": "<1x64x1x1xf32>",
        "name": "load_model.1.conv.bias",
        "reshape": "<1x64x1x1x1>",
        "shape": [
          1,
          64,
          1,
          1
        ],
        "slice": "[0:1, 0:64, 0:1, 0:1, 0:1]",
        "type": "tensor<1x64x1x1xf32>"
      }
    ],
    "results": [
      {
        "address": 255616,
        "layout": "eu_align",
        "memory_type": "<1x64x11x160xf16>",
        "name": "125_Conv",
        "reshape": "<1x64x1x160x160>",
        "shape": [
          1,
          64,
          160,
          160
        ],
        "slice": "[0:1, 0:64, 0:1, 11:22, 0:160]",
        "type": "tensor<1x64x160x160xf16>"
      }
    ],
    "buffers": []
  },
  {
    "file-line": 20,
    "subnet_id": 0,
    "core_id": 0,
    "opcode": "tpu.Cast",
    "is_local": true,
    "tiu_dma_id(before)": [
      66,
      8
    ],
    "tiu_dma_id(after)": [
      67,
      8
    ],
    "operands": [
      {
        "address": 0,
        "layout": "eu_align",
        "memory_type": "<1x3x50x640xf32>",
        "name": "load_0",
        "reshape": "<1x3x1x640x640>",
        "shape": [
          1,
          3,
          640,
          640
        ],
        "slice": "[0:1, 0:3, 0:1, 84:134, 0:640]",
        "type": "tensor<1x3x640x640xf32>"
      }
    ],
    "results": [
      {
        "address": 131072,
        "layout": "eu_align",
        "memory_type": "<1x3x50x640xf16>",
        "name": "images122_Conv_f16",
        "reshape": "<1x3x1x640x640>",
        "shape": [
          1,
          3,
          640,
          640
        ],
        "slice": "[0:1, 0:3, 0:1, 84:134, 0:640]",
        "type": "tensor<1x3x640x640xf16>"
      }
    ],
    "buffers": []
  },
  {
    "file-line": 21,
    "subnet_id": 0,
    "core_id": 0,
    "opcode": "tpu.Conv2D",
    "is_local": true,
    "tiu_dma_id(before)": [
      67,
      8
    ],
    "tiu_dma_id(after)": [
      79,
      8
    ],
    "operands": [
      {
        "address": 131072,
        "layout": "eu_align",
        "memory_type": "<1x3x50x640xf16>",
        "name": "images122_Conv_f16",
        "reshape": "<1x3x1x640x640>",
        "shape": [
          1,
          3,
          640,
          640
        ],
        "slice": "[0:1, 0:3, 0:1, 84:134, 0:640]",
        "type": "tensor<1x3x640x640xf16>"
      },
      {
        "address": 259136,
        "layout": "compact",
        "memory_type": "<1x32x1x192xf16>",
        "name": "load_122_Conv_filter_reorderd",
        "reshape": "<1x32x1x1x192>",
        "shape": [
          1,
          32,
          1,
          192
        ],
        "slice": "[0:1, 0:32, 0:1, 0:1, 0:192]",
        "type": "tensor<1x32x1x192xf16>"
      },
      {
        "address": 195712,
        "layout": "compact",
        "memory_type": "<1x32x1x1xf32>",
        "name": "load_model.0.conv.bias",
        "reshape": "<1x32x1x1x1>",
        "shape": [
          1,
          32,
          1,
          1
        ],
        "slice": "[0:1, 0:32, 0:1, 0:1, 0:1]",
        "type": "tensor<1x32x1x1xf32>"
      }
    ],
    "results": [
      {
        "address": 196608,
        "layout": "eu_align",
        "memory_type": "<1x32x23x320xf16>",
        "name": "122_Conv",
        "reshape": "<1x32x1x320x320>",
        "shape": [
          1,
          32,
          320,
          320
        ],
        "slice": "[0:1, 0:32, 0:1, 43:66, 0:320]",
        "type": "tensor<1x32x320x320xf16>"
      }
    ],
    "buffers": [
      {
        "address": 212992,
        "size": 29580
      }
    ]
  },
  {
    "file-line": 17,
    "subnet_id": 0,
    "core_id": 0,
    "opcode": "tpu.Load",
    "is_local": true,
    "tiu_dma_id(before)": [
      67,
      8
    ],
    "tiu_dma_id(after)": [
      67,
      9
    ],
    "operands": [
      {
        "address": 4309983232,
        "layout": "continuous",
        "memory_type": "<1x3x50x640xf32>",
        "name": "images",
        "reshape": "<1x3x1x640x640>",
        "shape": [
          1,
          3,
          640,
          640
        ],
        "slice": "[0:1, 0:3, 0:1, 128:178, 0:640]",
        "type": "tensor<1x3x640x640xf32, 4309655552 : i64>"
      }
    ],
    "results": [
      {
        "address": 0,
        "layout": "eu_align",
        "memory_type": "<1x3x50x640xf32>",
        "name": "load_0",
        "reshape": "<1x3x1x640x640>",
        "shape": [
          1,
          3,
          640,
          640
        ],
        "slice": "[0:1, 0:3, 0:1, 128:178, 0:640]",
        "type": "tensor<1x3x640x640xf32>"
      }
    ],
    "buffers": []
  },
  {
    "file-line": 22,
    "subnet_id": 0,
    "core_id": 0,
    "opcode": "tpu.Cast",
    "is_local": true,
    "tiu_dma_id(before)": [
      79,
      9
    ],
    "tiu_dma_id(after)": [
      80,
      9
    ],
    "operands": [
      {
        "address": 196608,
        "layout": "eu_align",
        "memory_type": "<1x32x23x320xf16>",
        "name": "122_Conv",
        "reshape": "<1x32x1x320x320>",
        "shape": [
          1,
          32,
          320,
          320
        ],
        "slice": "[0:1, 0:32, 0:1, 43:66, 0:320]",
        "type": "tensor<1x32x320x320xf16>"
      }
    ],
    "results": [
      {
        "address": 128000,
        "layout": "eu_align",
        "memory_type": "<1x32x23x320xf32>",
        "name": "122_Conv124_Mul_f32",
        "reshape": "<1x32x1x320x320>",
        "shape": [
          1,
          32,
          320,
          320
        ],
        "slice": "[0:1, 0:32, 0:1, 43:66, 0:320]",
        "type": "tensor<1x32x320x320xf32>"
      }
    ],
    "buffers": []
  },
  {
    "file-line": 24,
    "subnet_id": 0,
    "core_id": 0,
    "opcode": "tpu.Active",
    "is_local": true,
    "tiu_dma_id(before)": [
      80,
      9
    ],
    "tiu_dma_id(after)": [
      97,
      9
    ],
    "operands": [
      {
        "address": 128000,
        "layout": "eu_align",
        "memory_type": "<1x32x23x320xf32>",
        "name": "122_Conv124_Mul_f32",
        "reshape": "<1x32x1x320x320>",
        "shape": [
          1,
          32,
          320,
          320
        ],
        "slice": "[0:1, 0:32, 0:1, 43:66, 0:320]",
        "type": "tensor<1x32x320x320xf32>"
      }
    ],
    "results": [
      {
        "address": 163840,
        "layout": "eu_align",
        "memory_type": "<1x32x23x320xf32>",
        "name": "124_Mul",
        "reshape": "<1x32x1x320x320>",
        "shape": [
          1,
          32,
          320,
          320
        ],
        "slice": "[0:1, 0:32, 0:1, 43:66, 0:320]",
        "type": "tensor<1x32x320x320xf32>"
      }
    ],
    "buffers": [
      {
        "address": 196608,
        "size": 59008
      }
    ]
  },
  {
    "file-line": 28,
    "subnet_id": 0,
    "core_id": 0,
    "opcode": "tpu.Store",
    "is_local": true,
    "tiu_dma_id(before)": [
      80,
      9
    ],
    "tiu_dma_id(after)": [
      80,
      10
    ],
    "operands": [
      {
        "address": 255616,
        "layout": "eu_align",
        "memory_type": "<1x64x11x160xf16>",
        "name": "125_Conv",
        "reshape": "<1x64x1x160x160>",
        "shape": [
          1,
          64,
          160,
          160
        ],
        "slice": "[0:1, 0:64, 0:1, 11:22, 0:160]",
        "type": "tensor<1x64x160x160xf16>"
      },
      {}
    ],
    "results": [
      {
        "address": 4314574272,
        "layout": "continuous",
        "memory_type": "<1x64x11x160xf16>",
        "name": "125_Conv",
        "reshape": "<1x64x1x160x160>",
        "shape": [
          1,
          64,
          160,
          160
        ],
        "slice": "[0:1, 0:64, 0:1, 11:22, 0:160]",
        "type": "tensor<1x64x160x160xf16, 4314570752 : i64>"
      }
    ],
    "buffers": []
  },
  {
    "file-line": 26,
    "subnet_id": 0,
    "core_id": 0,
    "opcode": "tpu.Cast",
    "is_local": true,
    "tiu_dma_id(before)": [
      97,
      10
    ],
    "tiu_dma_id(after)": [
      98,
      10
    ],
    "operands": [
      {
        "address": 163840,
        "layout": "eu_align",
        "memory_type": "<1x32x23x320xf32>",
        "name": "124_Mul",
        "reshape": "<1x32x1x320x320>",
        "shape": [
          1,
          32,
          320,
          320
        ],
        "slice": "[0:1, 0:32, 0:1, 43:66, 0:320]",
        "type": "tensor<1x32x320x320xf32>"
      }
    ],
    "results": [
      {
        "address": 128000,
        "layout": "eu_align",
        "memory_type": "<1x32x23x320xf16>",
        "name": "124_Mul125_Conv_f16",
        "reshape": "<1x32x1x320x320>",
        "shape": [
          1,
          32,
          320,
          320
        ],
        "slice": "[0:1, 0:32, 0:1, 43:66, 0:320]",
        "type": "tensor<1x32x320x320xf16>"
      }
    ],
    "buffers": []
  },
  {
    "file-line": 27,
    "subnet_id": 0,
    "core_id": 0,
    "opcode": "tpu.Conv2D",
    "is_local": true,
    "tiu_dma_id(before)": [
      98,
      10
    ],
    "tiu_dma_id(after)": [
      99,
      10
    ],
    "operands": [
      {
        "address": 128000,
        "layout": "eu_align",
        "memory_type": "<1x32x23x320xf16>",
        "name": "124_Mul125_Conv_f16",
        "reshape": "<1x32x1x320x320>",
        "shape": [
          1,
          32,
          320,
          320
        ],
        "slice": "[0:1, 0:32, 0:1, 43:66, 0:320]",
        "type": "tensor<1x32x320x320xf16>"
      },
      {
        "address": 195136,
        "layout": "compact",
        "memory_type": "<1x64x1x288xf16>",
        "name": "load_125_Conv_filter_reorderd",
        "reshape": "<1x64x1x1x288>",
        "shape": [
          1,
          64,
          1,
          288
        ],
        "slice": "[0:1, 0:64, 0:1, 0:1, 0:288]",
        "type": "tensor<1x64x1x288xf16>"
      },
      {
        "address": 195072,
        "layout": "compact",
        "memory_type": "<1x64x1x1xf32>",
        "name": "load_model.1.conv.bias",
        "reshape": "<1x64x1x1x1>",
        "shape": [
          1,
          64,
          1,
          1
        ],
        "slice": "[0:1, 0:64, 0:1, 0:1, 0:1]",
        "type": "tensor<1x64x1x1xf32>"
      }
    ],
    "results": [
      {
        "address": 255616,
        "layout": "eu_align",
        "memory_type": "<1x64x11x160xf16>",
        "name": "125_Conv",
        "reshape": "<1x64x1x160x160>",
        "shape": [
          1,
          64,
          160,
          160
        ],
        "slice": "[0:1, 0:64, 0:1, 22:33, 0:160]",
        "type": "tensor<1x64x160x160xf16>"
      }
    ],
    "buffers": []
  },
  {
    "file-line": 20,
    "subnet_id": 0,
    "core_id": 0,
    "opcode": "tpu.Cast",
    "is_local": true,
    "tiu_dma_id(before)": [
      99,
      10
    ],
    "tiu_dma_id(after)": [
      100,
      10
    ],
    "operands": [
      {
        "address": 0,
        "layout": "eu_align",
        "memory_type": "<1x3x50x640xf32>",
        "name": "load_0",
        "reshape": "<1x3x1x640x640>",
        "shape": [
          1,
          3,
          640,
          640
        ],
        "slice": "[0:1, 0:3, 0:1, 128:178, 0:640]",
        "type": "tensor<1x3x640x640xf32>"
      }
    ],
    "results": [
      {
        "address": 131072,
        "layout": "eu_align",
        "memory_type": "<1x3x50x640xf16>",
        "name": "images122_Conv_f16",
        "reshape": "<1x3x1x640x640>",
        "shape": [
          1,
          3,
          640,
          640
        ],
        "slice": "[0:1, 0:3, 0:1, 128:178, 0:640]",
        "type": "tensor<1x3x640x640xf16>"
      }
    ],
    "buffers": []
  },
  {
    "file-line": 21,
    "subnet_id": 0,
    "core_id": 0,
    "opcode": "tpu.Conv2D",
    "is_local": true,
    "tiu_dma_id(before)": [
      100,
      10
    ],
    "tiu_dma_id(after)": [
      112,
      10
    ],
    "operands": [
      {
        "address": 131072,
        "layout": "eu_align",
        "memory_type": "<1x3x50x640xf16>",
        "name": "images122_Conv_f16",
        "reshape": "<1x3x1x640x640>",
        "shape": [
          1,
          3,
          640,
          640
        ],
        "slice": "[0:1, 0:3, 0:1, 128:178, 0:640]",
        "type": "tensor<1x3x640x640xf16>"
      },
      {
        "address": 259136,
        "layout": "compact",
        "memory_type": "<1x32x1x192xf16>",
        "name": "load_122_Conv_filter_reorderd",
        "reshape": "<1x32x1x1x192>",
        "shape": [
          1,
          32,
          1,
          192
        ],
        "slice": "[0:1, 0:32, 0:1, 0:1, 0:192]",
        "type": "tensor<1x32x1x192xf16>"
      },
      {
        "address": 195712,
        "layout": "compact",
        "memory_type": "<1x32x1x1xf32>",
        "name": "load_model.0.conv.bias",
        "reshape": "<1x32x1x1x1>",
        "shape": [
          1,
          32,
          1,
          1
        ],
        "slice": "[0:1, 0:32, 0:1, 0:1, 0:1]",
        "type": "tensor<1x32x1x1xf32>"
      }
    ],
    "results": [
      {
        "address": 196608,
        "layout": "eu_align",
        "memory_type": "<1x32x23x320xf16>",
        "name": "122_Conv",
        "reshape": "<1x32x1x320x320>",
        "shape": [
          1,
          32,
          320,
          320
        ],
        "slice": "[0:1, 0:32, 0:1, 65:88, 0:320]",
        "type": "tensor<1x32x320x320xf16>"
      }
    ],
    "buffers": [
      {
        "address": 212992,
        "size": 29580
      }
    ]
  },
  {
    "file-line": 17,
    "subnet_id": 0,
    "core_id": 0,
    "opcode": "tpu.Load",
    "is_local": true,
    "tiu_dma_id(before)": [
      100,
      10
    ],
    "tiu_dma_id(after)": [
      100,
      11
    ],
    "operands": [
      {
        "address": 4310095872,
        "layout": "continuous",
        "memory_type": "<1x3x50x640xf32>",
        "name": "images",
        "reshape": "<1x3x1x640x640>",
        "shape": [
          1,
          3,
          640,
          640
        ],
        "slice": "[0:1, 0:3, 0:1, 172:222, 0:640]",
        "type": "tensor<1x3x640x640xf32, 4309655552 : i64>"
      }
    ],
    "results": [
      {
        "address": 0,
        "layout": "eu_align",
        "memory_type": "<1x3x50x640xf32>",
        "name": "load_0",
        "reshape": "<1x3x1x640x640>",
        "shape": [
          1,
          3,
          640,
          640
        ],
        "slice": "[0:1, 0:3, 0:1, 172:222, 0:640]",
        "type": "tensor<1x3x640x640xf32>"
      }
    ],
    "buffers": []
  },
  {
    "file-line": 22,
    "subnet_id": 0,
    "core_id": 0,
    "opcode": "tpu.Cast",
    "is_local": true,
    "tiu_dma_id(before)": [
      112,
      11
    ],
    "tiu_dma_id(after)": [
      113,
      11
    ],
    "operands": [
      {
        "address": 196608,
        "layout": "eu_align",
        "memory_type": "<1x32x23x320xf16>",
        "name": "122_Conv",
        "reshape": "<1x32x1x320x320>",
        "shape": [
          1,
          32,
          320,
          320
        ],
        "slice": "[0:1, 0:32, 0:1, 65:88, 0:320]",
        "type": "tensor<1x32x320x320xf16>"
      }
    ],
    "results": [
      {
        "address": 128000,
        "layout": "eu_align",
        "memory_type": "<1x32x23x320xf32>",
        "name": "122_Conv124_Mul_f32",
        "reshape": "<1x32x1x320x320>",
        "shape": [
          1,
          32,
          320,
          320
        ],
        "slice": "[0:1, 0:32, 0:1, 65:88, 0:320]",
        "type": "tensor<1x32x320x320xf32>"
      }
    ],
    "buffers": []
  },
  {
    "file-line": 24,
    "subnet_id": 0,
    "core_id": 0,
    "opcode": "tpu.Active",
    "is_local": true,
    "tiu_dma_id(before)": [
      113,
      11
    ],
    "tiu_dma_id(after)": [
      130,
      11
    ],
    "operands": [
      {
        "address": 128000,
        "layout": "eu_align",
        "memory_type": "<1x32x23x320xf32>",
        "name": "122_Conv124_Mul_f32",
        "reshape": "<1x32x1x320x320>",
        "shape": [
          1,
          32,
          320,
          320
        ],
        "slice": "[0:1, 0:32, 0:1, 65:88, 0:320]",
        "type": "tensor<1x32x320x320xf32>"
      }
    ],
    "results": [
      {
        "address": 163840,
        "layout": "eu_align",
        "memory_type": "<1x32x23x320xf32>",
        "name": "124_Mul",
        "reshape": "<1x32x1x320x320>",
        "shape": [
          1,
          32,
          320,
          320
        ],
        "slice": "[0:1, 0:32, 0:1, 65:88, 0:320]",
        "type": "tensor<1x32x320x320xf32>"
      }
    ],
    "buffers": [
      {
        "address": 196608,
        "size": 59008
      }
    ]
  },
  {
    "file-line": 28,
    "subnet_id": 0,
    "core_id": 0,
    "opcode": "tpu.Store",
    "is_local": true,
    "tiu_dma_id(before)": [
      113,
      11
    ],
    "tiu_dma_id(after)": [
      113,
      12
    ],
    "operands": [
      {
        "address": 255616,
        "layout": "eu_align",
        "memory_type": "<1x64x11x160xf16>",
        "name": "125_Conv",
        "reshape": "<1x64x1x160x160>",
        "shape": [
          1,
          64,
          160,
          160
        ],
        "slice": "[0:1, 0:64, 0:1, 22:33, 0:160]",
        "type": "tensor<1x64x160x160xf16>"
      },
      {}
    ],
    "results": [
      {
        "address": 4314577792,
        "layout": "continuous",
        "memory_type": "<1x64x11x160xf16>",
        "name": "125_Conv",
        "reshape": "<1x64x1x160x160>",
        "shape": [
          1,
          64,
          160,
          160
        ],
        "slice": "[0:1, 0:64, 0:1, 22:33, 0:160]",
        "type": "tensor<1x64x160x160xf16, 4314570752 : i64>"
      }
    ],
    "buffers": []
  },
  {
    "file-line": 26,
    "subnet_id": 0,
    "core_id": 0,
    "opcode": "tpu.Cast",
    "is_local": true,
    "tiu_dma_id(before)": [
      130,
      12
    ],
    "tiu_dma_id(after)": [
      131,
      12
    ],
    "operands": [
      {
        "address": 163840,
        "layout": "eu_align",
        "memory_type": "<1x32x23x320xf32>",
        "name": "124_Mul",
        "reshape": "<1x32x1x320x320>",
        "shape": [
          1,
          32,
          320,
          320
        ],
        "slice": "[0:1, 0:32, 0:1, 65:88, 0:320]",
        "type": "tensor<1x32x320x320xf32>"
      }
    ],
    "results": [
      {
        "address": 128000,
        "layout": "eu_align",
        "memory_type": "<1x32x23x320xf16>",
        "name": "124_Mul125_Conv_f16",
        "reshape": "<1x32x1x320x320>",
        "shape": [
          1,
          32,
          320,
          320
        ],
        "slice": "[0:1, 0:32, 0:1, 65:88, 0:320]",
        "type": "tensor<1x32x320x320xf16>"
      }
    ],
    "buffers": []
  },
  {
    "file-line": 27,
    "subnet_id": 0,
    "core_id": 0,
    "opcode": "tpu.Conv2D",
    "is_local": true,
    "tiu_dma_id(before)": [
      131,
      12
    ],
    "tiu_dma_id(after)": [
      132,
      12
    ],
    "operands": [
      {
        "address": 128000,
        "layout": "eu_align",
        "memory_type": "<1x32x23x320xf16>",
        "name": "124_Mul125_Conv_f16",
        "reshape": "<1x32x1x320x320>",
        "shape": [
          1,
          32,
          320,
          320
        ],
        "slice": "[0:1, 0:32, 0:1, 65:88, 0:320]",
        "type": "tensor<1x32x320x320xf16>"
      },
      {
        "address": 195136,
        "layout": "compact",
        "memory_type": "<1x64x1x288xf16>",
        "name": "load_125_Conv_filter_reorderd",
        "reshape": "<1x64x1x1x288>",
        "shape": [
          1,
          64,
          1,
          288
        ],
        "slice": "[0:1, 0:64, 0:1, 0:1, 0:288]",
        "type": "tensor<1x64x1x288xf16>"
      },
      {
        "address": 195072,
        "layout": "compact",
        "memory_type": "<1x64x1x1xf32>",
        "name": "load_model.1.conv.bias",
        "reshape": "<1x64x1x1x1>",
        "shape": [
          1,
          64,
          1,
          1
        ],
        "slice": "[0:1, 0:64, 0:1, 0:1, 0:1]",
        "type": "tensor<1x64x1x1xf32>"
      }
    ],
    "results": [
      {
        "address": 255616,
        "layout": "eu_align",
        "memory_type": "<1x64x11x160xf16>",
        "name": "125_Conv",
        "reshape": "<1x64x1x160x160>",
        "shape": [
          1,
          64,
          160,
          160
        ],
        "slice": "[0:1, 0:64, 0:1, 33:44, 0:160]",
        "type": "tensor<1x64x160x160xf16>"
      }
    ],
    "buffers": []
  },
  {
    "file-line": 20,
    "subnet_id": 0,
    "core_id": 0,
    "opcode": "tpu.Cast",
    "is_local": true,
    "tiu_dma_id(before)": [
      132,
      12
    ],
    "tiu_dma_id(after)": [
      133,
      12
    ],
    "operands": [
      {
        "address": 0,
        "layout": "eu_align",
        "memory_type": "<1x3x50x640xf32>",
        "name": "load_0",
        "reshape": "<1x3x1x640x640>",
        "shape": [
          1,
          3,
          640,
          640
        ],
        "slice": "[0:1, 0:3, 0:1, 172:222, 0:640]",
        "type": "tensor<1x3x640x640xf32>"
      }
    ],
    "results": [
      {
        "address": 131072,
        "layout": "eu_align",
        "memory_type": "<1x3x50x640xf16>",
        "name": "images122_Conv_f16",
        "reshape": "<1x3x1x640x640>",
        "shape": [
          1,
          3,
          640,
          640
        ],
        "slice": "[0:1, 0:3, 0:1, 172:222, 0:640]",
        "type": "tensor<1x3x640x640xf16>"
      }
    ],
    "buffers": []
  },
  {
    "file-line": 21,
    "subnet_id": 0,
    "core_id": 0,
    "opcode": "tpu.Conv2D",
    "is_local": true,
    "tiu_dma_id(before)": [
      133,
      12
    ],
    "tiu_dma_id(after)": [
      145,
      12
    ],
    "operands": [
      {
        "address": 131072,
        "layout": "eu_align",
        "memory_type": "<1x3x50x640xf16>",
        "name": "images122_Conv_f16",
        "reshape": "<1x3x1x640x640>",
        "shape": [
          1,
          3,
          640,
          640
        ],
        "slice": "[0:1, 0:3, 0:1, 172:222, 0:640]",
        "type": "tensor<1x3x640x640xf16>"
      },
      {
        "address": 259136,
        "layout": "compact",
        "memory_type": "<1x32x1x192xf16>",
        "name": "load_122_Conv_filter_reorderd",
        "reshape": "<1x32x1x1x192>",
        "shape": [
          1,
          32,
          1,
          192
        ],
        "slice": "[0:1, 0:32, 0:1, 0:1, 0:192]",
        "type": "tensor<1x32x1x192xf16>"
      },
      {
        "address": 195712,
        "layout": "compact",
        "memory_type": "<1x32x1x1xf32>",
        "name": "load_model.0.conv.bias",
        "reshape": "<1x32x1x1x1>",
        "shape": [
          1,
          32,
          1,
          1
        ],
        "slice": "[0:1, 0:32, 0:1, 0:1, 0:1]",
        "type": "tensor<1x32x1x1xf32>"
      }
    ],
    "results": [
      {
        "address": 196608,
        "layout": "eu_align",
        "memory_type": "<1x32x23x320xf16>",
        "name": "122_Conv",
        "reshape": "<1x32x1x320x320>",
        "shape": [
          1,
          32,
          320,
          320
        ],
        "slice": "[0:1, 0:32, 0:1, 87:110, 0:320]",
        "type": "tensor<1x32x320x320xf16>"
      }
    ],
    "buffers": [
      {
        "address": 212992,
        "size": 29580
      }
    ]
  },
  {
    "file-line": 17,
    "subnet_id": 0,
    "core_id": 0,
    "opcode": "tpu.Load",
    "is_local": true,
    "tiu_dma_id(before)": [
      133,
      12
    ],
    "tiu_dma_id(after)": [
      133,
      13
    ],
    "operands": [
      {
        "address": 4310208512,
        "layout": "continuous",
        "memory_type": "<1x3x50x640xf32>",
        "name": "images",
        "reshape": "<1x3x1x640x640>",
        "shape": [
          1,
          3,
          640,
          640
        ],
        "slice": "[0:1, 0:3, 0:1, 216:266, 0:640]",
        "type": "tensor<1x3x640x640xf32, 4309655552 : i64>"
      }
    ],
    "results": [
      {
        "address": 0,
        "layout": "eu_align",
        "memory_type": "<1x3x50x640xf32>",
        "name": "load_0",
        "reshape": "<1x3x1x640x640>",
        "shape": [
          1,
          3,
          640,
          640
        ],
        "slice": "[0:1, 0:3, 0:1, 216:266, 0:640]",
        "type": "tensor<1x3x640x640xf32>"
      }
    ],
    "buffers": []
  },
  {
    "file-line": 22,
    "subnet_id": 0,
    "core_id": 0,
    "opcode": "tpu.Cast",
    "is_local": true,
    "tiu_dma_id(before)": [
      145,
      13
    ],
    "tiu_dma_id(after)": [
      146,
      13
    ],
    "operands": [
      {
        "address": 196608,
        "layout": "eu_align",
        "memory_type": "<1x32x23x320xf16>",
        "name": "122_Conv",
        "reshape": "<1x32x1x320x320>",
        "shape": [
          1,
          32,
          320,
          320
        ],
        "slice": "[0:1, 0:32, 0:1, 87:110, 0:320]",
        "type": "tensor<1x32x320x320xf16>"
      }
    ],
    "results": [
      {
        "address": 128000,
        "layout": "eu_align",
        "memory_type": "<1x32x23x320xf32>",
        "name": "122_Conv124_Mul_f32",
        "reshape": "<1x32x1x320x320>",
        "shape": [
          1,
          32,
          320,
          320
        ],
        "slice": "[0:1, 0:32, 0:1, 87:110, 0:320]",
        "type": "tensor<1x32x320x320xf32>"
      }
    ],
    "buffers": []
  },
  {
    "file-line": 24,
    "subnet_id": 0,
    "core_id": 0,
    "opcode": "tpu.Active",
    "is_local": true,
    "tiu_dma_id(before)": [
      146,
      13
    ],
    "tiu_dma_id(after)": [
      163,
      13
    ],
    "operands": [
      {
        "address": 128000,
        "layout": "eu_align",
        "memory_type": "<1x32x23x320xf32>",
        "name": "122_Conv124_Mul_f32",
        "reshape": "<1x32x1x320x320>",
        "shape": [
          1,
          32,
          320,
          320
        ],
        "slice": "[0:1, 0:32, 0:1, 87:110, 0:320]",
        "type": "tensor<1x32x320x320xf32>"
      }
    ],
    "results": [
      {
        "address": 163840,
        "layout": "eu_align",
        "memory_type": "<1x32x23x320xf32>",
        "name": "124_Mul",
        "reshape": "<1x32x1x320x320>",
        "shape": [
          1,
          32,
          320,
          320
        ],
        "slice": "[0:1, 0:32, 0:1, 87:110, 0:320]",
        "type": "tensor<1x32x320x320xf32>"
      }
    ],
    "buffers": [
      {
        "address": 196608,
        "size": 59008
      }
    ]
  },
  {
    "file-line": 28,
    "subnet_id": 0,
    "core_id": 0,
    "opcode": "tpu.Store",
    "is_local": true,
    "tiu_dma_id(before)": [
      146,
      13
    ],
    "tiu_dma_id(after)": [
      146,
      14
    ],
    "operands": [
      {
        "address": 255616,
        "layout": "eu_align",
        "memory_type": "<1x64x11x160xf16>",
        "name": "125_Conv",
        "reshape": "<1x64x1x160x160>",
        "shape": [
          1,
          64,
          160,
          160
        ],
        "slice": "[0:1, 0:64, 0:1, 33:44, 0:160]",
        "type": "tensor<1x64x160x160xf16>"
      },
      {}
    ],
    "results": [
      {
        "address": 4314581312,
        "layout": "continuous",
        "memory_type": "<1x64x11x160xf16>",
        "name": "125_Conv",
        "reshape": "<1x64x1x160x160>",
        "shape": [
          1,
          64,
          160,
          160
        ],
        "slice": "[0:1, 0:64, 0:1, 33:44, 0:160]",
        "type": "tensor<1x64x160x160xf16, 4314570752 : i64>"
      }
    ],
    "buffers": []
  },
  {
    "file-line": 26,
    "subnet_id": 0,
    "core_id": 0,
    "opcode": "tpu.Cast",
    "is_local": true,
    "tiu_dma_id(before)": [
      163,
      14
    ],
    "tiu_dma_id(after)": [
      164,
      14
    ],
    "operands": [
      {
        "address": 163840,
        "layout": "eu_align",
        "memory_type": "<1x32x23x320xf32>",
        "name": "124_Mul",
        "reshape": "<1x32x1x320x320>",
        "shape": [
          1,
          32,
          320,
          320
        ],
        "slice": "[0:1, 0:32, 0:1, 87:110, 0:320]",
        "type": "tensor<1x32x320x320xf32>"
      }
    ],
    "results": [
      {
        "address": 128000,
        "layout": "eu_align",
        "memory_type": "<1x32x23x320xf16>",
        "name": "124_Mul125_Conv_f16",
        "reshape": "<1x32x1x320x320>",
        "shape": [
          1,
          32,
          320,
          320
        ],
        "slice": "[0:1, 0:32, 0:1, 87:110, 0:320]",
        "type": "tensor<1x32x320x320xf16>"
      }
    ],
    "buffers": []
  },
  {
    "file-line": 27,
    "subnet_id": 0,
    "core_id": 0,
    "opcode": "tpu.Conv2D",
    "is_local": true,
    "tiu_dma_id(before)": [
      164,
      14
    ],
    "tiu_dma_id(after)": [
      165,
      14
    ],
    "operands": [
      {
        "address": 128000,
        "layout": "eu_align",
        "memory_type": "<1x32x23x320xf16>",
        "name": "124_Mul125_Conv_f16",
        "reshape": "<1x32x1x320x320>",
        "shape": [
          1,
          32,
          320,
          320
        ],
        "slice": "[0:1, 0:32, 0:1, 87:110, 0:320]",
        "type": "tensor<1x32x320x320xf16>"
      },
      {
        "address": 195136,
        "layout": "compact",
        "memory_type": "<1x64x1x288xf16>",
        "name": "load_125_Conv_filter_reorderd",
        "reshape": "<1x64x1x1x288>",
        "shape": [
          1,
          64,
          1,
          288
        ],
        "slice": "[0:1, 0:64, 0:1, 0:1, 0:288]",
        "type": "tensor<1x64x1x288xf16>"
      },
      {
        "address": 195072,
        "layout": "compact",
        "memory_type": "<1x64x1x1xf32>",
        "name": "load_model.1.conv.bias",
        "reshape": "<1x64x1x1x1>",
        "shape": [
          1,
          64,
          1,
          1
        ],
        "slice": "[0:1, 0:64, 0:1, 0:1, 0:1]",
        "type": "tensor<1x64x1x1xf32>"
      }
    ],
    "results": [
      {
        "address": 255616,
        "layout": "eu_align",
        "memory_type": "<1x64x11x160xf16>",
        "name": "125_Conv",
        "reshape": "<1x64x1x160x160>",
        "shape": [
          1,
          64,
          160,
          160
        ],
        "slice": "[0:1, 0:64, 0:1, 44:55, 0:160]",
        "type": "tensor<1x64x160x160xf16>"
      }
    ],
    "buffers": []
  },
  {
    "file-line": 20,
    "subnet_id": 0,
    "core_id": 0,
    "opcode": "tpu.Cast",
    "is_local": true,
    "tiu_dma_id(before)": [
      165,
      14
    ],
    "tiu_dma_id(after)": [
      166,
      14
    ],
    "operands": [
      {
        "address": 0,
        "layout": "eu_align",
        "memory_type": "<1x3x50x640xf32>",
        "name": "load_0",
        "reshape": "<1x3x1x640x640>",
        "shape": [
          1,
          3,
          640,
          640
        ],
        "slice": "[0:1, 0:3, 0:1, 216:266, 0:640]",
        "type": "tensor<1x3x640x640xf32>"
      }
    ],
    "results": [
      {
        "address": 131072,
        "layout": "eu_align",
        "memory_type": "<1x3x50x640xf16>",
        "name": "images122_Conv_f16",
        "reshape": "<1x3x1x640x640>",
        "shape": [
          1,
          3,
          640,
          640
        ],
        "slice": "[0:1, 0:3, 0:1, 216:266, 0:640]",
        "type": "tensor<1x3x640x640xf16>"
      }
    ],
    "buffers": []
  },
  {
    "file-line": 21,
    "subnet_id": 0,
    "core_id": 0,
    "opcode": "tpu.Conv2D",
    "is_local": true,
    "tiu_dma_id(before)": [
      166,
      14
    ],
    "tiu_dma_id(after)": [
      178,
      14
    ],
    "operands": [
      {
        "address": 131072,
        "layout": "eu_align",
        "memory_type": "<1x3x50x640xf16>",
        "name": "images122_Conv_f16",
        "reshape": "<1x3x1x640x640>",
        "shape": [
          1,
          3,
          640,
          640
        ],
        "slice": "[0:1, 0:3, 0:1, 216:266, 0:640]",
        "type": "tensor<1x3x640x640xf16>"
      },
      {
        "address": 259136,
        "layout": "compact",
        "memory_type": "<1x32x1x192xf16>",
        "name": "load_122_Conv_filter_reorderd",
        "reshape": "<1x32x1x1x192>",
        "shape": [
          1,
          32,
          1,
          192
        ],
        "slice": "[0:1, 0:32, 0:1, 0:1, 0:192]",
        "type": "tensor<1x32x1x192xf16>"
      },
      {
        "address": 195712,
        "layout": "compact",
        "memory_type": "<1x32x1x1xf32>",
        "name": "load_model.0.conv.bias",
        "reshape": "<1x32x1x1x1>",
        "shape": [
          1,
          32,
          1,
          1
        ],
        "slice": "[0:1, 0:32, 0:1, 0:1, 0:1]",
        "type": "tensor<1x32x1x1xf32>"
      }
    ],
    "results": [
      {
        "address": 196608,
        "layout": "eu_align",
        "memory_type": "<1x32x23x320xf16>",
        "name": "122_Conv",
        "reshape": "<1x32x1x320x320>",
        "shape": [
          1,
          32,
          320,
          320
        ],
        "slice": "[0:1, 0:32, 0:1, 109:132, 0:320]",
        "type": "tensor<1x32x320x320xf16>"
      }
    ],
    "buffers": [
      {
        "address": 212992,
        "size": 29580
      }
    ]
  },
  {
    "file-line": 17,
    "subnet_id": 0,
    "core_id": 0,
    "opcode": "tpu.Load",
    "is_local": true,
    "tiu_dma_id(before)": [
      166,
      14
    ],
    "tiu_dma_id(after)": [
      166,
      15
    ],
    "operands": [
      {
        "address": 4310321152,
        "layout": "continuous",
        "memory_type": "<1x3x50x640xf32>",
        "name": "images",
        "reshape": "<1x3x1x640x640>",
        "shape": [
          1,
          3,
          640,
          640
        ],
        "slice": "[0:1, 0:3, 0:1, 260:310, 0:640]",
        "type": "tensor<1x3x640x640xf32, 4309655552 : i64>"
      }
    ],
    "results": [
      {
        "address": 0,
        "layout": "eu_align",
        "memory_type": "<1x3x50x640xf32>",
        "name": "load_0",
        "reshape": "<1x3x1x640x640>",
        "shape": [
          1,
          3,
          640,
          640
        ],
        "slice": "[0:1, 0:3, 0:1, 260:310, 0:640]",
        "type": "tensor<1x3x640x640xf32>"
      }
    ],
    "buffers": []
  },
  {
    "file-line": 22,
    "subnet_id": 0,
    "core_id": 0,
    "opcode": "tpu.Cast",
    "is_local": true,
    "tiu_dma_id(before)": [
      178,
      15
    ],
    "tiu_dma_id(after)": [
      179,
      15
    ],
    "operands": [
      {
        "address": 196608,
        "layout": "eu_align",
        "memory_type": "<1x32x23x320xf16>",
        "name": "122_Conv",
        "reshape": "<1x32x1x320x320>",
        "shape": [
          1,
          32,
          320,
          320
        ],
        "slice": "[0:1, 0:32, 0:1, 109:132, 0:320]",
        "type": "tensor<1x32x320x320xf16>"
      }
    ],
    "results": [
      {
        "address": 128000,
        "layout": "eu_align",
        "memory_type": "<1x32x23x320xf32>",
        "name": "122_Conv124_Mul_f32",
        "reshape": "<1x32x1x320x320>",
        "shape": [
          1,
          32,
          320,
          320
        ],
        "slice": "[0:1, 0:32, 0:1, 109:132, 0:320]",
        "type": "tensor<1x32x320x320xf32>"
      }
    ],
    "buffers": []
  },
  {
    "file-line": 24,
    "subnet_id": 0,
    "core_id": 0,
    "opcode": "tpu.Active",
    "is_local": true,
    "tiu_dma_id(before)": [
      179,
      15
    ],
    "tiu_dma_id(after)": [
      196,
      15
    ],
    "operands": [
      {
        "address": 128000,
        "layout": "eu_align",
        "memory_type": "<1x32x23x320xf32>",
        "name": "122_Conv124_Mul_f32",
        "reshape": "<1x32x1x320x320>",
        "shape": [
          1,
          32,
          320,
          320
        ],
        "slice": "[0:1, 0:32, 0:1, 109:132, 0:320]",
        "type": "tensor<1x32x320x320xf32>"
      }
    ],
    "results": [
      {
        "address": 163840,
        "layout": "eu_align",
        "memory_type": "<1x32x23x320xf32>",
        "name": "124_Mul",
        "reshape": "<1x32x1x320x320>",
        "shape": [
          1,
          32,
          320,
          320
        ],
        "slice": "[0:1, 0:32, 0:1, 109:132, 0:320]",
        "type": "tensor<1x32x320x320xf32>"
      }
    ],
    "buffers": [
      {
        "address": 196608,
        "size": 59008
      }
    ]
  },
  {
    "file-line": 28,
    "subnet_id": 0,
    "core_id": 0,
    "opcode": "tpu.Store",
    "is_local": true,
    "tiu_dma_id(before)": [
      179,
      15
    ],
    "tiu_dma_id(after)": [
      179,
      16
    ],
    "operands": [
      {
        "address": 255616,
        "layout": "eu_align",
        "memory_type": "<1x64x11x160xf16>",
        "name": "125_Conv",
        "reshape": "<1x64x1x160x160>",
        "shape": [
          1,
          64,
          160,
          160
        ],
        "slice": "[0:1, 0:64, 0:1, 44:55, 0:160]",
        "type": "tensor<1x64x160x160xf16>"
      },
      {}
    ],
    "results": [
      {
        "address": 4314584832,
        "layout": "continuous",
        "memory_type": "<1x64x11x160xf16>",
        "name": "125_Conv",
        "reshape": "<1x64x1x160x160>",
        "shape": [
          1,
          64,
          160,
          160
        ],
        "slice": "[0:1, 0:64, 0:1, 44:55, 0:160]",
        "type": "tensor<1x64x160x160xf16, 4314570752 : i64>"
      }
    ],
    "buffers": []
  },
  {
    "file-line": 26,
    "subnet_id": 0,
    "core_id": 0,
    "opcode": "tpu.Cast",
    "is_local": true,
    "tiu_dma_id(before)": [
      196,
      16
    ],
    "tiu_dma_id(after)": [
      197,
      16
    ],
    "operands": [
      {
        "address": 163840,
        "layout": "eu_align",
        "memory_type": "<1x32x23x320xf32>",
        "name": "124_Mul",
        "reshape": "<1x32x1x320x320>",
        "shape": [
          1,
          32,
          320,
          320
        ],
        "slice": "[0:1, 0:32, 0:1, 109:132, 0:320]",
        "type": "tensor<1x32x320x320xf32>"
      }
    ],
    "results": [
      {
        "address": 128000,
        "layout": "eu_align",
        "memory_type": "<1x32x23x320xf16>",
        "name": "124_Mul125_Conv_f16",
        "reshape": "<1x32x1x320x320>",
        "shape": [
          1,
          32,
          320,
          320
        ],
        "slice": "[0:1, 0:32, 0:1, 109:132, 0:320]",
        "type": "tensor<1x32x320x320xf16>"
      }
    ],
    "buffers": []
  },
  {
    "file-line": 27,
    "subnet_id": 0,
    "core_id": 0,
    "opcode": "tpu.Conv2D",
    "is_local": true,
    "tiu_dma_id(before)": [
      197,
      16
    ],
    "tiu_dma_id(after)": [
      198,
      16
    ],
    "operands": [
      {
        "address": 128000,
        "layout": "eu_align",
        "memory_type": "<1x32x23x320xf16>",
        "name": "124_Mul125_Conv_f16",
        "reshape": "<1x32x1x320x320>",
        "shape": [
          1,
          32,
          320,
          320
        ],
        "slice": "[0:1, 0:32, 0:1, 109:132, 0:320]",
        "type": "tensor<1x32x320x320xf16>"
      },
      {
        "address": 195136,
        "layout": "compact",
        "memory_type": "<1x64x1x288xf16>",
        "name": "load_125_Conv_filter_reorderd",
        "reshape": "<1x64x1x1x288>",
        "shape": [
          1,
          64,
          1,
          288
        ],
        "slice": "[0:1, 0:64, 0:1, 0:1, 0:288]",
        "type": "tensor<1x64x1x288xf16>"
      },
      {
        "address": 195072,
        "layout": "compact",
        "memory_type": "<1x64x1x1xf32>",
        "name": "load_model.1.conv.bias",
        "reshape": "<1x64x1x1x1>",
        "shape": [
          1,
          64,
          1,
          1
        ],
        "slice": "[0:1, 0:64, 0:1, 0:1, 0:1]",
        "type": "tensor<1x64x1x1xf32>"
      }
    ],
    "results": [
      {
        "address": 255616,
        "layout": "eu_align",
        "memory_type": "<1x64x11x160xf16>",
        "name": "125_Conv",
        "reshape": "<1x64x1x160x160>",
        "shape": [
          1,
          64,
          160,
          160
        ],
        "slice": "[0:1, 0:64, 0:1, 55:66, 0:160]",
        "type": "tensor<1x64x160x160xf16>"
      }
    ],
    "buffers": []
  },
  {
    "file-line": 20,
    "subnet_id": 0,
    "core_id": 0,
    "opcode": "tpu.Cast",
    "is_local": true,
    "tiu_dma_id(before)": [
      198,
      16
    ],
    "tiu_dma_id(after)": [
      199,
      16
    ],
    "operands": [
      {
        "address": 0,
        "layout": "eu_align",
        "memory_type": "<1x3x50x640xf32>",
        "name": "load_0",
        "reshape": "<1x3x1x640x640>",
        "shape": [
          1,
          3,
          640,
          640
        ],
        "slice": "[0:1, 0:3, 0:1, 260:310, 0:640]",
        "type": "tensor<1x3x640x640xf32>"
      }
    ],
    "results": [
      {
        "address": 131072,
        "layout": "eu_align",
        "memory_type": "<1x3x50x640xf16>",
        "name": "images122_Conv_f16",
        "reshape": "<1x3x1x640x640>",
        "shape": [
          1,
          3,
          640,
          640
        ],
        "slice": "[0:1, 0:3, 0:1, 260:310, 0:640]",
        "type": "tensor<1x3x640x640xf16>"
      }
    ],
    "buffers": []
  },
  {
    "file-line": 21,
    "subnet_id": 0,
    "core_id": 0,
    "opcode": "tpu.Conv2D",
    "is_local": true,
    "tiu_dma_id(before)": [
      199,
      16
    ],
    "tiu_dma_id(after)": [
      211,
      16
    ],
    "operands": [
      {
        "address": 131072,
        "layout": "eu_align",
        "memory_type": "<1x3x50x640xf16>",
        "name": "images122_Conv_f16",
        "reshape": "<1x3x1x640x640>",
        "shape": [
          1,
          3,
          640,
          640
        ],
        "slice": "[0:1, 0:3, 0:1, 260:310, 0:640]",
        "type": "tensor<1x3x640x640xf16>"
      },
      {
        "address": 259136,
        "layout": "compact",
        "memory_type": "<1x32x1x192xf16>",
        "name": "load_122_Conv_filter_reorderd",
        "reshape": "<1x32x1x1x192>",
        "shape": [
          1,
          32,
          1,
          192
        ],
        "slice": "[0:1, 0:32, 0:1, 0:1, 0:192]",
        "type": "tensor<1x32x1x192xf16>"
      },
      {
        "address": 195712,
        "layout": "compact",
        "memory_type": "<1x32x1x1xf32>",
        "name": "load_model.0.conv.bias",
        "reshape": "<1x32x1x1x1>",
        "shape": [
          1,
          32,
          1,
          1
        ],
        "slice": "[0:1, 0:32, 0:1, 0:1, 0:1]",
        "type": "tensor<1x32x1x1xf32>"
      }
    ],
    "results": [
      {
        "address": 196608,
        "layout": "eu_align",
        "memory_type": "<1x32x23x320xf16>",
        "name": "122_Conv",
        "reshape": "<1x32x1x320x320>",
        "shape": [
          1,
          32,
          320,
          320
        ],
        "slice": "[0:1, 0:32, 0:1, 131:154, 0:320]",
        "type": "tensor<1x32x320x320xf16>"
      }
    ],
    "buffers": [
      {
        "address": 212992,
        "size": 29580
      }
    ]
  },
  {
    "file-line": 17,
    "subnet_id": 0,
    "core_id": 0,
    "opcode": "tpu.Load",
    "is_local": true,
    "tiu_dma_id(before)": [
      199,
      16
    ],
    "tiu_dma_id(after)": [
      199,
      17
    ],
    "operands": [
      {
        "address": 4310433792,
        "layout": "continuous",
        "memory_type": "<1x3x50x640xf32>",
        "name": "images",
        "reshape": "<1x3x1x640x640>",
        "shape": [
          1,
          3,
          640,
          640
        ],
        "slice": "[0:1, 0:3, 0:1, 304:354, 0:640]",
        "type": "tensor<1x3x640x640xf32, 4309655552 : i64>"
      }
    ],
    "results": [
      {
        "address": 0,
        "layout": "eu_align",
        "memory_type": "<1x3x50x640xf32>",
        "name": "load_0",
        "reshape": "<1x3x1x640x640>",
        "shape": [
          1,
          3,
          640,
          640
        ],
        "slice": "[0:1, 0:3, 0:1, 304:354, 0:640]",
        "type": "tensor<1x3x640x640xf32>"
      }
    ],
    "buffers": []
  },
  {
    "file-line": 22,
    "subnet_id": 0,
    "core_id": 0,
    "opcode": "tpu.Cast",
    "is_local": true,
    "tiu_dma_id(before)": [
      211,
      17
    ],
    "tiu_dma_id(after)": [
      212,
      17
    ],
    "operands": [
      {
        "address": 196608,
        "layout": "eu_align",
        "memory_type": "<1x32x23x320xf16>",
        "name": "122_Conv",
        "reshape": "<1x32x1x320x320>",
        "shape": [
          1,
          32,
          320,
          320
        ],
        "slice": "[0:1, 0:32, 0:1, 131:154, 0:320]",
        "type": "tensor<1x32x320x320xf16>"
      }
    ],
    "results": [
      {
        "address": 128000,
        "layout": "eu_align",
        "memory_type": "<1x32x23x320xf32>",
        "name": "122_Conv124_Mul_f32",
        "reshape": "<1x32x1x320x320>",
        "shape": [
          1,
          32,
          320,
          320
        ],
        "slice": "[0:1, 0:32, 0:1, 131:154, 0:320]",
        "type": "tensor<1x32x320x320xf32>"
      }
    ],
    "buffers": []
  },
  {
    "file-line": 24,
    "subnet_id": 0,
    "core_id": 0,
    "opcode": "tpu.Active",
    "is_local": true,
    "tiu_dma_id(before)": [
      212,
      17
    ],
    "tiu_dma_id(after)": [
      229,
      17
    ],
    "operands": [
      {
        "address": 128000,
        "layout": "eu_align",
        "memory_type": "<1x32x23x320xf32>",
        "name": "122_Conv124_Mul_f32",
        "reshape": "<1x32x1x320x320>",
        "shape": [
          1,
          32,
          320,
          320
        ],
        "slice": "[0:1, 0:32, 0:1, 131:154, 0:320]",
        "type": "tensor<1x32x320x320xf32>"
      }
    ],
    "results": [
      {
        "address": 163840,
        "layout": "eu_align",
        "memory_type": "<1x32x23x320xf32>",
        "name": "124_Mul",
        "reshape": "<1x32x1x320x320>",
        "shape": [
          1,
          32,
          320,
          320
        ],
        "slice": "[0:1, 0:32, 0:1, 131:154, 0:320]",
        "type": "tensor<1x32x320x320xf32>"
      }
    ],
    "buffers": [
      {
        "address": 196608,
        "size": 59008
      }
    ]
  },
  {
    "file-line": 28,
    "subnet_id": 0,
    "core_id": 0,
    "opcode": "tpu.Store",
    "is_local": true,
    "tiu_dma_id(before)": [
      212,
      17
    ],
    "tiu_dma_id(after)": [
      212,
      18
    ],
    "operands": [
      {
        "address": 255616,
        "layout": "eu_align",
        "memory_type": "<1x64x11x160xf16>",
        "name": "125_Conv",
        "reshape": "<1x64x1x160x160>",
        "shape": [
          1,
          64,
          160,
          160
        ],
        "slice": "[0:1, 0:64, 0:1, 55:66, 0:160]",
        "type": "tensor<1x64x160x160xf16>"
      },
      {}
    ],
    "results": [
      {
        "address": 4314588352,
        "layout": "continuous",
        "memory_type": "<1x64x11x160xf16>",
        "name": "125_Conv",
        "reshape": "<1x64x1x160x160>",
        "shape": [
          1,
          64,
          160,
          160
        ],
        "slice": "[0:1, 0:64, 0:1, 55:66, 0:160]",
        "type": "tensor<1x64x160x160xf16, 4314570752 : i64>"
      }
    ],
    "buffers": []
  },
  {
    "file-line": 26,
    "subnet_id": 0,
    "core_id": 0,
    "opcode": "tpu.Cast",
    "is_local": true,
    "tiu_dma_id(before)": [
      229,
      18
    ],
    "tiu_dma_id(after)": [
      230,
      18
    ],
    "operands": [
      {
        "address": 163840,
        "layout": "eu_align",
        "memory_type": "<1x32x23x320xf32>",
        "name": "124_Mul",
        "reshape": "<1x32x1x320x320>",
        "shape": [
          1,
          32,
          320,
          320
        ],
        "slice": "[0:1, 0:32, 0:1, 131:154, 0:320]",
        "type": "tensor<1x32x320x320xf32>"
      }
    ],
    "results": [
      {
        "address": 128000,
        "layout": "eu_align",
        "memory_type": "<1x32x23x320xf16>",
        "name": "124_Mul125_Conv_f16",
        "reshape": "<1x32x1x320x320>",
        "shape": [
          1,
          32,
          320,
          320
        ],
        "slice": "[0:1, 0:32, 0:1, 131:154, 0:320]",
        "type": "tensor<1x32x320x320xf16>"
      }
    ],
    "buffers": []
  },
  {
    "file-line": 27,
    "subnet_id": 0,
    "core_id": 0,
    "opcode": "tpu.Conv2D",
    "is_local": true,
    "tiu_dma_id(before)": [
      230,
      18
    ],
    "tiu_dma_id(after)": [
      231,
      18
    ],
    "operands": [
      {
        "address": 128000,
        "layout": "eu_align",
        "memory_type": "<1x32x23x320xf16>",
        "name": "124_Mul125_Conv_f16",
        "reshape": "<1x32x1x320x320>",
        "shape": [
          1,
          32,
          320,
          320
        ],
        "slice": "[0:1, 0:32, 0:1, 131:154, 0:320]",
        "type": "tensor<1x32x320x320xf16>"
      },
      {
        "address": 195136,
        "layout": "compact",
        "memory_type": "<1x64x1x288xf16>",
        "name": "load_125_Conv_filter_reorderd",
        "reshape": "<1x64x1x1x288>",
        "shape": [
          1,
          64,
          1,
          288
        ],
        "slice": "[0:1, 0:64, 0:1, 0:1, 0:288]",
        "type": "tensor<1x64x1x288xf16>"
      },
      {
        "address": 195072,
        "layout": "compact",
        "memory_type": "<1x64x1x1xf32>",
        "name": "load_model.1.conv.bias",
        "reshape": "<1x64x1x1x1>",
        "shape": [
          1,
          64,
          1,
          1
        ],
        "slice": "[0:1, 0:64, 0:1, 0:1, 0:1]",
        "type": "tensor<1x64x1x1xf32>"
      }
    ],
    "results": [
      {
        "address": 255616,
        "layout": "eu_align",
        "memory_type": "<1x64x11x160xf16>",
        "name": "125_Conv",
        "reshape": "<1x64x1x160x160>",
        "shape": [
          1,
          64,
          160,
          160
        ],
        "slice": "[0:1, 0:64, 0:1, 66:77, 0:160]",
        "type": "tensor<1x64x160x160xf16>"
      }
    ],
    "buffers": []
  },
  {
    "file-line": 20,
    "subnet_id": 0,
    "core_id": 0,
    "opcode": "tpu.Cast",
    "is_local": true,
    "tiu_dma_id(before)": [
      231,
      18
    ],
    "tiu_dma_id(after)": [
      232,
      18
    ],
    "operands": [
      {
        "address": 0,
        "layout": "eu_align",
        "memory_type": "<1x3x50x640xf32>",
        "name": "load_0",
        "reshape": "<1x3x1x640x640>",
        "shape": [
          1,
          3,
          640,
          640
        ],
        "slice": "[0:1, 0:3, 0:1, 304:354, 0:640]",
        "type": "tensor<1x3x640x640xf32>"
      }
    ],
    "results": [
      {
        "address": 131072,
        "layout": "eu_align",
        "memory_type": "<1x3x50x640xf16>",
        "name": "images122_Conv_f16",
        "reshape": "<1x3x1x640x640>",
        "shape": [
          1,
          3,
          640,
          640
        ],
        "slice": "[0:1, 0:3, 0:1, 304:354, 0:640]",
        "type": "tensor<1x3x640x640xf16>"
      }
    ],
    "buffers": []
  },
  {
    "file-line": 21,
    "subnet_id": 0,
    "core_id": 0,
    "opcode": "tpu.Conv2D",
    "is_local": true,
    "tiu_dma_id(before)": [
      232,
      18
    ],
    "tiu_dma_id(after)": [
      244,
      18
    ],
    "operands": [
      {
        "address": 131072,
        "layout": "eu_align",
        "memory_type": "<1x3x50x640xf16>",
        "name": "images122_Conv_f16",
        "reshape": "<1x3x1x640x640>",
        "shape": [
          1,
          3,
          640,
          640
        ],
        "slice": "[0:1, 0:3, 0:1, 304:354, 0:640]",
        "type": "tensor<1x3x640x640xf16>"
      },
      {
        "address": 259136,
        "layout": "compact",
        "memory_type": "<1x32x1x192xf16>",
        "name": "load_122_Conv_filter_reorderd",
        "reshape": "<1x32x1x1x192>",
        "shape": [
          1,
          32,
          1,
          192
        ],
        "slice": "[0:1, 0:32, 0:1, 0:1, 0:192]",
        "type": "tensor<1x32x1x192xf16>"
      },
      {
        "address": 195712,
        "layout": "compact",
        "memory_type": "<1x32x1x1xf32>",
        "name": "load_model.0.conv.bias",
        "reshape": "<1x32x1x1x1>",
        "shape": [
          1,
          32,
          1,
          1
        ],
        "slice": "[0:1, 0:32, 0:1, 0:1, 0:1]",
        "type": "tensor<1x32x1x1xf32>"
      }
    ],
    "results": [
      {
        "address": 196608,
        "layout": "eu_align",
        "memory_type": "<1x32x23x320xf16>",
        "name": "122_Conv",
        "reshape": "<1x32x1x320x320>",
        "shape": [
          1,
          32,
          320,
          320
        ],
        "slice": "[0:1, 0:32, 0:1, 153:176, 0:320]",
        "type": "tensor<1x32x320x320xf16>"
      }
    ],
    "buffers": [
      {
        "address": 212992,
        "size": 29580
      }
    ]
  },
  {
    "file-line": 17,
    "subnet_id": 0,
    "core_id": 0,
    "opcode": "tpu.Load",
    "is_local": true,
    "tiu_dma_id(before)": [
      232,
      18
    ],
    "tiu_dma_id(after)": [
      232,
      19
    ],
    "operands": [
      {
        "address": 4310546432,
        "layout": "continuous",
        "memory_type": "<1x3x50x640xf32>",
        "name": "images",
        "reshape": "<1x3x1x640x640>",
        "shape": [
          1,
          3,
          640,
          640
        ],
        "slice": "[0:1, 0:3, 0:1, 348:398, 0:640]",
        "type": "tensor<1x3x640x640xf32, 4309655552 : i64>"
      }
    ],
    "results": [
      {
        "address": 0,
        "layout": "eu_align",
        "memory_type": "<1x3x50x640xf32>",
        "name": "load_0",
        "reshape": "<1x3x1x640x640>",
        "shape": [
          1,
          3,
          640,
          640
        ],
        "slice": "[0:1, 0:3, 0:1, 348:398, 0:640]",
        "type": "tensor<1x3x640x640xf32>"
      }
    ],
    "buffers": []
  },
  {
    "file-line": 22,
    "subnet_id": 0,
    "core_id": 0,
    "opcode": "tpu.Cast",
    "is_local": true,
    "tiu_dma_id(before)": [
      244,
      19
    ],
    "tiu_dma_id(after)": [
      245,
      19
    ],
    "operands": [
      {
        "address": 196608,
        "layout": "eu_align",
        "memory_type": "<1x32x23x320xf16>",
        "name": "122_Conv",
        "reshape": "<1x32x1x320x320>",
        "shape": [
          1,
          32,
          320,
          320
        ],
        "slice": "[0:1, 0:32, 0:1, 153:176, 0:320]",
        "type": "tensor<1x32x320x320xf16>"
      }
    ],
    "results": [
      {
        "address": 128000,
        "layout": "eu_align",
        "memory_type": "<1x32x23x320xf32>",
        "name": "122_Conv124_Mul_f32",
        "reshape": "<1x32x1x320x320>",
        "shape": [
          1,
          32,
          320,
          320
        ],
        "slice": "[0:1, 0:32, 0:1, 153:176, 0:320]",
        "type": "tensor<1x32x320x320xf32>"
      }
    ],
    "buffers": []
  },
  {
    "file-line": 24,
    "subnet_id": 0,
    "core_id": 0,
    "opcode": "tpu.Active",
    "is_local": true,
    "tiu_dma_id(before)": [
      245,
      19
    ],
    "tiu_dma_id(after)": [
      262,
      19
    ],
    "operands": [
      {
        "address": 128000,
        "layout": "eu_align",
        "memory_type": "<1x32x23x320xf32>",
        "name": "122_Conv124_Mul_f32",
        "reshape": "<1x32x1x320x320>",
        "shape": [
          1,
          32,
          320,
          320
        ],
        "slice": "[0:1, 0:32, 0:1, 153:176, 0:320]",
        "type": "tensor<1x32x320x320xf32>"
      }
    ],
    "results": [
      {
        "address": 163840,
        "layout": "eu_align",
        "memory_type": "<1x32x23x320xf32>",
        "name": "124_Mul",
        "reshape": "<1x32x1x320x320>",
        "shape": [
          1,
          32,
          320,
          320
        ],
        "slice": "[0:1, 0:32, 0:1, 153:176, 0:320]",
        "type": "tensor<1x32x320x320xf32>"
      }
    ],
    "buffers": [
      {
        "address": 196608,
        "size": 59008
      }
    ]
  },
  {
    "file-line": 28,
    "subnet_id": 0,
    "core_id": 0,
    "opcode": "tpu.Store",
    "is_local": true,
    "tiu_dma_id(before)": [
      245,
      19
    ],
    "tiu_dma_id(after)": [
      245,
      20
    ],
    "operands": [
      {
        "address": 255616,
        "layout": "eu_align",
        "memory_type": "<1x64x11x160xf16>",
        "name": "125_Conv",
        "reshape": "<1x64x1x160x160>",
        "shape": [
          1,
          64,
          160,
          160
        ],
        "slice": "[0:1, 0:64, 0:1, 66:77, 0:160]",
        "type": "tensor<1x64x160x160xf16>"
      },
      {}
    ],
    "results": [
      {
        "address": 4314591872,
        "layout": "continuous",
        "memory_type": "<1x64x11x160xf16>",
        "name": "125_Conv",
        "reshape": "<1x64x1x160x160>",
        "shape": [
          1,
          64,
          160,
          160
        ],
        "slice": "[0:1, 0:64, 0:1, 66:77, 0:160]",
        "type": "tensor<1x64x160x160xf16, 4314570752 : i64>"
      }
    ],
    "buffers": []
  },
  {
    "file-line": 26,
    "subnet_id": 0,
    "core_id": 0,
    "opcode": "tpu.Cast",
    "is_local": true,
    "tiu_dma_id(before)": [
      262,
      20
    ],
    "tiu_dma_id(after)": [
      263,
      20
    ],
    "operands": [
      {
        "address": 163840,
        "layout": "eu_align",
        "memory_type": "<1x32x23x320xf32>",
        "name": "124_Mul",
        "reshape": "<1x32x1x320x320>",
        "shape": [
          1,
          32,
          320,
          320
        ],
        "slice": "[0:1, 0:32, 0:1, 153:176, 0:320]",
        "type": "tensor<1x32x320x320xf32>"
      }
    ],
    "results": [
      {
        "address": 128000,
        "layout": "eu_align",
        "memory_type": "<1x32x23x320xf16>",
        "name": "124_Mul125_Conv_f16",
        "reshape": "<1x32x1x320x320>",
        "shape": [
          1,
          32,
          320,
          320
        ],
        "slice": "[0:1, 0:32, 0:1, 153:176, 0:320]",
        "type": "tensor<1x32x320x320xf16>"
      }
    ],
    "buffers": []
  },
  {
    "file-line": 27,
    "subnet_id": 0,
    "core_id": 0,
    "opcode": "tpu.Conv2D",
    "is_local": true,
    "tiu_dma_id(before)": [
      263,
      20
    ],
    "tiu_dma_id(after)": [
      264,
      20
    ],
    "operands": [
      {
        "address": 128000,
        "layout": "eu_align",
        "memory_type": "<1x32x23x320xf16>",
        "name": "124_Mul125_Conv_f16",
        "reshape": "<1x32x1x320x320>",
        "shape": [
          1,
          32,
          320,
          320
        ],
        "slice": "[0:1, 0:32, 0:1, 153:176, 0:320]",
        "type": "tensor<1x32x320x320xf16>"
      },
      {
        "address": 195136,
        "layout": "compact",
        "memory_type": "<1x64x1x288xf16>",
        "name": "load_125_Conv_filter_reorderd",
        "reshape": "<1x64x1x1x288>",
        "shape": [
          1,
          64,
          1,
          288
        ],
        "slice": "[0:1, 0:64, 0:1, 0:1, 0:288]",
        "type": "tensor<1x64x1x288xf16>"
      },
      {
        "address": 195072,
        "layout": "compact",
        "memory_type": "<1x64x1x1xf32>",
        "name": "load_model.1.conv.bias",
        "reshape": "<1x64x1x1x1>",
        "shape": [
          1,
          64,
          1,
          1
        ],
        "slice": "[0:1, 0:64, 0:1, 0:1, 0:1]",
        "type": "tensor<1x64x1x1xf32>"
      }
    ],
    "results": [
      {
        "address": 255616,
        "layout": "eu_align",
        "memory_type": "<1x64x11x160xf16>",
        "name": "125_Conv",
        "reshape": "<1x64x1x160x160>",
        "shape": [
          1,
          64,
          160,
          160
        ],
        "slice": "[0:1, 0:64, 0:1, 77:88, 0:160]",
        "type": "tensor<1x64x160x160xf16>"
      }
    ],
    "buffers": []
  },
  {
    "file-line": 20,
    "subnet_id": 0,
    "core_id": 0,
    "opcode": "tpu.Cast",
    "is_local": true,
    "tiu_dma_id(before)": [
      264,
      20
    ],
    "tiu_dma_id(after)": [
      265,
      20
    ],
    "operands": [
      {
        "address": 0,
        "layout": "eu_align",
        "memory_type": "<1x3x50x640xf32>",
        "name": "load_0",
        "reshape": "<1x3x1x640x640>",
        "shape": [
          1,
          3,
          640,
          640
        ],
        "slice": "[0:1, 0:3, 0:1, 348:398, 0:640]",
        "type": "tensor<1x3x640x640xf32>"
      }
    ],
    "results": [
      {
        "address": 131072,
        "layout": "eu_align",
        "memory_type": "<1x3x50x640xf16>",
        "name": "images122_Conv_f16",
        "reshape": "<1x3x1x640x640>",
        "shape": [
          1,
          3,
          640,
          640
        ],
        "slice": "[0:1, 0:3, 0:1, 348:398, 0:640]",
        "type": "tensor<1x3x640x640xf16>"
      }
    ],
    "buffers": []
  },
  {
    "file-line": 21,
    "subnet_id": 0,
    "core_id": 0,
    "opcode": "tpu.Conv2D",
    "is_local": true,
    "tiu_dma_id(before)": [
      265,
      20
    ],
    "tiu_dma_id(after)": [
      277,
      20
    ],
    "operands": [
      {
        "address": 131072,
        "layout": "eu_align",
        "memory_type": "<1x3x50x640xf16>",
        "name": "images122_Conv_f16",
        "reshape": "<1x3x1x640x640>",
        "shape": [
          1,
          3,
          640,
          640
        ],
        "slice": "[0:1, 0:3, 0:1, 348:398, 0:640]",
        "type": "tensor<1x3x640x640xf16>"
      },
      {
        "address": 259136,
        "layout": "compact",
        "memory_type": "<1x32x1x192xf16>",
        "name": "load_122_Conv_filter_reorderd",
        "reshape": "<1x32x1x1x192>",
        "shape": [
          1,
          32,
          1,
          192
        ],
        "slice": "[0:1, 0:32, 0:1, 0:1, 0:192]",
        "type": "tensor<1x32x1x192xf16>"
      },
      {
        "address": 195712,
        "layout": "compact",
        "memory_type": "<1x32x1x1xf32>",
        "name": "load_model.0.conv.bias",
        "reshape": "<1x32x1x1x1>",
        "shape": [
          1,
          32,
          1,
          1
        ],
        "slice": "[0:1, 0:32, 0:1, 0:1, 0:1]",
        "type": "tensor<1x32x1x1xf32>"
      }
    ],
    "results": [
      {
        "address": 196608,
        "layout": "eu_align",
        "memory_type": "<1x32x23x320xf16>",
        "name": "122_Conv",
        "reshape": "<1x32x1x320x320>",
        "shape": [
          1,
          32,
          320,
          320
        ],
        "slice": "[0:1, 0:32, 0:1, 175:198, 0:320]",
        "type": "tensor<1x32x320x320xf16>"
      }
    ],
    "buffers": [
      {
        "address": 212992,
        "size": 29580
      }
    ]
  },
  {
    "file-line": 17,
    "subnet_id": 0,
    "core_id": 0,
    "opcode": "tpu.Load",
    "is_local": true,
    "tiu_dma_id(before)": [
      265,
      20
    ],
    "tiu_dma_id(after)": [
      265,
      21
    ],
    "operands": [
      {
        "address": 4310659072,
        "layout": "continuous",
        "memory_type": "<1x3x50x640xf32>",
        "name": "images",
        "reshape": "<1x3x1x640x640>",
        "shape": [
          1,
          3,
          640,
          640
        ],
        "slice": "[0:1, 0:3, 0:1, 392:442, 0:640]",
        "type": "tensor<1x3x640x640xf32, 4309655552 : i64>"
      }
    ],
    "results": [
      {
        "address": 0,
        "layout": "eu_align",
        "memory_type": "<1x3x50x640xf32>",
        "name": "load_0",
        "reshape": "<1x3x1x640x640>",
        "shape": [
          1,
          3,
          640,
          640
        ],
        "slice": "[0:1, 0:3, 0:1, 392:442, 0:640]",
        "type": "tensor<1x3x640x640xf32>"
      }
    ],
    "buffers": []
  },
  {
    "file-line": 22,
    "subnet_id": 0,
    "core_id": 0,
    "opcode": "tpu.Cast",
    "is_local": true,
    "tiu_dma_id(before)": [
      277,
      21
    ],
    "tiu_dma_id(after)": [
      278,
      21
    ],
    "operands": [
      {
        "address": 196608,
        "layout": "eu_align",
        "memory_type": "<1x32x23x320xf16>",
        "name": "122_Conv",
        "reshape": "<1x32x1x320x320>",
        "shape": [
          1,
          32,
          320,
          320
        ],
        "slice": "[0:1, 0:32, 0:1, 175:198, 0:320]",
        "type": "tensor<1x32x320x320xf16>"
      }
    ],
    "results": [
      {
        "address": 128000,
        "layout": "eu_align",
        "memory_type": "<1x32x23x320xf32>",
        "name": "122_Conv124_Mul_f32",
        "reshape": "<1x32x1x320x320>",
        "shape": [
          1,
          32,
          320,
          320
        ],
        "slice": "[0:1, 0:32, 0:1, 175:198, 0:320]",
        "type": "tensor<1x32x320x320xf32>"
      }
    ],
    "buffers": []
  },
  {
    "file-line": 24,
    "subnet_id": 0,
    "core_id": 0,
    "opcode": "tpu.Active",
    "is_local": true,
    "tiu_dma_id(before)": [
      278,
      21
    ],
    "tiu_dma_id(after)": [
      295,
      21
    ],
    "operands": [
      {
        "address": 128000,
        "layout": "eu_align",
        "memory_type": "<1x32x23x320xf32>",
        "name": "122_Conv124_Mul_f32",
        "reshape": "<1x32x1x320x320>",
        "shape": [
          1,
          32,
          320,
          320
        ],
        "slice": "[0:1, 0:32, 0:1, 175:198, 0:320]",
        "type": "tensor<1x32x320x320xf32>"
      }
    ],
    "results": [
      {
        "address": 163840,
        "layout": "eu_align",
        "memory_type": "<1x32x23x320xf32>",
        "name": "124_Mul",
        "reshape": "<1x32x1x320x320>",
        "shape": [
          1,
          32,
          320,
          320
        ],
        "slice": "[0:1, 0:32, 0:1, 175:198, 0:320]",
        "type": "tensor<1x32x320x320xf32>"
      }
    ],
    "buffers": [
      {
        "address": 196608,
        "size": 59008
      }
    ]
  },
  {
    "file-line": 28,
    "subnet_id": 0,
    "core_id": 0,
    "opcode": "tpu.Store",
    "is_local": true,
    "tiu_dma_id(before)": [
      278,
      21
    ],
    "tiu_dma_id(after)": [
      278,
      22
    ],
    "operands": [
      {
        "address": 255616,
        "layout": "eu_align",
        "memory_type": "<1x64x11x160xf16>",
        "name": "125_Conv",
        "reshape": "<1x64x1x160x160>",
        "shape": [
          1,
          64,
          160,
          160
        ],
        "slice": "[0:1, 0:64, 0:1, 77:88, 0:160]",
        "type": "tensor<1x64x160x160xf16>"
      },
      {}
    ],
    "results": [
      {
        "address": 4314595392,
        "layout": "continuous",
        "memory_type": "<1x64x11x160xf16>",
        "name": "125_Conv",
        "reshape": "<1x64x1x160x160>",
        "shape": [
          1,
          64,
          160,
          160
        ],
        "slice": "[0:1, 0:64, 0:1, 77:88, 0:160]",
        "type": "tensor<1x64x160x160xf16, 4314570752 : i64>"
      }
    ],
    "buffers": []
  },
  {
    "file-line": 26,
    "subnet_id": 0,
    "core_id": 0,
    "opcode": "tpu.Cast",
    "is_local": true,
    "tiu_dma_id(before)": [
      295,
      22
    ],
    "tiu_dma_id(after)": [
      296,
      22
    ],
    "operands": [
      {
        "address": 163840,
        "layout": "eu_align",
        "memory_type": "<1x32x23x320xf32>",
        "name": "124_Mul",
        "reshape": "<1x32x1x320x320>",
        "shape": [
          1,
          32,
          320,
          320
        ],
        "slice": "[0:1, 0:32, 0:1, 175:198, 0:320]",
        "type": "tensor<1x32x320x320xf32>"
      }
    ],
    "results": [
      {
        "address": 128000,
        "layout": "eu_align",
        "memory_type": "<1x32x23x320xf16>",
        "name": "124_Mul125_Conv_f16",
        "reshape": "<1x32x1x320x320>",
        "shape": [
          1,
          32,
          320,
          320
        ],
        "slice": "[0:1, 0:32, 0:1, 175:198, 0:320]",
        "type": "tensor<1x32x320x320xf16>"
      }
    ],
    "buffers": []
  },
  {
    "file-line": 27,
    "subnet_id": 0,
    "core_id": 0,
    "opcode": "tpu.Conv2D",
    "is_local": true,
    "tiu_dma_id(before)": [
      296,
      22
    ],
    "tiu_dma_id(after)": [
      297,
      22
    ],
    "operands": [
      {
        "address": 128000,
        "layout": "eu_align",
        "memory_type": "<1x32x23x320xf16>",
        "name": "124_Mul125_Conv_f16",
        "reshape": "<1x32x1x320x320>",
        "shape": [
          1,
          32,
          320,
          320
        ],
        "slice": "[0:1, 0:32, 0:1, 175:198, 0:320]",
        "type": "tensor<1x32x320x320xf16>"
      },
      {
        "address": 195136,
        "layout": "compact",
        "memory_type": "<1x64x1x288xf16>",
        "name": "load_125_Conv_filter_reorderd",
        "reshape": "<1x64x1x1x288>",
        "shape": [
          1,
          64,
          1,
          288
        ],
        "slice": "[0:1, 0:64, 0:1, 0:1, 0:288]",
        "type": "tensor<1x64x1x288xf16>"
      },
      {
        "address": 195072,
        "layout": "compact",
        "memory_type": "<1x64x1x1xf32>",
        "name": "load_model.1.conv.bias",
        "reshape": "<1x64x1x1x1>",
        "shape": [
          1,
          64,
          1,
          1
        ],
        "slice": "[0:1, 0:64, 0:1, 0:1, 0:1]",
        "type": "tensor<1x64x1x1xf32>"
      }
    ],
    "results": [
      {
        "address": 255616,
        "layout": "eu_align",
        "memory_type": "<1x64x11x160xf16>",
        "name": "125_Conv",
        "reshape": "<1x64x1x160x160>",
        "shape": [
          1,
          64,
          160,
          160
        ],
        "slice": "[0:1, 0:64, 0:1, 88:99, 0:160]",
        "type": "tensor<1x64x160x160xf16>"
      }
    ],
    "buffers": []
  },
  {
    "file-line": 20,
    "subnet_id": 0,
    "core_id": 0,
    "opcode": "tpu.Cast",
    "is_local": true,
    "tiu_dma_id(before)": [
      297,
      22
    ],
    "tiu_dma_id(after)": [
      298,
      22
    ],
    "operands": [
      {
        "address": 0,
        "layout": "eu_align",
        "memory_type": "<1x3x50x640xf32>",
        "name": "load_0",
        "reshape": "<1x3x1x640x640>",
        "shape": [
          1,
          3,
          640,
          640
        ],
        "slice": "[0:1, 0:3, 0:1, 392:442, 0:640]",
        "type": "tensor<1x3x640x640xf32>"
      }
    ],
    "results": [
      {
        "address": 131072,
        "layout": "eu_align",
        "memory_type": "<1x3x50x640xf16>",
        "name": "images122_Conv_f16",
        "reshape": "<1x3x1x640x640>",
        "shape": [
          1,
          3,
          640,
          640
        ],
        "slice": "[0:1, 0:3, 0:1, 392:442, 0:640]",
        "type": "tensor<1x3x640x640xf16>"
      }
    ],
    "buffers": []
  },
  {
    "file-line": 21,
    "subnet_id": 0,
    "core_id": 0,
    "opcode": "tpu.Conv2D",
    "is_local": true,
    "tiu_dma_id(before)": [
      298,
      22
    ],
    "tiu_dma_id(after)": [
      310,
      22
    ],
    "operands": [
      {
        "address": 131072,
        "layout": "eu_align",
        "memory_type": "<1x3x50x640xf16>",
        "name": "images122_Conv_f16",
        "reshape": "<1x3x1x640x640>",
        "shape": [
          1,
          3,
          640,
          640
        ],
        "slice": "[0:1, 0:3, 0:1, 392:442, 0:640]",
        "type": "tensor<1x3x640x640xf16>"
      },
      {
        "address": 259136,
        "layout": "compact",
        "memory_type": "<1x32x1x192xf16>",
        "name": "load_122_Conv_filter_reorderd",
        "reshape": "<1x32x1x1x192>",
        "shape": [
          1,
          32,
          1,
          192
        ],
        "slice": "[0:1, 0:32, 0:1, 0:1, 0:192]",
        "type": "tensor<1x32x1x192xf16>"
      },
      {
        "address": 195712,
        "layout": "compact",
        "memory_type": "<1x32x1x1xf32>",
        "name": "load_model.0.conv.bias",
        "reshape": "<1x32x1x1x1>",
        "shape": [
          1,
          32,
          1,
          1
        ],
        "slice": "[0:1, 0:32, 0:1, 0:1, 0:1]",
        "type": "tensor<1x32x1x1xf32>"
      }
    ],
    "results": [
      {
        "address": 196608,
        "layout": "eu_align",
        "memory_type": "<1x32x23x320xf16>",
        "name": "122_Conv",
        "reshape": "<1x32x1x320x320>",
        "shape": [
          1,
          32,
          320,
          320
        ],
        "slice": "[0:1, 0:32, 0:1, 197:220, 0:320]",
        "type": "tensor<1x32x320x320xf16>"
      }
    ],
    "buffers": [
      {
        "address": 212992,
        "size": 29580
      }
    ]
  },
  {
    "file-line": 17,
    "subnet_id": 0,
    "core_id": 0,
    "opcode": "tpu.Load",
    "is_local": true,
    "tiu_dma_id(before)": [
      298,
      22
    ],
    "tiu_dma_id(after)": [
      298,
      23
    ],
    "operands": [
      {
        "address": 4310771712,
        "layout": "continuous",
        "memory_type": "<1x3x46x640xf32>",
        "name": "images",
        "reshape": "<1x3x1x640x640>",
        "shape": [
          1,
          3,
          640,
          640
        ],
        "slice": "[0:1, 0:3, 0:1, 436:482, 0:640]",
        "type": "tensor<1x3x640x640xf32, 4309655552 : i64>"
      }
    ],
    "results": [
      {
        "address": 0,
        "layout": "eu_align",
        "memory_type": "<1x3x46x640xf32>",
        "name": "load_0",
        "reshape": "<1x3x1x640x640>",
        "shape": [
          1,
          3,
          640,
          640
        ],
        "slice": "[0:1, 0:3, 0:1, 436:482, 0:640]",
        "type": "tensor<1x3x640x640xf32>"
      }
    ],
    "buffers": []
  },
  {
    "file-line": 22,
    "subnet_id": 0,
    "core_id": 0,
    "opcode": "tpu.Cast",
    "is_local": true,
    "tiu_dma_id(before)": [
      310,
      23
    ],
    "tiu_dma_id(after)": [
      311,
      23
    ],
    "operands": [
      {
        "address": 196608,
        "layout": "eu_align",
        "memory_type": "<1x32x23x320xf16>",
        "name": "122_Conv",
        "reshape": "<1x32x1x320x320>",
        "shape": [
          1,
          32,
          320,
          320
        ],
        "slice": "[0:1, 0:32, 0:1, 197:220, 0:320]",
        "type": "tensor<1x32x320x320xf16>"
      }
    ],
    "results": [
      {
        "address": 128000,
        "layout": "eu_align",
        "memory_type": "<1x32x23x320xf32>",
        "name": "122_Conv124_Mul_f32",
        "reshape": "<1x32x1x320x320>",
        "shape": [
          1,
          32,
          320,
          320
        ],
        "slice": "[0:1, 0:32, 0:1, 197:220, 0:320]",
        "type": "tensor<1x32x320x320xf32>"
      }
    ],
    "buffers": []
  },
  {
    "file-line": 24,
    "subnet_id": 0,
    "core_id": 0,
    "opcode": "tpu.Active",
    "is_local": true,
    "tiu_dma_id(before)": [
      311,
      23
    ],
    "tiu_dma_id(after)": [
      328,
      23
    ],
    "operands": [
      {
        "address": 128000,
        "layout": "eu_align",
        "memory_type": "<1x32x23x320xf32>",
        "name": "122_Conv124_Mul_f32",
        "reshape": "<1x32x1x320x320>",
        "shape": [
          1,
          32,
          320,
          320
        ],
        "slice": "[0:1, 0:32, 0:1, 197:220, 0:320]",
        "type": "tensor<1x32x320x320xf32>"
      }
    ],
    "results": [
      {
        "address": 163840,
        "layout": "eu_align",
        "memory_type": "<1x32x23x320xf32>",
        "name": "124_Mul",
        "reshape": "<1x32x1x320x320>",
        "shape": [
          1,
          32,
          320,
          320
        ],
        "slice": "[0:1, 0:32, 0:1, 197:220, 0:320]",
        "type": "tensor<1x32x320x320xf32>"
      }
    ],
    "buffers": [
      {
        "address": 196608,
        "size": 59008
      }
    ]
  },
  {
    "file-line": 28,
    "subnet_id": 0,
    "core_id": 0,
    "opcode": "tpu.Store",
    "is_local": true,
    "tiu_dma_id(before)": [
      311,
      23
    ],
    "tiu_dma_id(after)": [
      311,
      24
    ],
    "operands": [
      {
        "address": 255616,
        "layout": "eu_align",
        "memory_type": "<1x64x11x160xf16>",
        "name": "125_Conv",
        "reshape": "<1x64x1x160x160>",
        "shape": [
          1,
          64,
          160,
          160
        ],
        "slice": "[0:1, 0:64, 0:1, 88:99, 0:160]",
        "type": "tensor<1x64x160x160xf16>"
      },
      {}
    ],
    "results": [
      {
        "address": 4314598912,
        "layout": "continuous",
        "memory_type": "<1x64x11x160xf16>",
        "name": "125_Conv",
        "reshape": "<1x64x1x160x160>",
        "shape": [
          1,
          64,
          160,
          160
        ],
        "slice": "[0:1, 0:64, 0:1, 88:99, 0:160]",
        "type": "tensor<1x64x160x160xf16, 4314570752 : i64>"
      }
    ],
    "buffers": []
  },
  {
    "file-line": 26,
    "subnet_id": 0,
    "core_id": 0,
    "opcode": "tpu.Cast",
    "is_local": true,
    "tiu_dma_id(before)": [
      328,
      24
    ],
    "tiu_dma_id(after)": [
      329,
      24
    ],
    "operands": [
      {
        "address": 163840,
        "layout": "eu_align",
        "memory_type": "<1x32x23x320xf32>",
        "name": "124_Mul",
        "reshape": "<1x32x1x320x320>",
        "shape": [
          1,
          32,
          320,
          320
        ],
        "slice": "[0:1, 0:32, 0:1, 197:220, 0:320]",
        "type": "tensor<1x32x320x320xf32>"
      }
    ],
    "results": [
      {
        "address": 128000,
        "layout": "eu_align",
        "memory_type": "<1x32x23x320xf16>",
        "name": "124_Mul125_Conv_f16",
        "reshape": "<1x32x1x320x320>",
        "shape": [
          1,
          32,
          320,
          320
        ],
        "slice": "[0:1, 0:32, 0:1, 197:220, 0:320]",
        "type": "tensor<1x32x320x320xf16>"
      }
    ],
    "buffers": []
  },
  {
    "file-line": 27,
    "subnet_id": 0,
    "core_id": 0,
    "opcode": "tpu.Conv2D",
    "is_local": true,
    "tiu_dma_id(before)": [
      329,
      24
    ],
    "tiu_dma_id(after)": [
      330,
      24
    ],
    "operands": [
      {
        "address": 128000,
        "layout": "eu_align",
        "memory_type": "<1x32x23x320xf16>",
        "name": "124_Mul125_Conv_f16",
        "reshape": "<1x32x1x320x320>",
        "shape": [
          1,
          32,
          320,
          320
        ],
        "slice": "[0:1, 0:32, 0:1, 197:220, 0:320]",
        "type": "tensor<1x32x320x320xf16>"
      },
      {
        "address": 195136,
        "layout": "compact",
        "memory_type": "<1x64x1x288xf16>",
        "name": "load_125_Conv_filter_reorderd",
        "reshape": "<1x64x1x1x288>",
        "shape": [
          1,
          64,
          1,
          288
        ],
        "slice": "[0:1, 0:64, 0:1, 0:1, 0:288]",
        "type": "tensor<1x64x1x288xf16>"
      },
      {
        "address": 195072,
        "layout": "compact",
        "memory_type": "<1x64x1x1xf32>",
        "name": "load_model.1.conv.bias",
        "reshape": "<1x64x1x1x1>",
        "shape": [
          1,
          64,
          1,
          1
        ],
        "slice": "[0:1, 0:64, 0:1, 0:1, 0:1]",
        "type": "tensor<1x64x1x1xf32>"
      }
    ],
    "results": [
      {
        "address": 255616,
        "layout": "eu_align",
        "memory_type": "<1x64x11x160xf16>",
        "name": "125_Conv",
        "reshape": "<1x64x1x160x160>",
        "shape": [
          1,
          64,
          160,
          160
        ],
        "slice": "[0:1, 0:64, 0:1, 99:110, 0:160]",
        "type": "tensor<1x64x160x160xf16>"
      }
    ],
    "buffers": []
  },
  {
    "file-line": 20,
    "subnet_id": 0,
    "core_id": 0,
    "opcode": "tpu.Cast",
    "is_local": true,
    "tiu_dma_id(before)": [
      330,
      24
    ],
    "tiu_dma_id(after)": [
      331,
      24
    ],
    "operands": [
      {
        "address": 0,
        "layout": "eu_align",
        "memory_type": "<1x3x46x640xf32>",
        "name": "load_0",
        "reshape": "<1x3x1x640x640>",
        "shape": [
          1,
          3,
          640,
          640
        ],
        "slice": "[0:1, 0:3, 0:1, 436:482, 0:640]",
        "type": "tensor<1x3x640x640xf32>"
      }
    ],
    "results": [
      {
        "address": 131072,
        "layout": "eu_align",
        "memory_type": "<1x3x46x640xf16>",
        "name": "images122_Conv_f16",
        "reshape": "<1x3x1x640x640>",
        "shape": [
          1,
          3,
          640,
          640
        ],
        "slice": "[0:1, 0:3, 0:1, 436:482, 0:640]",
        "type": "tensor<1x3x640x640xf16>"
      }
    ],
    "buffers": []
  },
  {
    "file-line": 21,
    "subnet_id": 0,
    "core_id": 0,
    "opcode": "tpu.Conv2D",
    "is_local": true,
    "tiu_dma_id(before)": [
      331,
      24
    ],
    "tiu_dma_id(after)": [
      343,
      24
    ],
    "operands": [
      {
        "address": 131072,
        "layout": "eu_align",
        "memory_type": "<1x3x46x640xf16>",
        "name": "images122_Conv_f16",
        "reshape": "<1x3x1x640x640>",
        "shape": [
          1,
          3,
          640,
          640
        ],
        "slice": "[0:1, 0:3, 0:1, 436:482, 0:640]",
        "type": "tensor<1x3x640x640xf16>"
      },
      {
        "address": 259136,
        "layout": "compact",
        "memory_type": "<1x32x1x192xf16>",
        "name": "load_122_Conv_filter_reorderd",
        "reshape": "<1x32x1x1x192>",
        "shape": [
          1,
          32,
          1,
          192
        ],
        "slice": "[0:1, 0:32, 0:1, 0:1, 0:192]",
        "type": "tensor<1x32x1x192xf16>"
      },
      {
        "address": 195712,
        "layout": "compact",
        "memory_type": "<1x32x1x1xf32>",
        "name": "load_model.0.conv.bias",
        "reshape": "<1x32x1x1x1>",
        "shape": [
          1,
          32,
          1,
          1
        ],
        "slice": "[0:1, 0:32, 0:1, 0:1, 0:1]",
        "type": "tensor<1x32x1x1xf32>"
      }
    ],
    "results": [
      {
        "address": 196608,
        "layout": "eu_align",
        "memory_type": "<1x32x21x320xf16>",
        "name": "122_Conv",
        "reshape": "<1x32x1x320x320>",
        "shape": [
          1,
          32,
          320,
          320
        ],
        "slice": "[0:1, 0:32, 0:1, 219:240, 0:320]",
        "type": "tensor<1x32x320x320xf16>"
      }
    ],
    "buffers": [
      {
        "address": 212992,
        "size": 29580
      }
    ]
  },
  {
    "file-line": 17,
    "subnet_id": 0,
    "core_id": 0,
    "opcode": "tpu.Load",
    "is_local": true,
    "tiu_dma_id(before)": [
      331,
      24
    ],
    "tiu_dma_id(after)": [
      331,
      25
    ],
    "operands": [
      {
        "address": 4310874112,
        "layout": "continuous",
        "memory_type": "<1x3x46x640xf32>",
        "name": "images",
        "reshape": "<1x3x1x640x640>",
        "shape": [
          1,
          3,
          640,
          640
        ],
        "slice": "[0:1, 0:3, 0:1, 476:522, 0:640]",
        "type": "tensor<1x3x640x640xf32, 4309655552 : i64>"
      }
    ],
    "results": [
      {
        "address": 0,
        "layout": "eu_align",
        "memory_type": "<1x3x46x640xf32>",
        "name": "load_0",
        "reshape": "<1x3x1x640x640>",
        "shape": [
          1,
          3,
          640,
          640
        ],
        "slice": "[0:1, 0:3, 0:1, 476:522, 0:640]",
        "type": "tensor<1x3x640x640xf32>"
      }
    ],
    "buffers": []
  },
  {
    "file-line": 22,
    "subnet_id": 0,
    "core_id": 0,
    "opcode": "tpu.Cast",
    "is_local": true,
    "tiu_dma_id(before)": [
      343,
      25
    ],
    "tiu_dma_id(after)": [
      344,
      25
    ],
    "operands": [
      {
        "address": 196608,
        "layout": "eu_align",
        "memory_type": "<1x32x21x320xf16>",
        "name": "122_Conv",
        "reshape": "<1x32x1x320x320>",
        "shape": [
          1,
          32,
          320,
          320
        ],
        "slice": "[0:1, 0:32, 0:1, 219:240, 0:320]",
        "type": "tensor<1x32x320x320xf16>"
      }
    ],
    "results": [
      {
        "address": 128000,
        "layout": "eu_align",
        "memory_type": "<1x32x21x320xf32>",
        "name": "122_Conv124_Mul_f32",
        "reshape": "<1x32x1x320x320>",
        "shape": [
          1,
          32,
          320,
          320
        ],
        "slice": "[0:1, 0:32, 0:1, 219:240, 0:320]",
        "type": "tensor<1x32x320x320xf32>"
      }
    ],
    "buffers": []
  },
  {
    "file-line": 24,
    "subnet_id": 0,
    "core_id": 0,
    "opcode": "tpu.Active",
    "is_local": true,
    "tiu_dma_id(before)": [
      344,
      25
    ],
    "tiu_dma_id(after)": [
      361,
      25
    ],
    "operands": [
      {
        "address": 128000,
        "layout": "eu_align",
        "memory_type": "<1x32x21x320xf32>",
        "name": "122_Conv124_Mul_f32",
        "reshape": "<1x32x1x320x320>",
        "shape": [
          1,
          32,
          320,
          320
        ],
        "slice": "[0:1, 0:32, 0:1, 219:240, 0:320]",
        "type": "tensor<1x32x320x320xf32>"
      }
    ],
    "results": [
      {
        "address": 163840,
        "layout": "eu_align",
        "memory_type": "<1x32x21x320xf32>",
        "name": "124_Mul",
        "reshape": "<1x32x1x320x320>",
        "shape": [
          1,
          32,
          320,
          320
        ],
        "slice": "[0:1, 0:32, 0:1, 219:240, 0:320]",
        "type": "tensor<1x32x320x320xf32>"
      }
    ],
    "buffers": [
      {
        "address": 196608,
        "size": 59008
      }
    ]
  },
  {
    "file-line": 28,
    "subnet_id": 0,
    "core_id": 0,
    "opcode": "tpu.Store",
    "is_local": true,
    "tiu_dma_id(before)": [
      344,
      25
    ],
    "tiu_dma_id(after)": [
      344,
      26
    ],
    "operands": [
      {
        "address": 255616,
        "layout": "eu_align",
        "memory_type": "<1x64x11x160xf16>",
        "name": "125_Conv",
        "reshape": "<1x64x1x160x160>",
        "shape": [
          1,
          64,
          160,
          160
        ],
        "slice": "[0:1, 0:64, 0:1, 99:110, 0:160]",
        "type": "tensor<1x64x160x160xf16>"
      },
      {}
    ],
    "results": [
      {
        "address": 4314602432,
        "layout": "continuous",
        "memory_type": "<1x64x11x160xf16>",
        "name": "125_Conv",
        "reshape": "<1x64x1x160x160>",
        "shape": [
          1,
          64,
          160,
          160
        ],
        "slice": "[0:1, 0:64, 0:1, 99:110, 0:160]",
        "type": "tensor<1x64x160x160xf16, 4314570752 : i64>"
      }
    ],
    "buffers": []
  },
  {
    "file-line": 26,
    "subnet_id": 0,
    "core_id": 0,
    "opcode": "tpu.Cast",
    "is_local": true,
    "tiu_dma_id(before)": [
      361,
      26
    ],
    "tiu_dma_id(after)": [
      362,
      26
    ],
    "operands": [
      {
        "address": 163840,
        "layout": "eu_align",
        "memory_type": "<1x32x21x320xf32>",
        "name": "124_Mul",
        "reshape": "<1x32x1x320x320>",
        "shape": [
          1,
          32,
          320,
          320
        ],
        "slice": "[0:1, 0:32, 0:1, 219:240, 0:320]",
        "type": "tensor<1x32x320x320xf32>"
      }
    ],
    "results": [
      {
        "address": 128000,
        "layout": "eu_align",
        "memory_type": "<1x32x21x320xf16>",
        "name": "124_Mul125_Conv_f16",
        "reshape": "<1x32x1x320x320>",
        "shape": [
          1,
          32,
          320,
          320
        ],
        "slice": "[0:1, 0:32, 0:1, 219:240, 0:320]",
        "type": "tensor<1x32x320x320xf16>"
      }
    ],
    "buffers": []
  },
  {
    "file-line": 27,
    "subnet_id": 0,
    "core_id": 0,
    "opcode": "tpu.Conv2D",
    "is_local": true,
    "tiu_dma_id(before)": [
      362,
      26
    ],
    "tiu_dma_id(after)": [
      363,
      26
    ],
    "operands": [
      {
        "address": 128000,
        "layout": "eu_align",
        "memory_type": "<1x32x21x320xf16>",
        "name": "124_Mul125_Conv_f16",
        "reshape": "<1x32x1x320x320>",
        "shape": [
          1,
          32,
          320,
          320
        ],
        "slice": "[0:1, 0:32, 0:1, 219:240, 0:320]",
        "type": "tensor<1x32x320x320xf16>"
      },
      {
        "address": 195136,
        "layout": "compact",
        "memory_type": "<1x64x1x288xf16>",
        "name": "load_125_Conv_filter_reorderd",
        "reshape": "<1x64x1x1x288>",
        "shape": [
          1,
          64,
          1,
          288
        ],
        "slice": "[0:1, 0:64, 0:1, 0:1, 0:288]",
        "type": "tensor<1x64x1x288xf16>"
      },
      {
        "address": 195072,
        "layout": "compact",
        "memory_type": "<1x64x1x1xf32>",
        "name": "load_model.1.conv.bias",
        "reshape": "<1x64x1x1x1>",
        "shape": [
          1,
          64,
          1,
          1
        ],
        "slice": "[0:1, 0:64, 0:1, 0:1, 0:1]",
        "type": "tensor<1x64x1x1xf32>"
      }
    ],
    "results": [
      {
        "address": 255616,
        "layout": "eu_align",
        "memory_type": "<1x64x10x160xf16>",
        "name": "125_Conv",
        "reshape": "<1x64x1x160x160>",
        "shape": [
          1,
          64,
          160,
          160
        ],
        "slice": "[0:1, 0:64, 0:1, 110:120, 0:160]",
        "type": "tensor<1x64x160x160xf16>"
      }
    ],
    "buffers": []
  },
  {
    "file-line": 20,
    "subnet_id": 0,
    "core_id": 0,
    "opcode": "tpu.Cast",
    "is_local": true,
    "tiu_dma_id(before)": [
      363,
      26
    ],
    "tiu_dma_id(after)": [
      364,
      26
    ],
    "operands": [
      {
        "address": 0,
        "layout": "eu_align",
        "memory_type": "<1x3x46x640xf32>",
        "name": "load_0",
        "reshape": "<1x3x1x640x640>",
        "shape": [
          1,
          3,
          640,
          640
        ],
        "slice": "[0:1, 0:3, 0:1, 476:522, 0:640]",
        "type": "tensor<1x3x640x640xf32>"
      }
    ],
    "results": [
      {
        "address": 131072,
        "layout": "eu_align",
        "memory_type": "<1x3x46x640xf16>",
        "name": "images122_Conv_f16",
        "reshape": "<1x3x1x640x640>",
        "shape": [
          1,
          3,
          640,
          640
        ],
        "slice": "[0:1, 0:3, 0:1, 476:522, 0:640]",
        "type": "tensor<1x3x640x640xf16>"
      }
    ],
    "buffers": []
  },
  {
    "file-line": 21,
    "subnet_id": 0,
    "core_id": 0,
    "opcode": "tpu.Conv2D",
    "is_local": true,
    "tiu_dma_id(before)": [
      364,
      26
    ],
    "tiu_dma_id(after)": [
      376,
      26
    ],
    "operands": [
      {
        "address": 131072,
        "layout": "eu_align",
        "memory_type": "<1x3x46x640xf16>",
        "name": "images122_Conv_f16",
        "reshape": "<1x3x1x640x640>",
        "shape": [
          1,
          3,
          640,
          640
        ],
        "slice": "[0:1, 0:3, 0:1, 476:522, 0:640]",
        "type": "tensor<1x3x640x640xf16>"
      },
      {
        "address": 259136,
        "layout": "compact",
        "memory_type": "<1x32x1x192xf16>",
        "name": "load_122_Conv_filter_reorderd",
        "reshape": "<1x32x1x1x192>",
        "shape": [
          1,
          32,
          1,
          192
        ],
        "slice": "[0:1, 0:32, 0:1, 0:1, 0:192]",
        "type": "tensor<1x32x1x192xf16>"
      },
      {
        "address": 195712,
        "layout": "compact",
        "memory_type": "<1x32x1x1xf32>",
        "name": "load_model.0.conv.bias",
        "reshape": "<1x32x1x1x1>",
        "shape": [
          1,
          32,
          1,
          1
        ],
        "slice": "[0:1, 0:32, 0:1, 0:1, 0:1]",
        "type": "tensor<1x32x1x1xf32>"
      }
    ],
    "results": [
      {
        "address": 196608,
        "layout": "eu_align",
        "memory_type": "<1x32x21x320xf16>",
        "name": "122_Conv",
        "reshape": "<1x32x1x320x320>",
        "shape": [
          1,
          32,
          320,
          320
        ],
        "slice": "[0:1, 0:32, 0:1, 239:260, 0:320]",
        "type": "tensor<1x32x320x320xf16>"
      }
    ],
    "buffers": [
      {
        "address": 212992,
        "size": 29580
      }
    ]
  },
  {
    "file-line": 17,
    "subnet_id": 0,
    "core_id": 0,
    "opcode": "tpu.Load",
    "is_local": true,
    "tiu_dma_id(before)": [
      364,
      26
    ],
    "tiu_dma_id(after)": [
      364,
      27
    ],
    "operands": [
      {
        "address": 4310976512,
        "layout": "continuous",
        "memory_type": "<1x3x46x640xf32>",
        "name": "images",
        "reshape": "<1x3x1x640x640>",
        "shape": [
          1,
          3,
          640,
          640
        ],
        "slice": "[0:1, 0:3, 0:1, 516:562, 0:640]",
        "type": "tensor<1x3x640x640xf32, 4309655552 : i64>"
      }
    ],
    "results": [
      {
        "address": 0,
        "layout": "eu_align",
        "memory_type": "<1x3x46x640xf32>",
        "name": "load_0",
        "reshape": "<1x3x1x640x640>",
        "shape": [
          1,
          3,
          640,
          640
        ],
        "slice": "[0:1, 0:3, 0:1, 516:562, 0:640]",
        "type": "tensor<1x3x640x640xf32>"
      }
    ],
    "buffers": []
  },
  {
    "file-line": 22,
    "subnet_id": 0,
    "core_id": 0,
    "opcode": "tpu.Cast",
    "is_local": true,
    "tiu_dma_id(before)": [
      376,
      27
    ],
    "tiu_dma_id(after)": [
      377,
      27
    ],
    "operands": [
      {
        "address": 196608,
        "layout": "eu_align",
        "memory_type": "<1x32x21x320xf16>",
        "name": "122_Conv",
        "reshape": "<1x32x1x320x320>",
        "shape": [
          1,
          32,
          320,
          320
        ],
        "slice": "[0:1, 0:32, 0:1, 239:260, 0:320]",
        "type": "tensor<1x32x320x320xf16>"
      }
    ],
    "results": [
      {
        "address": 128000,
        "layout": "eu_align",
        "memory_type": "<1x32x21x320xf32>",
        "name": "122_Conv124_Mul_f32",
        "reshape": "<1x32x1x320x320>",
        "shape": [
          1,
          32,
          320,
          320
        ],
        "slice": "[0:1, 0:32, 0:1, 239:260, 0:320]",
        "type": "tensor<1x32x320x320xf32>"
      }
    ],
    "buffers": []
  },
  {
    "file-line": 24,
    "subnet_id": 0,
    "core_id": 0,
    "opcode": "tpu.Active",
    "is_local": true,
    "tiu_dma_id(before)": [
      377,
      27
    ],
    "tiu_dma_id(after)": [
      394,
      27
    ],
    "operands": [
      {
        "address": 128000,
        "layout": "eu_align",
        "memory_type": "<1x32x21x320xf32>",
        "name": "122_Conv124_Mul_f32",
        "reshape": "<1x32x1x320x320>",
        "shape": [
          1,
          32,
          320,
          320
        ],
        "slice": "[0:1, 0:32, 0:1, 239:260, 0:320]",
        "type": "tensor<1x32x320x320xf32>"
      }
    ],
    "results": [
      {
        "address": 163840,
        "layout": "eu_align",
        "memory_type": "<1x32x21x320xf32>",
        "name": "124_Mul",
        "reshape": "<1x32x1x320x320>",
        "shape": [
          1,
          32,
          320,
          320
        ],
        "slice": "[0:1, 0:32, 0:1, 239:260, 0:320]",
        "type": "tensor<1x32x320x320xf32>"
      }
    ],
    "buffers": [
      {
        "address": 196608,
        "size": 59008
      }
    ]
  },
  {
    "file-line": 28,
    "subnet_id": 0,
    "core_id": 0,
    "opcode": "tpu.Store",
    "is_local": true,
    "tiu_dma_id(before)": [
      377,
      27
    ],
    "tiu_dma_id(after)": [
      377,
      28
    ],
    "operands": [
      {
        "address": 255616,
        "layout": "eu_align",
        "memory_type": "<1x64x10x160xf16>",
        "name": "125_Conv",
        "reshape": "<1x64x1x160x160>",
        "shape": [
          1,
          64,
          160,
          160
        ],
        "slice": "[0:1, 0:64, 0:1, 110:120, 0:160]",
        "type": "tensor<1x64x160x160xf16>"
      },
      {}
    ],
    "results": [
      {
        "address": 4314605952,
        "layout": "continuous",
        "memory_type": "<1x64x10x160xf16>",
        "name": "125_Conv",
        "reshape": "<1x64x1x160x160>",
        "shape": [
          1,
          64,
          160,
          160
        ],
        "slice": "[0:1, 0:64, 0:1, 110:120, 0:160]",
        "type": "tensor<1x64x160x160xf16, 4314570752 : i64>"
      }
    ],
    "buffers": []
  },
  {
    "file-line": 26,
    "subnet_id": 0,
    "core_id": 0,
    "opcode": "tpu.Cast",
    "is_local": true,
    "tiu_dma_id(before)": [
      394,
      28
    ],
    "tiu_dma_id(after)": [
      395,
      28
    ],
    "operands": [
      {
        "address": 163840,
        "layout": "eu_align",
        "memory_type": "<1x32x21x320xf32>",
        "name": "124_Mul",
        "reshape": "<1x32x1x320x320>",
        "shape": [
          1,
          32,
          320,
          320
        ],
        "slice": "[0:1, 0:32, 0:1, 239:260, 0:320]",
        "type": "tensor<1x32x320x320xf32>"
      }
    ],
    "results": [
      {
        "address": 128000,
        "layout": "eu_align",
        "memory_type": "<1x32x21x320xf16>",
        "name": "124_Mul125_Conv_f16",
        "reshape": "<1x32x1x320x320>",
        "shape": [
          1,
          32,
          320,
          320
        ],
        "slice": "[0:1, 0:32, 0:1, 239:260, 0:320]",
        "type": "tensor<1x32x320x320xf16>"
      }
    ],
    "buffers": []
  },
  {
    "file-line": 27,
    "subnet_id": 0,
    "core_id": 0,
    "opcode": "tpu.Conv2D",
    "is_local": true,
    "tiu_dma_id(before)": [
      395,
      28
    ],
    "tiu_dma_id(after)": [
      396,
      28
    ],
    "operands": [
      {
        "address": 128000,
        "layout": "eu_align",
        "memory_type": "<1x32x21x320xf16>",
        "name": "124_Mul125_Conv_f16",
        "reshape": "<1x32x1x320x320>",
        "shape": [
          1,
          32,
          320,
          320
        ],
        "slice": "[0:1, 0:32, 0:1, 239:260, 0:320]",
        "type": "tensor<1x32x320x320xf16>"
      },
      {
        "address": 195136,
        "layout": "compact",
        "memory_type": "<1x64x1x288xf16>",
        "name": "load_125_Conv_filter_reorderd",
        "reshape": "<1x64x1x1x288>",
        "shape": [
          1,
          64,
          1,
          288
        ],
        "slice": "[0:1, 0:64, 0:1, 0:1, 0:288]",
        "type": "tensor<1x64x1x288xf16>"
      },
      {
        "address": 195072,
        "layout": "compact",
        "memory_type": "<1x64x1x1xf32>",
        "name": "load_model.1.conv.bias",
        "reshape": "<1x64x1x1x1>",
        "shape": [
          1,
          64,
          1,
          1
        ],
        "slice": "[0:1, 0:64, 0:1, 0:1, 0:1]",
        "type": "tensor<1x64x1x1xf32>"
      }
    ],
    "results": [
      {
        "address": 255616,
        "layout": "eu_align",
        "memory_type": "<1x64x10x160xf16>",
        "name": "125_Conv",
        "reshape": "<1x64x1x160x160>",
        "shape": [
          1,
          64,
          160,
          160
        ],
        "slice": "[0:1, 0:64, 0:1, 120:130, 0:160]",
        "type": "tensor<1x64x160x160xf16>"
      }
    ],
    "buffers": []
  },
  {
    "file-line": 20,
    "subnet_id": 0,
    "core_id": 0,
    "opcode": "tpu.Cast",
    "is_local": true,
    "tiu_dma_id(before)": [
      396,
      28
    ],
    "tiu_dma_id(after)": [
      397,
      28
    ],
    "operands": [
      {
        "address": 0,
        "layout": "eu_align",
        "memory_type": "<1x3x46x640xf32>",
        "name": "load_0",
        "reshape": "<1x3x1x640x640>",
        "shape": [
          1,
          3,
          640,
          640
        ],
        "slice": "[0:1, 0:3, 0:1, 516:562, 0:640]",
        "type": "tensor<1x3x640x640xf32>"
      }
    ],
    "results": [
      {
        "address": 131072,
        "layout": "eu_align",
        "memory_type": "<1x3x46x640xf16>",
        "name": "images122_Conv_f16",
        "reshape": "<1x3x1x640x640>",
        "shape": [
          1,
          3,
          640,
          640
        ],
        "slice": "[0:1, 0:3, 0:1, 516:562, 0:640]",
        "type": "tensor<1x3x640x640xf16>"
      }
    ],
    "buffers": []
  },
  {
    "file-line": 21,
    "subnet_id": 0,
    "core_id": 0,
    "opcode": "tpu.Conv2D",
    "is_local": true,
    "tiu_dma_id(before)": [
      397,
      28
    ],
    "tiu_dma_id(after)": [
      409,
      28
    ],
    "operands": [
      {
        "address": 131072,
        "layout": "eu_align",
        "memory_type": "<1x3x46x640xf16>",
        "name": "images122_Conv_f16",
        "reshape": "<1x3x1x640x640>",
        "shape": [
          1,
          3,
          640,
          640
        ],
        "slice": "[0:1, 0:3, 0:1, 516:562, 0:640]",
        "type": "tensor<1x3x640x640xf16>"
      },
      {
        "address": 259136,
        "layout": "compact",
        "memory_type": "<1x32x1x192xf16>",
        "name": "load_122_Conv_filter_reorderd",
        "reshape": "<1x32x1x1x192>",
        "shape": [
          1,
          32,
          1,
          192
        ],
        "slice": "[0:1, 0:32, 0:1, 0:1, 0:192]",
        "type": "tensor<1x32x1x192xf16>"
      },
      {
        "address": 195712,
        "layout": "compact",
        "memory_type": "<1x32x1x1xf32>",
        "name": "load_model.0.conv.bias",
        "reshape": "<1x32x1x1x1>",
        "shape": [
          1,
          32,
          1,
          1
        ],
        "slice": "[0:1, 0:32, 0:1, 0:1, 0:1]",
        "type": "tensor<1x32x1x1xf32>"
      }
    ],
    "results": [
      {
        "address": 196608,
        "layout": "eu_align",
        "memory_type": "<1x32x21x320xf16>",
        "name": "122_Conv",
        "reshape": "<1x32x1x320x320>",
        "shape": [
          1,
          32,
          320,
          320
        ],
        "slice": "[0:1, 0:32, 0:1, 259:280, 0:320]",
        "type": "tensor<1x32x320x320xf16>"
      }
    ],
    "buffers": [
      {
        "address": 212992,
        "size": 29580
      }
    ]
  },
  {
    "file-line": 17,
    "subnet_id": 0,
    "core_id": 0,
    "opcode": "tpu.Load",
    "is_local": true,
    "tiu_dma_id(before)": [
      397,
      28
    ],
    "tiu_dma_id(after)": [
      397,
      29
    ],
    "operands": [
      {
        "address": 4311078912,
        "layout": "continuous",
        "memory_type": "<1x3x46x640xf32>",
        "name": "images",
        "reshape": "<1x3x1x640x640>",
        "shape": [
          1,
          3,
          640,
          640
        ],
        "slice": "[0:1, 0:3, 0:1, 556:602, 0:640]",
        "type": "tensor<1x3x640x640xf32, 4309655552 : i64>"
      }
    ],
    "results": [
      {
        "address": 0,
        "layout": "eu_align",
        "memory_type": "<1x3x46x640xf32>",
        "name": "load_0",
        "reshape": "<1x3x1x640x640>",
        "shape": [
          1,
          3,
          640,
          640
        ],
        "slice": "[0:1, 0:3, 0:1, 556:602, 0:640]",
        "type": "tensor<1x3x640x640xf32>"
      }
    ],
    "buffers": []
  },
  {
    "file-line": 22,
    "subnet_id": 0,
    "core_id": 0,
    "opcode": "tpu.Cast",
    "is_local": true,
    "tiu_dma_id(before)": [
      409,
      29
    ],
    "tiu_dma_id(after)": [
      410,
      29
    ],
    "operands": [
      {
        "address": 196608,
        "layout": "eu_align",
        "memory_type": "<1x32x21x320xf16>",
        "name": "122_Conv",
        "reshape": "<1x32x1x320x320>",
        "shape": [
          1,
          32,
          320,
          320
        ],
        "slice": "[0:1, 0:32, 0:1, 259:280, 0:320]",
        "type": "tensor<1x32x320x320xf16>"
      }
    ],
    "results": [
      {
        "address": 128000,
        "layout": "eu_align",
        "memory_type": "<1x32x21x320xf32>",
        "name": "122_Conv124_Mul_f32",
        "reshape": "<1x32x1x320x320>",
        "shape": [
          1,
          32,
          320,
          320
        ],
        "slice": "[0:1, 0:32, 0:1, 259:280, 0:320]",
        "type": "tensor<1x32x320x320xf32>"
      }
    ],
    "buffers": []
  },
  {
    "file-line": 24,
    "subnet_id": 0,
    "core_id": 0,
    "opcode": "tpu.Active",
    "is_local": true,
    "tiu_dma_id(before)": [
      410,
      29
    ],
    "tiu_dma_id(after)": [
      427,
      29
    ],
    "operands": [
      {
        "address": 128000,
        "layout": "eu_align",
        "memory_type": "<1x32x21x320xf32>",
        "name": "122_Conv124_Mul_f32",
        "reshape": "<1x32x1x320x320>",
        "shape": [
          1,
          32,
          320,
          320
        ],
        "slice": "[0:1, 0:32, 0:1, 259:280, 0:320]",
        "type": "tensor<1x32x320x320xf32>"
      }
    ],
    "results": [
      {
        "address": 163840,
        "layout": "eu_align",
        "memory_type": "<1x32x21x320xf32>",
        "name": "124_Mul",
        "reshape": "<1x32x1x320x320>",
        "shape": [
          1,
          32,
          320,
          320
        ],
        "slice": "[0:1, 0:32, 0:1, 259:280, 0:320]",
        "type": "tensor<1x32x320x320xf32>"
      }
    ],
    "buffers": [
      {
        "address": 196608,
        "size": 59008
      }
    ]
  },
  {
    "file-line": 28,
    "subnet_id": 0,
    "core_id": 0,
    "opcode": "tpu.Store",
    "is_local": true,
    "tiu_dma_id(before)": [
      410,
      29
    ],
    "tiu_dma_id(after)": [
      410,
      30
    ],
    "operands": [
      {
        "address": 255616,
        "layout": "eu_align",
        "memory_type": "<1x64x10x160xf16>",
        "name": "125_Conv",
        "reshape": "<1x64x1x160x160>",
        "shape": [
          1,
          64,
          160,
          160
        ],
        "slice": "[0:1, 0:64, 0:1, 120:130, 0:160]",
        "type": "tensor<1x64x160x160xf16>"
      },
      {}
    ],
    "results": [
      {
        "address": 4314609152,
        "layout": "continuous",
        "memory_type": "<1x64x10x160xf16>",
        "name": "125_Conv",
        "reshape": "<1x64x1x160x160>",
        "shape": [
          1,
          64,
          160,
          160
        ],
        "slice": "[0:1, 0:64, 0:1, 120:130, 0:160]",
        "type": "tensor<1x64x160x160xf16, 4314570752 : i64>"
      }
    ],
    "buffers": []
  },
  {
    "file-line": 26,
    "subnet_id": 0,
    "core_id": 0,
    "opcode": "tpu.Cast",
    "is_local": true,
    "tiu_dma_id(before)": [
      427,
      30
    ],
    "tiu_dma_id(after)": [
      428,
      30
    ],
    "operands": [
      {
        "address": 163840,
        "layout": "eu_align",
        "memory_type": "<1x32x21x320xf32>",
        "name": "124_Mul",
        "reshape": "<1x32x1x320x320>",
        "shape": [
          1,
          32,
          320,
          320
        ],
        "slice": "[0:1, 0:32, 0:1, 259:280, 0:320]",
        "type": "tensor<1x32x320x320xf32>"
      }
    ],
    "results": [
      {
        "address": 128000,
        "layout": "eu_align",
        "memory_type": "<1x32x21x320xf16>",
        "name": "124_Mul125_Conv_f16",
        "reshape": "<1x32x1x320x320>",
        "shape": [
          1,
          32,
          320,
          320
        ],
        "slice": "[0:1, 0:32, 0:1, 259:280, 0:320]",
        "type": "tensor<1x32x320x320xf16>"
      }
    ],
    "buffers": []
  },
  {
    "file-line": 27,
    "subnet_id": 0,
    "core_id": 0,
    "opcode": "tpu.Conv2D",
    "is_local": true,
    "tiu_dma_id(before)": [
      428,
      30
    ],
    "tiu_dma_id(after)": [
      429,
      30
    ],
    "operands": [
      {
        "address": 128000,
        "layout": "eu_align",
        "memory_type": "<1x32x21x320xf16>",
        "name": "124_Mul125_Conv_f16",
        "reshape": "<1x32x1x320x320>",
        "shape": [
          1,
          32,
          320,
          320
        ],
        "slice": "[0:1, 0:32, 0:1, 259:280, 0:320]",
        "type": "tensor<1x32x320x320xf16>"
      },
      {
        "address": 195136,
        "layout": "compact",
        "memory_type": "<1x64x1x288xf16>",
        "name": "load_125_Conv_filter_reorderd",
        "reshape": "<1x64x1x1x288>",
        "shape": [
          1,
          64,
          1,
          288
        ],
        "slice": "[0:1, 0:64, 0:1, 0:1, 0:288]",
        "type": "tensor<1x64x1x288xf16>"
      },
      {
        "address": 195072,
        "layout": "compact",
        "memory_type": "<1x64x1x1xf32>",
        "name": "load_model.1.conv.bias",
        "reshape": "<1x64x1x1x1>",
        "shape": [
          1,
          64,
          1,
          1
        ],
        "slice": "[0:1, 0:64, 0:1, 0:1, 0:1]",
        "type": "tensor<1x64x1x1xf32>"
      }
    ],
    "results": [
      {
        "address": 255616,
        "layout": "eu_align",
        "memory_type": "<1x64x10x160xf16>",
        "name": "125_Conv",
        "reshape": "<1x64x1x160x160>",
        "shape": [
          1,
          64,
          160,
          160
        ],
        "slice": "[0:1, 0:64, 0:1, 130:140, 0:160]",
        "type": "tensor<1x64x160x160xf16>"
      }
    ],
    "buffers": []
  },
  {
    "file-line": 20,
    "subnet_id": 0,
    "core_id": 0,
    "opcode": "tpu.Cast",
    "is_local": true,
    "tiu_dma_id(before)": [
      429,
      30
    ],
    "tiu_dma_id(after)": [
      430,
      30
    ],
    "operands": [
      {
        "address": 0,
        "layout": "eu_align",
        "memory_type": "<1x3x46x640xf32>",
        "name": "load_0",
        "reshape": "<1x3x1x640x640>",
        "shape": [
          1,
          3,
          640,
          640
        ],
        "slice": "[0:1, 0:3, 0:1, 556:602, 0:640]",
        "type": "tensor<1x3x640x640xf32>"
      }
    ],
    "results": [
      {
        "address": 131072,
        "layout": "eu_align",
        "memory_type": "<1x3x46x640xf16>",
        "name": "images122_Conv_f16",
        "reshape": "<1x3x1x640x640>",
        "shape": [
          1,
          3,
          640,
          640
        ],
        "slice": "[0:1, 0:3, 0:1, 556:602, 0:640]",
        "type": "tensor<1x3x640x640xf16>"
      }
    ],
    "buffers": []
  },
  {
    "file-line": 21,
    "subnet_id": 0,
    "core_id": 0,
    "opcode": "tpu.Conv2D",
    "is_local": true,
    "tiu_dma_id(before)": [
      430,
      30
    ],
    "tiu_dma_id(after)": [
      442,
      30
    ],
    "operands": [
      {
        "address": 131072,
        "layout": "eu_align",
        "memory_type": "<1x3x46x640xf16>",
        "name": "images122_Conv_f16",
        "reshape": "<1x3x1x640x640>",
        "shape": [
          1,
          3,
          640,
          640
        ],
        "slice": "[0:1, 0:3, 0:1, 556:602, 0:640]",
        "type": "tensor<1x3x640x640xf16>"
      },
      {
        "address": 259136,
        "layout": "compact",
        "memory_type": "<1x32x1x192xf16>",
        "name": "load_122_Conv_filter_reorderd",
        "reshape": "<1x32x1x1x192>",
        "shape": [
          1,
          32,
          1,
          192
        ],
        "slice": "[0:1, 0:32, 0:1, 0:1, 0:192]",
        "type": "tensor<1x32x1x192xf16>"
      },
      {
        "address": 195712,
        "layout": "compact",
        "memory_type": "<1x32x1x1xf32>",
        "name": "load_model.0.conv.bias",
        "reshape": "<1x32x1x1x1>",
        "shape": [
          1,
          32,
          1,
          1
        ],
        "slice": "[0:1, 0:32, 0:1, 0:1, 0:1]",
        "type": "tensor<1x32x1x1xf32>"
      }
    ],
    "results": [
      {
        "address": 196608,
        "layout": "eu_align",
        "memory_type": "<1x32x21x320xf16>",
        "name": "122_Conv",
        "reshape": "<1x32x1x320x320>",
        "shape": [
          1,
          32,
          320,
          320
        ],
        "slice": "[0:1, 0:32, 0:1, 279:300, 0:320]",
        "type": "tensor<1x32x320x320xf16>"
      }
    ],
    "buffers": [
      {
        "address": 212992,
        "size": 29580
      }
    ]
  },
  {
    "file-line": 17,
    "subnet_id": 0,
    "core_id": 0,
    "opcode": "tpu.Load",
    "is_local": true,
    "tiu_dma_id(before)": [
      430,
      30
    ],
    "tiu_dma_id(after)": [
      430,
      31
    ],
    "operands": [
      {
        "address": 4311181312,
        "layout": "continuous",
        "memory_type": "<1x3x44x640xf32>",
        "name": "images",
        "reshape": "<1x3x1x640x640>",
        "shape": [
          1,
          3,
          640,
          640
        ],
        "slice": "[0:1, 0:3, 0:1, 596:640, 0:640]",
        "type": "tensor<1x3x640x640xf32, 4309655552 : i64>"
      }
    ],
    "results": [
      {
        "address": 0,
        "layout": "eu_align",
        "memory_type": "<1x3x44x640xf32>",
        "name": "load_0",
        "reshape": "<1x3x1x640x640>",
        "shape": [
          1,
          3,
          640,
          640
        ],
        "slice": "[0:1, 0:3, 0:1, 596:640, 0:640]",
        "type": "tensor<1x3x640x640xf32>"
      }
    ],
    "buffers": []
  },
  {
    "file-line": 22,
    "subnet_id": 0,
    "core_id": 0,
    "opcode": "tpu.Cast",
    "is_local": true,
    "tiu_dma_id(before)": [
      442,
      31
    ],
    "tiu_dma_id(after)": [
      443,
      31
    ],
    "operands": [
      {
        "address": 196608,
        "layout": "eu_align",
        "memory_type": "<1x32x21x320xf16>",
        "name": "122_Conv",
        "reshape": "<1x32x1x320x320>",
        "shape": [
          1,
          32,
          320,
          320
        ],
        "slice": "[0:1, 0:32, 0:1, 279:300, 0:320]",
        "type": "tensor<1x32x320x320xf16>"
      }
    ],
    "results": [
      {
        "address": 128000,
        "layout": "eu_align",
        "memory_type": "<1x32x21x320xf32>",
        "name": "122_Conv124_Mul_f32",
        "reshape": "<1x32x1x320x320>",
        "shape": [
          1,
          32,
          320,
          320
        ],
        "slice": "[0:1, 0:32, 0:1, 279:300, 0:320]",
        "type": "tensor<1x32x320x320xf32>"
      }
    ],
    "buffers": []
  },
  {
    "file-line": 24,
    "subnet_id": 0,
    "core_id": 0,
    "opcode": "tpu.Active",
    "is_local": true,
    "tiu_dma_id(before)": [
      443,
      31
    ],
    "tiu_dma_id(after)": [
      460,
      31
    ],
    "operands": [
      {
        "address": 128000,
        "layout": "eu_align",
        "memory_type": "<1x32x21x320xf32>",
        "name": "122_Conv124_Mul_f32",
        "reshape": "<1x32x1x320x320>",
        "shape": [
          1,
          32,
          320,
          320
        ],
        "slice": "[0:1, 0:32, 0:1, 279:300, 0:320]",
        "type": "tensor<1x32x320x320xf32>"
      }
    ],
    "results": [
      {
        "address": 163840,
        "layout": "eu_align",
        "memory_type": "<1x32x21x320xf32>",
        "name": "124_Mul",
        "reshape": "<1x32x1x320x320>",
        "shape": [
          1,
          32,
          320,
          320
        ],
        "slice": "[0:1, 0:32, 0:1, 279:300, 0:320]",
        "type": "tensor<1x32x320x320xf32>"
      }
    ],
    "buffers": [
      {
        "address": 196608,
        "size": 59008
      }
    ]
  },
  {
    "file-line": 28,
    "subnet_id": 0,
    "core_id": 0,
    "opcode": "tpu.Store",
    "is_local": true,
    "tiu_dma_id(before)": [
      443,
      31
    ],
    "tiu_dma_id(after)": [
      443,
      32
    ],
    "operands": [
      {
        "address": 255616,
        "layout": "eu_align",
        "memory_type": "<1x64x10x160xf16>",
        "name": "125_Conv",
        "reshape": "<1x64x1x160x160>",
        "shape": [
          1,
          64,
          160,
          160
        ],
        "slice": "[0:1, 0:64, 0:1, 130:140, 0:160]",
        "type": "tensor<1x64x160x160xf16>"
      },
      {}
    ],
    "results": [
      {
        "address": 4314612352,
        "layout": "continuous",
        "memory_type": "<1x64x10x160xf16>",
        "name": "125_Conv",
        "reshape": "<1x64x1x160x160>",
        "shape": [
          1,
          64,
          160,
          160
        ],
        "slice": "[0:1, 0:64, 0:1, 130:140, 0:160]",
        "type": "tensor<1x64x160x160xf16, 4314570752 : i64>"
      }
    ],
    "buffers": []
  },
  {
    "file-line": 26,
    "subnet_id": 0,
    "core_id": 0,
    "opcode": "tpu.Cast",
    "is_local": true,
    "tiu_dma_id(before)": [
      460,
      32
    ],
    "tiu_dma_id(after)": [
      461,
      32
    ],
    "operands": [
      {
        "address": 163840,
        "layout": "eu_align",
        "memory_type": "<1x32x21x320xf32>",
        "name": "124_Mul",
        "reshape": "<1x32x1x320x320>",
        "shape": [
          1,
          32,
          320,
          320
        ],
        "slice": "[0:1, 0:32, 0:1, 279:300, 0:320]",
        "type": "tensor<1x32x320x320xf32>"
      }
    ],
    "results": [
      {
        "address": 128000,
        "layout": "eu_align",
        "memory_type": "<1x32x21x320xf16>",
        "name": "124_Mul125_Conv_f16",
        "reshape": "<1x32x1x320x320>",
        "shape": [
          1,
          32,
          320,
          320
        ],
        "slice": "[0:1, 0:32, 0:1, 279:300, 0:320]",
        "type": "tensor<1x32x320x320xf16>"
      }
    ],
    "buffers": []
  },
  {
    "file-line": 27,
    "subnet_id": 0,
    "core_id": 0,
    "opcode": "tpu.Conv2D",
    "is_local": true,
    "tiu_dma_id(before)": [
      461,
      32
    ],
    "tiu_dma_id(after)": [
      462,
      32
    ],
    "operands": [
      {
        "address": 128000,
        "layout": "eu_align",
        "memory_type": "<1x32x21x320xf16>",
        "name": "124_Mul125_Conv_f16",
        "reshape": "<1x32x1x320x320>",
        "shape": [
          1,
          32,
          320,
          320
        ],
        "slice": "[0:1, 0:32, 0:1, 279:300, 0:320]",
        "type": "tensor<1x32x320x320xf16>"
      },
      {
        "address": 195136,
        "layout": "compact",
        "memory_type": "<1x64x1x288xf16>",
        "name": "load_125_Conv_filter_reorderd",
        "reshape": "<1x64x1x1x288>",
        "shape": [
          1,
          64,
          1,
          288
        ],
        "slice": "[0:1, 0:64, 0:1, 0:1, 0:288]",
        "type": "tensor<1x64x1x288xf16>"
      },
      {
        "address": 195072,
        "layout": "compact",
        "memory_type": "<1x64x1x1xf32>",
        "name": "load_model.1.conv.bias",
        "reshape": "<1x64x1x1x1>",
        "shape": [
          1,
          64,
          1,
          1
        ],
        "slice": "[0:1, 0:64, 0:1, 0:1, 0:1]",
        "type": "tensor<1x64x1x1xf32>"
      }
    ],
    "results": [
      {
        "address": 255616,
        "layout": "eu_align",
        "memory_type": "<1x64x10x160xf16>",
        "name": "125_Conv",
        "reshape": "<1x64x1x160x160>",
        "shape": [
          1,
          64,
          160,
          160
        ],
        "slice": "[0:1, 0:64, 0:1, 140:150, 0:160]",
        "type": "tensor<1x64x160x160xf16>"
      }
    ],
    "buffers": []
  },
  {
    "file-line": 20,
    "subnet_id": 0,
    "core_id": 0,
    "opcode": "tpu.Cast",
    "is_local": true,
    "tiu_dma_id(before)": [
      462,
      32
    ],
    "tiu_dma_id(after)": [
      463,
      32
    ],
    "operands": [
      {
        "address": 0,
        "layout": "eu_align",
        "memory_type": "<1x3x44x640xf32>",
        "name": "load_0",
        "reshape": "<1x3x1x640x640>",
        "shape": [
          1,
          3,
          640,
          640
        ],
        "slice": "[0:1, 0:3, 0:1, 596:640, 0:640]",
        "type": "tensor<1x3x640x640xf32>"
      }
    ],
    "results": [
      {
        "address": 131072,
        "layout": "eu_align",
        "memory_type": "<1x3x44x640xf16>",
        "name": "images122_Conv_f16",
        "reshape": "<1x3x1x640x640>",
        "shape": [
          1,
          3,
          640,
          640
        ],
        "slice": "[0:1, 0:3, 0:1, 596:640, 0:640]",
        "type": "tensor<1x3x640x640xf16>"
      }
    ],
    "buffers": []
  },
  {
    "file-line": 21,
    "subnet_id": 0,
    "core_id": 0,
    "opcode": "tpu.Conv2D",
    "is_local": true,
    "tiu_dma_id(before)": [
      463,
      32
    ],
    "tiu_dma_id(after)": [
      475,
      32
    ],
    "operands": [
      {
        "address": 131072,
        "layout": "eu_align",
        "memory_type": "<1x3x44x640xf16>",
        "name": "images122_Conv_f16",
        "reshape": "<1x3x1x640x640>",
        "shape": [
          1,
          3,
          640,
          640
        ],
        "slice": "[0:1, 0:3, 0:1, 596:640, 0:640]",
        "type": "tensor<1x3x640x640xf16>"
      },
      {
        "address": 259136,
        "layout": "compact",
        "memory_type": "<1x32x1x192xf16>",
        "name": "load_122_Conv_filter_reorderd",
        "reshape": "<1x32x1x1x192>",
        "shape": [
          1,
          32,
          1,
          192
        ],
        "slice": "[0:1, 0:32, 0:1, 0:1, 0:192]",
        "type": "tensor<1x32x1x192xf16>"
      },
      {
        "address": 195712,
        "layout": "compact",
        "memory_type": "<1x32x1x1xf32>",
        "name": "load_model.0.conv.bias",
        "reshape": "<1x32x1x1x1>",
        "shape": [
          1,
          32,
          1,
          1
        ],
        "slice": "[0:1, 0:32, 0:1, 0:1, 0:1]",
        "type": "tensor<1x32x1x1xf32>"
      }
    ],
    "results": [
      {
        "address": 196608,
        "layout": "eu_align",
        "memory_type": "<1x32x21x320xf16>",
        "name": "122_Conv",
        "reshape": "<1x32x1x320x320>",
        "shape": [
          1,
          32,
          320,
          320
        ],
        "slice": "[0:1, 0:32, 0:1, 299:320, 0:320]",
        "type": "tensor<1x32x320x320xf16>"
      }
    ],
    "buffers": [
      {
        "address": 212992,
        "size": 29580
      }
    ]
  },
  {
    "file-line": 22,
    "subnet_id": 0,
    "core_id": 0,
    "opcode": "tpu.Cast",
    "is_local": true,
    "tiu_dma_id(before)": [
      475,
      32
    ],
    "tiu_dma_id(after)": [
      476,
      32
    ],
    "operands": [
      {
        "address": 196608,
        "layout": "eu_align",
        "memory_type": "<1x32x21x320xf16>",
        "name": "122_Conv",
        "reshape": "<1x32x1x320x320>",
        "shape": [
          1,
          32,
          320,
          320
        ],
        "slice": "[0:1, 0:32, 0:1, 299:320, 0:320]",
        "type": "tensor<1x32x320x320xf16>"
      }
    ],
    "results": [
      {
        "address": 128000,
        "layout": "eu_align",
        "memory_type": "<1x32x21x320xf32>",
        "name": "122_Conv124_Mul_f32",
        "reshape": "<1x32x1x320x320>",
        "shape": [
          1,
          32,
          320,
          320
        ],
        "slice": "[0:1, 0:32, 0:1, 299:320, 0:320]",
        "type": "tensor<1x32x320x320xf32>"
      }
    ],
    "buffers": []
  },
  {
    "file-line": 24,
    "subnet_id": 0,
    "core_id": 0,
    "opcode": "tpu.Active",
    "is_local": true,
    "tiu_dma_id(before)": [
      476,
      32
    ],
    "tiu_dma_id(after)": [
      493,
      32
    ],
    "operands": [
      {
        "address": 128000,
        "layout": "eu_align",
        "memory_type": "<1x32x21x320xf32>",
        "name": "122_Conv124_Mul_f32",
        "reshape": "<1x32x1x320x320>",
        "shape": [
          1,
          32,
          320,
          320
        ],
        "slice": "[0:1, 0:32, 0:1, 299:320, 0:320]",
        "type": "tensor<1x32x320x320xf32>"
      }
    ],
    "results": [
      {
        "address": 163840,
        "layout": "eu_align",
        "memory_type": "<1x32x21x320xf32>",
        "name": "124_Mul",
        "reshape": "<1x32x1x320x320>",
        "shape": [
          1,
          32,
          320,
          320
        ],
        "slice": "[0:1, 0:32, 0:1, 299:320, 0:320]",
        "type": "tensor<1x32x320x320xf32>"
      }
    ],
    "buffers": [
      {
        "address": 196608,
        "size": 59008
      }
    ]
  },
  {
    "file-line": 28,
    "subnet_id": 0,
    "core_id": 0,
    "opcode": "tpu.Store",
    "is_local": true,
    "tiu_dma_id(before)": [
      476,
      32
    ],
    "tiu_dma_id(after)": [
      476,
      33
    ],
    "operands": [
      {
        "address": 255616,
        "layout": "eu_align",
        "memory_type": "<1x64x10x160xf16>",
        "name": "125_Conv",
        "reshape": "<1x64x1x160x160>",
        "shape": [
          1,
          64,
          160,
          160
        ],
        "slice": "[0:1, 0:64, 0:1, 140:150, 0:160]",
        "type": "tensor<1x64x160x160xf16>"
      },
      {}
    ],
    "results": [
      {
        "address": 4314615552,
        "layout": "continuous",
        "memory_type": "<1x64x10x160xf16>",
        "name": "125_Conv",
        "reshape": "<1x64x1x160x160>",
        "shape": [
          1,
          64,
          160,
          160
        ],
        "slice": "[0:1, 0:64, 0:1, 140:150, 0:160]",
        "type": "tensor<1x64x160x160xf16, 4314570752 : i64>"
      }
    ],
    "buffers": []
  },
  {
    "file-line": 26,
    "subnet_id": 0,
    "core_id": 0,
    "opcode": "tpu.Cast",
    "is_local": true,
    "tiu_dma_id(before)": [
      493,
      33
    ],
    "tiu_dma_id(after)": [
      494,
      33
    ],
    "operands": [
      {
        "address": 163840,
        "layout": "eu_align",
        "memory_type": "<1x32x21x320xf32>",
        "name": "124_Mul",
        "reshape": "<1x32x1x320x320>",
        "shape": [
          1,
          32,
          320,
          320
        ],
        "slice": "[0:1, 0:32, 0:1, 299:320, 0:320]",
        "type": "tensor<1x32x320x320xf32>"
      }
    ],
    "results": [
      {
        "address": 128000,
        "layout": "eu_align",
        "memory_type": "<1x32x21x320xf16>",
        "name": "124_Mul125_Conv_f16",
        "reshape": "<1x32x1x320x320>",
        "shape": [
          1,
          32,
          320,
          320
        ],
        "slice": "[0:1, 0:32, 0:1, 299:320, 0:320]",
        "type": "tensor<1x32x320x320xf16>"
      }
    ],
    "buffers": []
  },
  {
    "file-line": 27,
    "subnet_id": 0,
    "core_id": 0,
    "opcode": "tpu.Conv2D",
    "is_local": true,
    "tiu_dma_id(before)": [
      494,
      33
    ],
    "tiu_dma_id(after)": [
      495,
      33
    ],
    "operands": [
      {
        "address": 128000,
        "layout": "eu_align",
        "memory_type": "<1x32x21x320xf16>",
        "name": "124_Mul125_Conv_f16",
        "reshape": "<1x32x1x320x320>",
        "shape": [
          1,
          32,
          320,
          320
        ],
        "slice": "[0:1, 0:32, 0:1, 299:320, 0:320]",
        "type": "tensor<1x32x320x320xf16>"
      },
…
        "layout": "eu_align",
        "memory_type": "<1x256x20x20xf16>",
        "name": "308_Mul309_Concat_f16",
        "reshape": "<1x256x1x20x20>",
        "shape": [
          1,
          256,
          20,
          20
        ],
        "slice": "[0:1, 0:256, 0:1, 0:20, 0:20]",
        "type": "tensor<1x256x20x20xf16>"
      },
      {
        "address": 252032,
        "layout": "eu_align",
        "memory_type": "<1x256x20x20xf16>",
        "name": "238_Mul243_Resize_f16",
        "reshape": "<1x256x1x20x20>",
        "shape": [
          1,
          256,
          20,
          20
        ],
        "slice": "[0:1, 0:256, 0:1, 0:20, 0:20]",
        "type": "tensor<1x256x20x20xf16>"
      }
    ],
    "results": [
      {
        "address": 44032,
        "layout": "eu_align",
        "memory_type": "<1x512x20x20xf16>",
        "name": "309_Concat",
        "reshape": "<1x512x1x20x20>",
        "shape": [
          1,
          512,
          20,
          20
        ],
        "slice": "[0:1, 0:512, 0:1, 0:20, 0:20]",
        "type": "tensor<1x512x20x20xf16>"
      }
    ],
    "buffers": []
  },
  {
    "file-line": 481,
    "subnet_id": 0,
    "core_id": 0,
    "opcode": "tpu.Conv2D",
    "is_local": true,
    "tiu_dma_id(before)": [
      1802,
      146
    ],
    "tiu_dma_id(after)": [
      1803,
      146
    ],
    "operands": [
      {
        "address": 44032,
        "layout": "eu_align",
        "memory_type": "<1x512x20x20xf16>",
        "name": "309_Concat",
        "reshape": "<1x512x1x20x20>",
        "shape": [
          1,
          512,
          20,
          20
        ],
        "slice": "[0:1, 0:512, 0:1, 0:20, 0:20]",
        "type": "tensor<1x512x20x20xf16>"
      },
      {
        "address": 65536,
        "layout": "compact",
        "memory_type": "<1x256x1x512xf16>",
        "name": "load_310_Conv_filter_reorderd",
        "reshape": "<1x256x1x1x512>",
        "shape": [
          1,
          256,
          1,
          512
        ],
        "slice": "[0:1, 0:256, 0:1, 0:1, 0:512]",
        "type": "tensor<1x256x1x512xf16>"
      },
      {
        "address": 114688,
        "layout": "compact",
        "memory_type": "<1x256x1x1xf32>",
        "name": "load_model.23.cv1.conv.bias",
        "reshape": "<1x256x1x1x1>",
        "shape": [
          1,
          256,
          1,
          1
        ],
        "slice": "[0:1, 0:256, 0:1, 0:1, 0:1]",
        "type": "tensor<1x256x1x1xf32>"
      }
    ],
    "results": [
      {
        "address": 81920,
        "layout": "eu_align",
        "memory_type": "<1x256x20x20xf16>",
        "name": "310_Conv",
        "reshape": "<1x256x1x20x20>",
        "shape": [
          1,
          256,
          20,
          20
        ],
        "slice": "[0:1, 0:256, 0:1, 0:20, 0:20]",
        "type": "tensor<1x256x20x20xf16>"
      }
    ],
    "buffers": []
  },
  {
    "file-line": 480,
    "subnet_id": 0,
    "core_id": 0,
    "opcode": "tpu.Load",
    "is_local": true,
    "tiu_dma_id(before)": [
      1802,
      146
    ],
    "tiu_dma_id(after)": [
      1802,
      147
    ],
    "operands": [
      {
        "address": 4307070976,
        "layout": "continuous",
        "memory_type": "<1x256x1x1xf32>",
        "name": "model.23.m.0.cv1.conv.bias",
        "reshape": "<1x256x1x1x1>",
        "shape": [
          1,
          256,
          1,
          1
        ],
        "slice": "[0:1, 0:256, 0:1, 0:1, 0:1]",
        "type": "tensor<1x256x1x1xf32, 4307070976 : i64>"
      }
    ],
    "results": [
      {
        "address": 98304,
        "layout": "compact",
        "memory_type": "<1x256x1x1xf32>",
        "name": "load_model.23.m.0.cv1.conv.bias",
        "reshape": "<1x256x1x1x1>",
        "shape": [
          1,
          256,
          1,
          1
        ],
        "slice": "[0:1, 0:256, 0:1, 0:1, 0:1]",
        "type": "tensor<1x256x1x1xf32>"
      }
    ],
    "buffers": []
  },
  {
    "file-line": 482,
    "subnet_id": 0,
    "core_id": 0,
    "opcode": "tpu.Cast",
    "is_local": true,
    "tiu_dma_id(before)": [
      1803,
      147
    ],
    "tiu_dma_id(after)": [
      1804,
      147
    ],
    "operands": [
      {
        "address": 81920,
        "layout": "eu_align",
        "memory_type": "<1x256x20x20xf16>",
        "name": "310_Conv",
        "reshape": "<1x256x1x20x20>",
        "shape": [
          1,
          256,
          20,
          20
        ],
        "slice": "[0:1, 0:256, 0:1, 0:20, 0:20]",
        "type": "tensor<1x256x20x20xf16>"
      }
    ],
    "results": [
      {
        "address": 50688,
        "layout": "eu_align",
        "memory_type": "<1x256x20x20xf32>",
        "name": "310_Conv312_Mul_f32",
        "reshape": "<1x256x1x20x20>",
        "shape": [
          1,
          256,
          20,
          20
        ],
        "slice": "[0:1, 0:256, 0:1, 0:20, 0:20]",
        "type": "tensor<1x256x20x20xf32>"
      }
    ],
    "buffers": []
  },
  {
    "file-line": 484,
    "subnet_id": 0,
    "core_id": 0,
    "opcode": "tpu.Active",
    "is_local": true,
    "tiu_dma_id(before)": [
      1804,
      147
    ],
    "tiu_dma_id(after)": [
      1821,
      147
    ],
    "operands": [
      {
        "address": 50688,
        "layout": "eu_align",
        "memory_type": "<1x256x20x20xf32>",
        "name": "310_Conv312_Mul_f32",
        "reshape": "<1x256x1x20x20>",
        "shape": [
          1,
          256,
          20,
          20
        ],
        "slice": "[0:1, 0:256, 0:1, 0:20, 0:20]",
        "type": "tensor<1x256x20x20xf32>"
      }
    ],
    "results": [
      {
        "address": 65536,
        "layout": "eu_align",
        "memory_type": "<1x256x20x20xf32>",
        "name": "312_Mul",
        "reshape": "<1x256x1x20x20>",
        "shape": [
          1,
          256,
          20,
          20
        ],
        "slice": "[0:1, 0:256, 0:1, 0:20, 0:20]",
        "type": "tensor<1x256x20x20xf32>"
      }
    ],
    "buffers": [
      {
        "address": 98368,
        "size": 12928
      }
    ]
  },
  {
    "file-line": 483,
    "subnet_id": 0,
    "core_id": 0,
    "opcode": "tpu.Load",
    "is_local": true,
    "tiu_dma_id(before)": [
      1804,
      147
    ],
    "tiu_dma_id(after)": [
      1804,
      148
    ],
    "operands": [
      {
        "address": 4307075072,
        "layout": "continuous",
        "memory_type": "<1x256x1x256xf16>",
        "name": "313_Conv_filter_reorderd",
        "reshape": "<1x256x1x1x256>",
        "shape": [
          1,
          256,
          1,
          256
        ],
        "slice": "[0:1, 0:256, 0:1, 0:1, 0:256]",
        "type": "tensor<1x256x1x256xf16, 4307075072 : i64>"
      }
    ],
    "results": [
      {
        "address": 81920,
        "layout": "compact",
        "memory_type": "<1x256x1x256xf16>",
        "name": "load_313_Conv_filter_reorderd",
        "reshape": "<1x256x1x1x256>",
        "shape": [
          1,
          256,
          1,
          256
        ],
        "slice": "[0:1, 0:256, 0:1, 0:1, 0:256]",
        "type": "tensor<1x256x1x256xf16>"
      }
    ],
    "buffers": []
  },
  {
    "file-line": 485,
    "subnet_id": 0,
    "core_id": 0,
    "opcode": "tpu.Cast",
    "is_local": true,
    "tiu_dma_id(before)": [
      1821,
      148
    ],
    "tiu_dma_id(after)": [
      1822,
      148
    ],
    "operands": [
      {
        "address": 65536,
        "layout": "eu_align",
        "memory_type": "<1x256x20x20xf32>",
        "name": "312_Mul",
        "reshape": "<1x256x1x20x20>",
        "shape": [
          1,
          256,
          20,
          20
        ],
        "slice": "[0:1, 0:256, 0:1, 0:20, 0:20]",
        "type": "tensor<1x256x20x20xf32>"
      }
    ],
    "results": [
      {
        "address": 50688,
        "layout": "eu_align",
        "memory_type": "<1x256x20x20xf16>",
        "name": "312_Mul313_Conv_f16",
        "reshape": "<1x256x1x20x20>",
        "shape": [
          1,
          256,
          20,
          20
        ],
        "slice": "[0:1, 0:256, 0:1, 0:20, 0:20]",
        "type": "tensor<1x256x20x20xf16>"
      }
    ],
    "buffers": []
  },
  {
    "file-line": 486,
    "subnet_id": 0,
    "core_id": 0,
    "opcode": "tpu.Conv2D",
    "is_local": true,
    "tiu_dma_id(before)": [
      1822,
      148
    ],
    "tiu_dma_id(after)": [
      1823,
      148
    ],
    "operands": [
      {
        "address": 50688,
        "layout": "eu_align",
        "memory_type": "<1x256x20x20xf16>",
        "name": "312_Mul313_Conv_f16",
        "reshape": "<1x256x1x20x20>",
        "shape": [
          1,
          256,
          20,
          20
        ],
        "slice": "[0:1, 0:256, 0:1, 0:20, 0:20]",
        "type": "tensor<1x256x20x20xf16>"
      },
      {
        "address": 81920,
        "layout": "compact",
        "memory_type": "<1x256x1x256xf16>",
        "name": "load_313_Conv_filter_reorderd",
        "reshape": "<1x256x1x1x256>",
        "shape": [
          1,
          256,
          1,
          256
        ],
        "slice": "[0:1, 0:256, 0:1, 0:1, 0:256]",
        "type": "tensor<1x256x1x256xf16>"
      },
      {
        "address": 98304,
        "layout": "compact",
        "memory_type": "<1x256x1x1xf32>",
        "name": "load_model.23.m.0.cv1.conv.bias",
        "reshape": "<1x256x1x1x1>",
        "shape": [
          1,
          256,
          1,
          1
        ],
        "slice": "[0:1, 0:256, 0:1, 0:1, 0:1]",
        "type": "tensor<1x256x1x1xf32>"
      }
    ],
    "results": [
      {
        "address": 65536,
        "layout": "eu_align",
        "memory_type": "<1x256x20x20xf16>",
        "name": "313_Conv",
        "reshape": "<1x256x1x20x20>",
        "shape": [
          1,
          256,
          20,
          20
        ],
        "slice": "[0:1, 0:256, 0:1, 0:20, 0:20]",
        "type": "tensor<1x256x20x20xf16>"
      }
    ],
    "buffers": []
  },
  {
    "file-line": 487,
    "subnet_id": 0,
    "core_id": 0,
    "opcode": "tpu.Cast",
    "is_local": true,
    "tiu_dma_id(before)": [
      1823,
      148
    ],
    "tiu_dma_id(after)": [
      1824,
      148
    ],
    "operands": [
      {
        "address": 65536,
        "layout": "eu_align",
        "memory_type": "<1x256x20x20xf16>",
        "name": "313_Conv",
        "reshape": "<1x256x1x20x20>",
        "shape": [
          1,
          256,
          20,
          20
        ],
        "slice": "[0:1, 0:256, 0:1, 0:20, 0:20]",
        "type": "tensor<1x256x20x20xf16>"
      }
    ],
    "results": [
      {
        "address": 50688,
        "layout": "eu_align",
        "memory_type": "<1x256x20x20xf32>",
        "name": "313_Conv315_Mul_f32",
        "reshape": "<1x256x1x20x20>",
        "shape": [
          1,
          256,
          20,
          20
        ],
        "slice": "[0:1, 0:256, 0:1, 0:20, 0:20]",
        "type": "tensor<1x256x20x20xf32>"
      }
    ],
    "buffers": []
  },
  {
    "file-line": 489,
    "subnet_id": 0,
    "core_id": 0,
    "opcode": "tpu.Active",
    "is_local": true,
    "tiu_dma_id(before)": [
      1824,
      148
    ],
    "tiu_dma_id(after)": [
      1841,
      148
    ],
    "operands": [
      {
        "address": 50688,
        "layout": "eu_align",
        "memory_type": "<1x256x20x20xf32>",
        "name": "313_Conv315_Mul_f32",
        "reshape": "<1x256x1x20x20>",
        "shape": [
          1,
          256,
          20,
          20
        ],
        "slice": "[0:1, 0:256, 0:1, 0:20, 0:20]",
        "type": "tensor<1x256x20x20xf32>"
      }
    ],
    "results": [
      {
        "address": 65536,
        "layout": "eu_align",
        "memory_type": "<1x256x20x20xf32>",
        "name": "315_Mul",
        "reshape": "<1x256x1x20x20>",
        "shape": [
          1,
          256,
          20,
          20
        ],
        "slice": "[0:1, 0:256, 0:1, 0:20, 0:20]",
        "type": "tensor<1x256x20x20xf32>"
      }
    ],
    "buffers": [
      {
        "address": 81920,
        "size": 12928
      }
    ]
  },
  {
    "file-line": 488,
    "subnet_id": 0,
    "core_id": 0,
    "opcode": "tpu.Load",
    "is_local": true,
    "tiu_dma_id(before)": [
      1824,
      148
    ],
    "tiu_dma_id(after)": [
      1824,
      149
    ],
    "operands": [
      {
        "address": 4307206144,
        "layout": "continuous",
        "memory_type": "<1x256x1x1xf32>",
        "name": "model.23.m.0.cv2.conv.bias",
        "reshape": "<1x256x1x1x1>",
        "shape": [
          1,
          256,
          1,
          1
        ],
        "slice": "[0:1, 0:256, 0:1, 0:1, 0:1]",
        "type": "tensor<1x256x1x1xf32, 4307206144 : i64>"
      }
    ],
    "results": [
      {
        "address": 114688,
        "layout": "compact",
        "memory_type": "<1x256x1x1xf32>",
        "name": "load_model.23.m.0.cv2.conv.bias",
        "reshape": "<1x256x1x1x1>",
        "shape": [
          1,
          256,
          1,
          1
        ],
        "slice": "[0:1, 0:256, 0:1, 0:1, 0:1]",
        "type": "tensor<1x256x1x1xf32>"
      }
    ],
    "buffers": []
  },
  {
    "file-line": 490,
    "subnet_id": 0,
    "core_id": 0,
    "opcode": "tpu.Cast",
    "is_local": true,
    "tiu_dma_id(before)": [
      1841,
      149
    ],
    "tiu_dma_id(after)": [
      1842,
      149
    ],
    "operands": [
      {
        "address": 65536,
        "layout": "eu_align",
        "memory_type": "<1x256x20x20xf32>",
        "name": "315_Mul",
        "reshape": "<1x256x1x20x20>",
        "shape": [
          1,
          256,
          20,
          20
        ],
        "slice": "[0:1, 0:256, 0:1, 0:20, 0:20]",
        "type": "tensor<1x256x20x20xf32>"
      }
    ],
    "results": [
      {
        "address": 50688,
        "layout": "eu_align",
        "memory_type": "<1x256x20x20xf16>",
        "name": "315_Mul316_Conv_f16",
        "reshape": "<1x256x1x20x20>",
        "shape": [
          1,
          256,
          20,
          20
        ],
        "slice": "[0:1, 0:256, 0:1, 0:20, 0:20]",
        "type": "tensor<1x256x20x20xf16>"
      }
    ],
    "buffers": []
  },
  {
    "file-line": 494,
    "subnet_id": 0,
    "core_id": 0,
    "opcode": "tpu.Conv2D",
    "is_local": true,
    "tiu_dma_id(before)": [
      1842,
      149
    ],
    "tiu_dma_id(after)": [
      1843,
      149
    ],
    "operands": [
      {
        "address": 50688,
        "layout": "eu_align",
        "memory_type": "<1x256x20x20xf16>",
        "name": "315_Mul316_Conv_f16",
        "reshape": "<1x256x1x20x20>",
        "shape": [
          1,
          256,
          20,
          20
        ],
        "slice": "[0:1, 0:256, 0:1, 0:20, 0:20]",
        "type": "tensor<1x256x20x20xf16>"
      },
      {
        "address": 25600,
        "layout": "compact",
        "memory_type": "<1x256x1x2304xf16>",
        "name": "load_316_Conv_filter_reorderd",
        "reshape": "<1x256x1x1x2304>",
        "shape": [
          1,
          256,
          1,
          2304
        ],
        "slice": "[0:1, 0:256, 0:1, 0:1, 0:2304]",
        "type": "tensor<1x256x1x2304xf16>"
      },
      {
        "address": 114688,
        "layout": "compact",
        "memory_type": "<1x256x1x1xf32>",
        "name": "load_model.23.m.0.cv2.conv.bias",
        "reshape": "<1x256x1x1x1>",
        "shape": [
          1,
          256,
          1,
          1
        ],
        "slice": "[0:1, 0:256, 0:1, 0:1, 0:1]",
        "type": "tensor<1x256x1x1xf32>"
      }
    ],
    "results": [
      {
        "address": 81920,
        "layout": "eu_align",
        "memory_type": "<1x256x20x20xf16>",
        "name": "316_Conv",
        "reshape": "<1x256x1x20x20>",
        "shape": [
          1,
          256,
          20,
          20
        ],
        "slice": "[0:1, 0:256, 0:1, 0:20, 0:20]",
        "type": "tensor<1x256x20x20xf16>"
      }
    ],
    "buffers": []
  },
  {
    "file-line": 491,
    "subnet_id": 0,
    "core_id": 0,
    "opcode": "tpu.Load",
    "is_local": true,
    "tiu_dma_id(before)": [
      1842,
      149
    ],
    "tiu_dma_id(after)": [
      1842,
      150
    ],
    "operands": [
      {
        "address": 4308389888,
        "layout": "continuous",
        "memory_type": "<1x256x1x1xf32>",
        "name": "model.23.cv2.conv.bias",
        "reshape": "<1x256x1x1x1>",
        "shape": [
          1,
          256,
          1,
          1
        ],
        "slice": "[0:1, 0:256, 0:1, 0:1, 0:1]",
        "type": "tensor<1x256x1x1xf32, 4308389888 : i64>"
      }
    ],
    "results": [
      {
        "address": 98368,
        "layout": "compact",
        "memory_type": "<1x256x1x1xf32>",
        "name": "load_model.23.cv2.conv.bias",
        "reshape": "<1x256x1x1x1>",
        "shape": [
          1,
          256,
          1,
          1
        ],
        "slice": "[0:1, 0:256, 0:1, 0:1, 0:1]",
        "type": "tensor<1x256x1x1xf32>"
      }
    ],
    "buffers": []
  },
  {
    "file-line": 492,
    "subnet_id": 0,
    "core_id": 0,
    "opcode": "tpu.Load",
    "is_local": true,
    "tiu_dma_id(before)": [
      1842,
      150
    ],
    "tiu_dma_id(after)": [
      1842,
      151
    ],
    "operands": [
      {
        "address": 4308656128,
        "layout": "continuous",
        "memory_type": "<1x512x1x1xf32>",
        "name": "model.23.cv3.conv.bias",
        "reshape": "<1x512x1x1x1>",
        "shape": [
          1,
          512,
          1,
          1
        ],
        "slice": "[0:1, 0:512, 0:1, 0:1, 0:1]",
        "type": "tensor<1x512x1x1xf32, 4308656128 : i64>"
      }
    ],
    "results": [
      {
        "address": 98304,
        "layout": "compact",
        "memory_type": "<1x512x1x1xf32>",
        "name": "load_model.23.cv3.conv.bias",
        "reshape": "<1x512x1x1x1>",
        "shape": [
          1,
          512,
          1,
          1
        ],
        "slice": "[0:1, 0:512, 0:1, 0:1, 0:1]",
        "type": "tensor<1x512x1x1xf32>"
      }
    ],
    "buffers": []
  },
  {
    "file-line": 493,
    "subnet_id": 0,
    "core_id": 0,
    "opcode": "tpu.Load",
    "is_local": true,
    "tiu_dma_id(before)": [
      1842,
      151
    ],
    "tiu_dma_id(after)": [
      1842,
      152
    ],
    "operands": [
      {
        "address": 4308660224,
        "layout": "continuous",
        "memory_type": "<1x512x1x512xf16>",
        "name": "323_Conv_filter_reorderd",
        "reshape": "<1x512x1x1x512>",
        "shape": [
          1,
          512,
          1,
          512
        ],
        "slice": "[0:1, 0:512, 0:1, 0:1, 0:512]",
        "type": "tensor<1x512x1x512xf16, 4308660224 : i64>"
      }
    ],
    "results": [
      {
        "address": 65536,
        "layout": "compact",
        "memory_type": "<1x512x1x512xf16>",
        "name": "load_323_Conv_filter_reorderd",
        "reshape": "<1x512x1x1x512>",
        "shape": [
          1,
          512,
          1,
          512
        ],
        "slice": "[0:1, 0:512, 0:1, 0:1, 0:512]",
        "type": "tensor<1x512x1x512xf16>"
      }
    ],
    "buffers": []
  },
  {
    "file-line": 495,
    "subnet_id": 0,
    "core_id": 0,
    "opcode": "tpu.Cast",
    "is_local": true,
    "tiu_dma_id(before)": [
      1843,
      152
    ],
    "tiu_dma_id(after)": [
      1844,
      152
    ],
    "operands": [
      {
        "address": 81920,
        "layout": "eu_align",
        "memory_type": "<1x256x20x20xf16>",
        "name": "316_Conv",
        "reshape": "<1x256x1x20x20>",
        "shape": [
          1,
          256,
          20,
          20
        ],
        "slice": "[0:1, 0:256, 0:1, 0:20, 0:20]",
        "type": "tensor<1x256x20x20xf16>"
      }
    ],
    "results": [
      {
        "address": 25600,
        "layout": "eu_align",
        "memory_type": "<1x256x20x20xf32>",
        "name": "316_Conv318_Mul_f32",
        "reshape": "<1x256x1x20x20>",
        "shape": [
          1,
          256,
          20,
          20
        ],
        "slice": "[0:1, 0:256, 0:1, 0:20, 0:20]",
        "type": "tensor<1x256x20x20xf32>"
      }
    ],
    "buffers": []
  },
  {
    "file-line": 497,
    "subnet_id": 0,
    "core_id": 0,
    "opcode": "tpu.Active",
    "is_local": true,
    "tiu_dma_id(before)": [
      1844,
      152
    ],
    "tiu_dma_id(after)": [
      1861,
      152
    ],
    "operands": [
      {
        "address": 25600,
        "layout": "eu_align",
        "memory_type": "<1x256x20x20xf32>",
        "name": "316_Conv318_Mul_f32",
        "reshape": "<1x256x1x20x20>",
        "shape": [
          1,
          256,
          20,
          20
        ],
        "slice": "[0:1, 0:256, 0:1, 0:20, 0:20]",
        "type": "tensor<1x256x20x20xf32>"
      }
    ],
    "results": [
      {
        "address": 32768,
        "layout": "eu_align",
        "memory_type": "<1x256x20x20xf32>",
        "name": "318_Mul",
        "reshape": "<1x256x1x20x20>",
        "shape": [
          1,
          256,
          20,
          20
        ],
        "slice": "[0:1, 0:256, 0:1, 0:20, 0:20]",
        "type": "tensor<1x256x20x20xf32>"
      }
    ],
    "buffers": [
      {
        "address": 50688,
        "size": 12928
      }
    ]
  },
  {
    "file-line": 496,
    "subnet_id": 0,
    "core_id": 0,
    "opcode": "tpu.Load",
    "is_local": true,
    "tiu_dma_id(before)": [
      1844,
      152
    ],
    "tiu_dma_id(after)": [
      1844,
      153
    ],
    "operands": [
      {
        "address": 4308393984,
        "layout": "continuous",
        "memory_type": "<1x256x1x512xf16>",
        "name": "319_Conv_filter_reorderd",
        "reshape": "<1x256x1x1x512>",
        "shape": [
          1,
          256,
          1,
          512
        ],
        "slice": "[0:1, 0:256, 0:1, 0:1, 0:512]",
        "type": "tensor<1x256x1x512xf16, 4308393984 : i64>"
      }
    ],
    "results": [
      {
        "address": 73728,
        "layout": "compact",
        "memory_type": "<1x256x1x512xf16>",
        "name": "load_319_Conv_filter_reorderd",
        "reshape": "<1x256x1x1x512>",
        "shape": [
          1,
          256,
          1,
          512
        ],
        "slice": "[0:1, 0:256, 0:1, 0:1, 0:512]",
        "type": "tensor<1x256x1x512xf16>"
      }
    ],
    "buffers": []
  },
  {
    "file-line": 498,
    "subnet_id": 0,
    "core_id": 0,
    "opcode": "tpu.Cast",
    "is_local": true,
    "tiu_dma_id(before)": [
      1861,
      153
    ],
    "tiu_dma_id(after)": [
      1862,
      153
    ],
    "operands": [
      {
        "address": 32768,
        "layout": "eu_align",
        "memory_type": "<1x256x20x20xf32>",
        "name": "318_Mul",
        "reshape": "<1x256x1x20x20>",
        "shape": [
          1,
          256,
          20,
          20
        ],
        "slice": "[0:1, 0:256, 0:1, 0:20, 0:20]",
        "type": "tensor<1x256x20x20xf32>"
      }
    ],
    "results": [
      {
        "address": 25600,
        "layout": "eu_align",
        "memory_type": "<1x256x20x20xf16>",
        "name": "318_Mul322_Concat_f16",
        "reshape": "<1x256x1x20x20>",
        "shape": [
          1,
          256,
          20,
          20
        ],
        "slice": "[0:1, 0:256, 0:1, 0:20, 0:20]",
        "type": "tensor<1x256x20x20xf16>"
      }
    ],
    "buffers": []
  },
  {
    "file-line": 499,
    "subnet_id": 0,
    "core_id": 0,
    "opcode": "tpu.Conv2D",
    "is_local": true,
    "tiu_dma_id(before)": [
      1862,
      153
    ],
    "tiu_dma_id(after)": [
      1863,
      153
    ],
    "operands": [
      {
        "address": 44032,
        "layout": "eu_align",
        "memory_type": "<1x512x20x20xf16>",
        "name": "309_Concat",
        "reshape": "<1x512x1x20x20>",
        "shape": [
          1,
          512,
          20,
          20
        ],
        "slice": "[0:1, 0:512, 0:1, 0:20, 0:20]",
        "type": "tensor<1x512x20x20xf16>"
      },
      {
        "address": 73728,
        "layout": "compact",
        "memory_type": "<1x256x1x512xf16>",
        "name": "load_319_Conv_filter_reorderd",
        "reshape": "<1x256x1x1x512>",
        "shape": [
          1,
          256,
          1,
          512
        ],
        "slice": "[0:1, 0:256, 0:1, 0:1, 0:512]",
        "type": "tensor<1x256x1x512xf16>"
      },
      {
        "address": 98368,
        "layout": "compact",
        "memory_type": "<1x256x1x1xf32>",
        "name": "load_model.23.cv2.conv.bias",
        "reshape": "<1x256x1x1x1>",
        "shape": [
          1,
          256,
          1,
          1
        ],
        "slice": "[0:1, 0:256, 0:1, 0:1, 0:1]",
        "type": "tensor<1x256x1x1xf32>"
      }
    ],
    "results": [
      {
        "address": 81920,
        "layout": "eu_align",
        "memory_type": "<1x256x20x20xf16>",
        "name": "319_Conv",
        "reshape": "<1x256x1x20x20>",
        "shape": [
          1,
          256,
          20,
          20
        ],
        "slice": "[0:1, 0:256, 0:1, 0:20, 0:20]",
        "type": "tensor<1x256x20x20xf16>"
      }
    ],
    "buffers": []
  },
  {
    "file-line": 500,
    "subnet_id": 0,
    "core_id": 0,
    "opcode": "tpu.Cast",
    "is_local": true,
    "tiu_dma_id(before)": [
      1863,
      153
    ],
    "tiu_dma_id(after)": [
      1864,
      153
    ],
    "operands": [
      {
        "address": 81920,
        "layout": "eu_align",
        "memory_type": "<1x256x20x20xf16>",
        "name": "319_Conv",
        "reshape": "<1x256x1x20x20>",
        "shape": [
          1,
          256,
          20,
          20
        ],
        "slice": "[0:1, 0:256, 0:1, 0:20, 0:20]",
        "type": "tensor<1x256x20x20xf16>"
      }
    ],
    "results": [
      {
        "address": 28928,
        "layout": "eu_align",
        "memory_type": "<1x256x20x20xf32>",
        "name": "319_Conv321_Mul_f32",
        "reshape": "<1x256x1x20x20>",
        "shape": [
          1,
          256,
          20,
          20
        ],
        "slice": "[0:1, 0:256, 0:1, 0:20, 0:20]",
        "type": "tensor<1x256x20x20xf32>"
      }
    ],
    "buffers": []
  },
  {
    "file-line": 501,
    "subnet_id": 0,
    "core_id": 0,
    "opcode": "tpu.Active",
    "is_local": true,
    "tiu_dma_id(before)": [
      1864,
      153
    ],
    "tiu_dma_id(after)": [
      1881,
      153
    ],
    "operands": [
      {
        "address": 28928,
        "layout": "eu_align",
        "memory_type": "<1x256x20x20xf32>",
        "name": "319_Conv321_Mul_f32",
        "reshape": "<1x256x1x20x20>",
        "shape": [
          1,
          256,
          20,
          20
        ],
        "slice": "[0:1, 0:256, 0:1, 0:20, 0:20]",
        "type": "tensor<1x256x20x20xf32>"
      }
    ],
    "results": [
      {
        "address": 49152,
        "layout": "eu_align",
        "memory_type": "<1x256x20x20xf32>",
        "name": "321_Mul",
        "reshape": "<1x256x1x20x20>",
        "shape": [
          1,
          256,
          20,
          20
        ],
        "slice": "[0:1, 0:256, 0:1, 0:20, 0:20]",
        "type": "tensor<1x256x20x20xf32>"
      }
    ],
    "buffers": [
      {
        "address": 73728,
        "size": 12928
      }
    ]
  },
  {
    "file-line": 502,
    "subnet_id": 0,
    "core_id": 0,
    "opcode": "tpu.Cast",
    "is_local": true,
    "tiu_dma_id(before)": [
      1881,
      153
    ],
    "tiu_dma_id(after)": [
      1882,
      153
    ],
    "operands": [
      {
        "address": 49152,
        "layout": "eu_align",
        "memory_type": "<1x256x20x20xf32>",
        "name": "321_Mul",
        "reshape": "<1x256x1x20x20>",
        "shape": [
          1,
          256,
          20,
          20
        ],
        "slice": "[0:1, 0:256, 0:1, 0:20, 0:20]",
        "type": "tensor<1x256x20x20xf32>"
      }
    ],
    "results": [
      {
        "address": 73728,
        "layout": "eu_align",
        "memory_type": "<1x256x20x20xf16>",
        "name": "321_Mul322_Concat_f16",
        "reshape": "<1x256x1x20x20>",
        "shape": [
          1,
          256,
          20,
          20
        ],
        "slice": "[0:1, 0:256, 0:1, 0:20, 0:20]",
        "type": "tensor<1x256x20x20xf16>"
      }
    ],
    "buffers": []
  },
  {
    "file-line": 503,
    "subnet_id": 0,
    "core_id": 0,
    "opcode": "tpu.Concat",
    "is_local": true,
    "tiu_dma_id(before)": [
      1882,
      153
    ],
    "tiu_dma_id(after)": [
      1884,
      153
    ],
    "operands": [
      {
        "address": 25600,
        "layout": "eu_align",
        "memory_type": "<1x256x20x20xf16>",
        "name": "318_Mul322_Concat_f16",
        "reshape": "<1x256x1x20x20>",
        "shape": [
          1,
          256,
          20,
          20
        ],
        "slice": "[0:1, 0:256, 0:1, 0:20, 0:20]",
        "type": "tensor<1x256x20x20xf16>"
      },
      {
        "address": 73728,
        "layout": "eu_align",
        "memory_type": "<1x256x20x20xf16>",
        "name": "321_Mul322_Concat_f16",
        "reshape": "<1x256x1x20x20>",
        "shape": [
          1,
          256,
          20,
          20
        ],
        "slice": "[0:1, 0:256, 0:1, 0:20, 0:20]",
        "type": "tensor<1x256x20x20xf16>"
      }
    ],
    "results": [
      {
        "address": 32768,
        "layout": "eu_align",
        "memory_type": "<1x512x20x20xf16>",
        "name": "322_Concat",
        "reshape": "<1x512x1x20x20>",
        "shape": [
          1,
          512,
          20,
          20
        ],
        "slice": "[0:1, 0:512, 0:1, 0:20, 0:20]",
        "type": "tensor<1x512x20x20xf16>"
      }
    ],
    "buffers": []
  },
  {
    "file-line": 504,
    "subnet_id": 0,
    "core_id": 0,
    "opcode": "tpu.Conv2D",
    "is_local": true,
    "tiu_dma_id(before)": [
      1884,
      153
    ],
    "tiu_dma_id(after)": [
      1885,
      153
    ],
    "operands": [
      {
        "address": 32768,
        "layout": "eu_align",
        "memory_type": "<1x512x20x20xf16>",
        "name": "322_Concat",
        "reshape": "<1x512x1x20x20>",
        "shape": [
          1,
          512,
          20,
          20
        ],
        "slice": "[0:1, 0:512, 0:1, 0:20, 0:20]",
        "type": "tensor<1x512x20x20xf16>"
      },
      {
        "address": 65536,
        "layout": "compact",
        "memory_type": "<1x512x1x512xf16>",
        "name": "load_323_Conv_filter_reorderd",
        "reshape": "<1x512x1x1x512>",
        "shape": [
          1,
          512,
          1,
          512
        ],
        "slice": "[0:1, 0:512, 0:1, 0:1, 0:512]",
        "type": "tensor<1x512x1x512xf16>"
      },
      {
        "address": 98304,
        "layout": "compact",
        "memory_type": "<1x512x1x1xf32>",
        "name": "load_model.23.cv3.conv.bias",
        "reshape": "<1x512x1x1x1>",
        "shape": [
          1,
          512,
          1,
          1
        ],
        "slice": "[0:1, 0:512, 0:1, 0:1, 0:1]",
        "type": "tensor<1x512x1x1xf32>"
      }
    ],
    "results": [
      {
        "address": 49152,
        "layout": "eu_align",
        "memory_type": "<1x512x20x20xf16>",
        "name": "323_Conv",
        "reshape": "<1x512x1x20x20>",
        "shape": [
          1,
          512,
          20,
          20
        ],
        "slice": "[0:1, 0:512, 0:1, 0:20, 0:20]",
        "type": "tensor<1x512x20x20xf16>"
      }
    ],
    "buffers": []
  },
  {
    "file-line": 505,
    "subnet_id": 0,
    "core_id": 0,
    "opcode": "tpu.Cast",
    "is_local": true,
    "tiu_dma_id(before)": [
      1885,
      153
    ],
    "tiu_dma_id(after)": [
      1886,
      153
    ],
    "operands": [
      {
        "address": 49152,
        "layout": "eu_align",
        "memory_type": "<1x512x20x20xf16>",
        "name": "323_Conv",
        "reshape": "<1x512x1x20x20>",
        "shape": [
          1,
          512,
          20,
          20
        ],
        "slice": "[0:1, 0:512, 0:1, 0:20, 0:20]",
        "type": "tensor<1x512x20x20xf16>"
      }
    ],
    "results": [
      {
        "address": 25600,
        "layout": "eu_align",
        "memory_type": "<1x512x20x20xf32>",
        "name": "323_Conv325_Mul_f32",
        "reshape": "<1x512x1x20x20>",
        "shape": [
          1,
          512,
          20,
          20
        ],
        "slice": "[0:1, 0:512, 0:1, 0:20, 0:20]",
        "type": "tensor<1x512x20x20xf32>"
      }
    ],
    "buffers": []
  },
  {
    "file-line": 506,
    "subnet_id": 0,
    "core_id": 0,
    "opcode": "tpu.Active",
    "is_local": true,
    "tiu_dma_id(before)": [
      1886,
      153
    ],
    "tiu_dma_id(after)": [
      1903,
      153
    ],
    "operands": [
      {
        "address": 25600,
        "layout": "eu_align",
        "memory_type": "<1x512x20x20xf32>",
        "name": "323_Conv325_Mul_f32",
        "reshape": "<1x512x1x20x20>",
        "shape": [
          1,
          512,
          20,
          20
        ],
        "slice": "[0:1, 0:512, 0:1, 0:20, 0:20]",
        "type": "tensor<1x512x20x20xf32>"
      }
    ],
    "results": [
      {
        "address": 49152,
        "layout": "eu_align",
        "memory_type": "<1x512x20x20xf32>",
        "name": "325_Mul",
        "reshape": "<1x512x1x20x20>",
        "shape": [
          1,
          512,
          20,
          20
        ],
        "slice": "[0:1, 0:512, 0:1, 0:20, 0:20]",
        "type": "tensor<1x512x20x20xf32>"
      }
    ],
    "buffers": [
      {
        "address": 65536,
        "size": 25728
      }
    ]
  },
  {
    "file-line": 507,
    "subnet_id": 0,
    "core_id": 0,
    "opcode": "tpu.Cast",
    "is_local": true,
    "tiu_dma_id(before)": [
      1903,
      153
    ],
    "tiu_dma_id(after)": [
      1904,
      153
    ],
    "operands": [
      {
        "address": 49152,
        "layout": "eu_align",
        "memory_type": "<1x512x20x20xf32>",
        "name": "325_Mul",
        "reshape": "<1x512x1x20x20>",
        "shape": [
          1,
          512,
          20,
          20
        ],
        "slice": "[0:1, 0:512, 0:1, 0:20, 0:20]",
        "type": "tensor<1x512x20x20xf32>"
      }
    ],
    "results": [
      {
        "address": 245760,
        "layout": "eu_align",
        "memory_type": "<1x512x20x20xf16>",
        "name": "325_Mul622_Conv_f16",
        "reshape": "<1x512x1x20x20>",
        "shape": [
          1,
          512,
          20,
          20
        ],
        "slice": "[0:1, 0:512, 0:1, 0:20, 0:20]",
        "type": "tensor<1x512x20x20xf16>"
      }
    ],
    "buffers": []
  },
  {
    "file-line": 508,
    "subnet_id": 0,
    "core_id": 0,
    "opcode": "tpu.Store",
    "is_local": true,
    "tiu_dma_id(before)": [
      1904,
      153
    ],
    "tiu_dma_id(after)": [
      1904,
      154
    ],
    "operands": [
      {
        "address": 245760,
        "layout": "eu_align",
        "memory_type": "<1x512x20x20xf16>",
        "name": "325_Mul622_Conv_f16",
        "reshape": "<1x512x1x20x20>",
        "shape": [
          1,
          512,
          20,
          20
        ],
        "slice": "[0:1, 0:512, 0:1, 0:20, 0:20]",
        "type": "tensor<1x512x20x20xf16>"
      },
      {}
    ],
    "results": [
      {
        "address": 4318654464,
        "layout": "continuous",
        "memory_type": "<1x512x20x20xf16>",
        "name": "325_Mul622_Conv_f16",
        "reshape": "<1x512x1x20x20>",
        "shape": [
          1,
          512,
          20,
          20
        ],
        "slice": "[0:1, 0:512, 0:1, 0:20, 0:20]",
        "type": "tensor<1x512x20x20xf16, 4318654464 : i64>"
      }
    ],
    "buffers": []
  },
  {
    "file-line": 513,
    "subnet_id": 0,
    "core_id": 0,
    "opcode": "tpu.Conv2D",
    "is_local": false,
    "tiu_dma_id(before)": [
      1904,
      154
    ],
    "tiu_dma_id(after)": [
      1908,
      167
    ],
    "operands": [
      {
        "address": 4314570752,
        "layout": "continuous",
        "memory_type": "<1x128x80x80xf16>",
        "name": "285_Mul286_Conv_f16",
        "reshape": "",
        "shape": [
          1,
          128,
          80,
          80
        ],
        "slice": "[...]",
        "type": "tensor<1x128x80x80xf16, 4314570752 : i64>"
      },
      {
        "address": 4309188608,
        "layout": "continuous",
        "memory_type": "<1x255x1x128xf16>",
        "name": "326_Conv_filter_reorderd",
        "reshape": "",
        "shape": [
          1,
          255,
          1,
          128
        ],
        "slice": "[...]",
        "type": "tensor<1x255x1x128xf16, 4309188608 : i64>"
      },
      {
        "address": 4309184512,
        "layout": "continuous",
        "memory_type": "<1x255x1x1xf32>",
        "name": "model.24.m.0.bias",
        "reshape": "",
        "shape": [
          1,
          255,
          1,
          1
        ],
        "slice": "[...]",
        "type": "tensor<1x255x1x1xf32, 4309184512 : i64>"
      }
    ],
    "results": [
      {
        "address": 4319064064,
        "layout": "continuous",
        "memory_type": "<1x255x80x80xf16>",
        "name": "326_Conv",
        "reshape": "",
        "shape": [
          1,
          255,
          80,
          80
        ],
        "slice": "[...]",
        "type": "tensor<1x255x80x80xf16, 4319064064 : i64>"
      }
    ],
    "buffers": []
  },
  {
    "file-line": 514,
    "subnet_id": 0,
    "core_id": 0,
    "opcode": "tpu.Reshape",
    "is_local": false,
    "tiu_dma_id(before)": [
      1908,
      167
    ],
    "tiu_dma_id(after)": [
      1908,
      167
    ],
    "operands": [
      {
        "address": 4319064064,
        "layout": "continuous",
        "memory_type": "<1x255x80x80xf16>",
        "name": "326_Conv",
        "reshape": "",
        "shape": [
          1,
          255,
          80,
          80
        ],
        "slice": "[...]",
        "type": "tensor<1x255x80x80xf16, 4319064064 : i64>"
      }
    ],
    "results": [
      {
        "address": 4319064064,
        "layout": "continuous",
        "memory_type": "<1x3x85x80x80xf16>",
        "name": "349_Reshape",
        "reshape": "",
        "shape": [
          1,
          3,
          85,
          80,
          80
        ],
        "slice": "[...]",
        "type": "tensor<1x3x85x80x80xf16, 4319064064 : i64>"
      }
    ],
    "buffers": []
  },
  {
    "file-line": 515,
    "subnet_id": 0,
    "core_id": 0,
    "opcode": "tpu.Permute",
    "is_local": false,
    "tiu_dma_id(before)": [
      1908,
      167
    ],
    "tiu_dma_id(after)": [
      1909,
      169
    ],
    "operands": [
      {
        "address": 4319064064,
        "layout": "continuous",
        "memory_type": "<1x3x85x80x80xf16>",
        "name": "349_Reshape",
        "reshape": "",
        "shape": [
          1,
          3,
          85,
          80,
          80
        ],
        "slice": "[...]",
        "type": "tensor<1x3x85x80x80xf16, 4319064064 : i64>"
      },
      {}
    ],
    "results": [
      {
        "address": 4314570752,
        "layout": "continuous",
        "memory_type": "<1x3x80x80x85xf16>",
        "name": "350_Transpose",
        "reshape": "",
        "shape": [
          1,
          3,
          80,
          80,
          85
        ],
        "slice": "[...]",
        "type": "tensor<1x3x80x80x85xf16, 4314570752 : i64>"
      }
    ],
    "buffers": []
  },
  {
    "file-line": 516,
    "subnet_id": 0,
    "core_id": 0,
    "opcode": "tpu.Cast",
    "is_local": false,
    "tiu_dma_id(before)": [
      1909,
      169
    ],
    "tiu_dma_id(after)": [
      1912,
      175
    ],
    "operands": [
      {
        "address": 4314570752,
        "layout": "continuous",
        "memory_type": "<1x3x80x80x85xf16>",
        "name": "350_Transpose",
        "reshape": "",
        "shape": [
          1,
          3,
          80,
          80,
          85
        ],
        "slice": "[...]",
        "type": "tensor<1x3x80x80x85xf16, 4314570752 : i64>"
      }
    ],
    "results": [
      {
        "address": 4319064064,
        "layout": "continuous",
        "memory_type": "<1x3x80x80x85xf32>",
        "name": "350_Transpose_f32",
        "reshape": "",
        "shape": [
          1,
          3,
          80,
          80,
          85
        ],
        "slice": "[...]",
        "type": "tensor<1x3x80x80x85xf32, 4319064064 : i64>"
      }
    ],
    "buffers": []
  },
  {
    "file-line": 519,
    "subnet_id": 0,
    "core_id": 0,
    "opcode": "tpu.Conv2D",
    "is_local": false,
    "tiu_dma_id(before)": [
      1912,
      175
    ],
    "tiu_dma_id(after)": [
      1916,
      188
    ],
    "operands": [
      {
        "address": 4317835264,
        "layout": "continuous",
        "memory_type": "<1x256x40x40xf16>",
        "name": "305_Mul306_Conv_f16",
        "reshape": "",
        "shape": [
          1,
          256,
          40,
          40
        ],
        "slice": "[...]",
        "type": "tensor<1x256x40x40xf16, 4317835264 : i64>"
      },
      {
        "address": 4309258240,
        "layout": "continuous",
        "memory_type": "<1x255x1x256xf16>",
        "name": "474_Conv_filter_reorderd",
        "reshape": "",
        "shape": [
          1,
          255,
          1,
          256
        ],
        "slice": "[...]",
        "type": "tensor<1x255x1x256xf16, 4309258240 : i64>"
      },
      {
        "address": 4309254144,
        "layout": "continuous",
        "memory_type": "<1x255x1x1xf32>",
        "name": "model.24.m.1.bias",
        "reshape": "",
        "shape": [
          1,
          255,
          1,
          1
        ],
        "slice": "[...]",
        "type": "tensor<1x255x1x1xf32, 4309254144 : i64>"
      }
    ],
    "results": [
      {
        "address": 4314570752,
        "layout": "continuous",
        "memory_type": "<1x255x40x40xf16>",
        "name": "474_Conv",
        "reshape": "",
        "shape": [
          1,
          255,
          40,
          40
        ],
        "slice": "[...]",
        "type": "tensor<1x255x40x40xf16, 4314570752 : i64>"
      }
    ],
    "buffers": []
  },
  {
    "file-line": 520,
    "subnet_id": 0,
    "core_id": 0,
    "opcode": "tpu.Reshape",
    "is_local": false,
    "tiu_dma_id(before)": [
      1916,
      188
    ],
    "tiu_dma_id(after)": [
      1916,
      188
    ],
    "operands": [
      {
        "address": 4314570752,
        "layout": "continuous",
        "memory_type": "<1x255x40x40xf16>",
        "name": "474_Conv",
        "reshape": "",
        "shape": [
          1,
          255,
          40,
          40
        ],
        "slice": "[...]",
        "type": "tensor<1x255x40x40xf16, 4314570752 : i64>"
      }
    ],
    "results": [
      {
        "address": 4314570752,
        "layout": "continuous",
        "memory_type": "<1x3x85x40x40xf16>",
        "name": "497_Reshape",
        "reshape": "",
        "shape": [
          1,
          3,
          85,
          40,
          40
        ],
        "slice": "[...]",
        "type": "tensor<1x3x85x40x40xf16, 4314570752 : i64>"
      }
    ],
    "buffers": []
  },
  {
    "file-line": 521,
    "subnet_id": 0,
    "core_id": 0,
    "opcode": "tpu.Permute",
    "is_local": false,
    "tiu_dma_id(before)": [
      1916,
      188
    ],
    "tiu_dma_id(after)": [
      1917,
      190
    ],
    "operands": [
      {
        "address": 4314570752,
        "layout": "continuous",
        "memory_type": "<1x3x85x40x40xf16>",
        "name": "497_Reshape",
        "reshape": "",
        "shape": [
          1,
          3,
          85,
          40,
          40
        ],
        "slice": "[...]",
        "type": "tensor<1x3x85x40x40xf16, 4314570752 : i64>"
      },
      {}
    ],
    "results": [
      {
        "address": 4315389952,
        "layout": "continuous",
        "memory_type": "<1x3x40x40x85xf16>",
        "name": "498_Transpose",
        "reshape": "",
        "shape": [
          1,
          3,
          40,
          40,
          85
        ],
        "slice": "[...]",
        "type": "tensor<1x3x40x40x85xf16, 4315389952 : i64>"
      }
    ],
    "buffers": []
  },
  {
    "file-line": 522,
    "subnet_id": 0,
    "core_id": 0,
    "opcode": "tpu.Cast",
    "is_local": false,
    "tiu_dma_id(before)": [
      1917,
      190
    ],
    "tiu_dma_id(after)": [
      1920,
      196
    ],
    "operands": [
      {
        "address": 4315389952,
        "layout": "continuous",
        "memory_type": "<1x3x40x40x85xf16>",
        "name": "498_Transpose",
        "reshape": "",
        "shape": [
          1,
          3,
          40,
          40,
          85
        ],
        "slice": "[...]",
        "type": "tensor<1x3x40x40x85xf16, 4315389952 : i64>"
      }
    ],
    "results": [
      {
        "address": 4316209152,
        "layout": "continuous",
        "memory_type": "<1x3x40x40x85xf32>",
        "name": "498_Transpose_f32",
        "reshape": "",
        "shape": [
          1,
          3,
          40,
          40,
          85
        ],
        "slice": "[...]",
        "type": "tensor<1x3x40x40x85xf32, 4316209152 : i64>"
      }
    ],
    "buffers": []
  },
  {
    "file-line": 525,
    "subnet_id": 0,
    "core_id": 0,
    "opcode": "tpu.Conv2D",
    "is_local": false,
    "tiu_dma_id(before)": [
      1920,
      196
    ],
    "tiu_dma_id(after)": [
      1924,
      209
    ],
    "operands": [
      {
        "address": 4318654464,
        "layout": "continuous",
        "memory_type": "<1x512x20x20xf16>",
        "name": "325_Mul622_Conv_f16",
        "reshape": "",
        "shape": [
          1,
          512,
          20,
          20
        ],
        "slice": "[...]",
        "type": "tensor<1x512x20x20xf16, 4318654464 : i64>"
      },
      {
        "address": 4309393408,
        "layout": "continuous",
        "memory_type": "<1x255x1x512xf16>",
        "name": "622_Conv_filter_reorderd",
        "reshape": "",
        "shape": [
          1,
          255,
          1,
          512
        ],
        "slice": "[...]",
        "type": "tensor<1x255x1x512xf16, 4309393408 : i64>"
      },
      {
        "address": 4309389312,
        "layout": "continuous",
        "memory_type": "<1x255x1x1xf32>",
        "name": "model.24.m.2.bias",
        "reshape": "",
        "shape": [
          1,
          255,
          1,
          1
        ],
        "slice": "[...]",
        "type": "tensor<1x255x1x1xf32, 4309389312 : i64>"
      }
    ],
    "results": [
      {
        "address": 4314570752,
        "layout": "continuous",
        "memory_type": "<1x255x20x20xf16>",
        "name": "622_Conv",
        "reshape": "",
        "shape": [
          1,
          255,
          20,
          20
        ],
        "slice": "[...]",
        "type": "tensor<1x255x20x20xf16, 4314570752 : i64>"
      }
    ],
    "buffers": []
  },
  {
    "file-line": 526,
    "subnet_id": 0,
    "core_id": 0,
    "opcode": "tpu.Reshape",
    "is_local": false,
    "tiu_dma_id(before)": [
      1924,
      209
    ],
    "tiu_dma_id(after)": [
      1924,
      209
    ],
    "operands": [
      {
        "address": 4314570752,
        "layout": "continuous",
        "memory_type": "<1x255x20x20xf16>",
        "name": "622_Conv",
        "reshape": "",
        "shape": [
          1,
          255,
          20,
          20
        ],
        "slice": "[...]",
        "type": "tensor<1x255x20x20xf16, 4314570752 : i64>"
      }
    ],
    "results": [
      {
        "address": 4314570752,
        "layout": "continuous",
        "memory_type": "<1x3x85x20x20xf16>",
        "name": "645_Reshape",
        "reshape": "",
        "shape": [
          1,
          3,
          85,
          20,
          20
        ],
        "slice": "[...]",
        "type": "tensor<1x3x85x20x20xf16, 4314570752 : i64>"
      }
    ],
    "buffers": []
  },
  {
    "file-line": 527,
    "subnet_id": 0,
    "core_id": 0,
    "opcode": "tpu.Permute",
    "is_local": false,
    "tiu_dma_id(before)": [
      1924,
      209
    ],
    "tiu_dma_id(after)": [
      1925,
      211
    ],
    "operands": [
      {
        "address": 4314570752,
        "layout": "continuous",
        "memory_type": "<1x3x85x20x20xf16>",
        "name": "645_Reshape",
        "reshape": "",
        "shape": [
          1,
          3,
          85,
          20,
          20
        ],
        "slice": "[...]",
        "type": "tensor<1x3x85x20x20xf16, 4314570752 : i64>"
      },
      {}
    ],
    "results": [
      {
        "address": 4314775552,
        "layout": "continuous",
        "memory_type": "<1x3x20x20x85xf16>",
        "name": "646_Transpose",
        "reshape": "",
        "shape": [
          1,
          3,
          20,
          20,
          85
        ],
        "slice": "[...]",
        "type": "tensor<1x3x20x20x85xf16, 4314775552 : i64>"
      }
    ],
    "buffers": []
  },
  {
    "file-line": 528,
    "subnet_id": 0,
    "core_id": 0,
    "opcode": "tpu.Cast",
    "is_local": false,
    "tiu_dma_id(before)": [
      1925,
      211
    ],
    "tiu_dma_id(after)": [
      1928,
      217
    ],
    "operands": [
      {
        "address": 4314775552,
        "layout": "continuous",
        "memory_type": "<1x3x20x20x85xf16>",
        "name": "646_Transpose",
        "reshape": "",
        "shape": [
          1,
          3,
          20,
          20,
          85
        ],
        "slice": "[...]",
        "type": "tensor<1x3x20x20x85xf16, 4314775552 : i64>"
      }
    ],
    "results": [
      {
        "address": 4314980352,
        "layout": "continuous",
        "memory_type": "<1x3x20x20x85xf32>",
        "name": "646_Transpose_f32",
        "reshape": "",
        "shape": [
          1,
          3,
          20,
          20,
          85
        ],
        "slice": "[...]",
        "type": "tensor<1x3x20x20x85xf32, 4314980352 : i64>"
      }
    ],
    "buffers": []
  }
]