#loc = loc(unknown)
module @yolov5s attributes {module.FLOPs = 16683511600 : i64, module.addr_mode = "basic", module.asymmetric = false, module.chip = "bm1684x", module.cores = 1 : i64, module.devices = 1 : i64, module.high_precision = false, module.mode = "INT8", module.platform = "ONNX", module.q_group_size = 0 : i64, module.state = "TPU_LOWERED", module.top_run_mode = "STATIC", module.weight_file = "yolov5s_tpu_lowered_bm1684x_int8_sym_weight.npz"} {
  func.func @main(%arg0: tensor<1x3x640x640xf32> loc(unknown)) -> (tensor<1x3x80x80x85xf32>, tensor<1x3x40x40x85xf32>, tensor<1x3x20x20x85xf32>) {
    %0 = "top.None"() : () -> none loc(#loc)
    %1 = "top.Input"(%arg0) {channel_format = "nchw", do_preprocess = true, keep_aspect_ratio = true, keep_ratio_mode = "letterbox", mean = [0.000000e+00, 0.000000e+00, 0.000000e+00], pad_type = "center", pad_value = 0 : i64, pixel_format = "rgb", resize_dims = [640, 640], scale = [0.0039216000586748123, 0.0039216000586748123, 0.0039216000586748123]} : (tensor<1x3x640x640xf32>) -> tensor<1x3x640x640x!quant.calibrated<f32<0.000000e+00:1.000008>>> loc(#loc1)
    %2 = "tpu.Cast"(%1) {round_mode = #tpu<round_mode HalfAwayFromZero>, with_scale = true} : (tensor<1x3x640x640x!quant.calibrated<f32<0.000000e+00:1.000008>>>) -> tensor<1x3x640x640x!quant.uniform<u8:f32, 3.921600e-03>> loc(#loc2)
    %3 = "top.Weight"() : () -> tensor<32x3x6x6xsi8> loc(#loc3)
    %4 = "top.Weight"() : () -> tensor<1x32x1x1xi32> loc(#loc4)
    %5 = "tpu.Conv2D"(%2, %3, %4) {coeff_merged = false, dilations = [1, 1], do_relu = false, do_winograd = false, dynweight_reorderd = false, group = 1 : i64, kernel_shape = [6, 6], kernel_zp = 0 : i64, multiplier = [1401461, 111279, 335529, 632643, 577293, 632001, 234237, 481711, 292625, 934503, 547663, 728157, 2310653, 709235, 52631, 1188897, 346715, 194797, 1332955, 167525, 307325, 108081, 1694305, 1825765, 284057, 1317215, 176561, 113565, 677, 2897739, 148925, 302939], pads = [2, 2, 2, 2], quant_mode = #tpu<rq_mode MultiplierShift>, relu_limit = -1.000000e+00 : f64, round_mode = #tpu<round_mode HalfUp>, rshift = [30, 30, 28, 28, 30, 30, 29, 30, 29, 30, 30, 30, 30, 29, 29, 29, 28, 29, 30, 30, 29, 29, 30, 30, 30, 29, 27, 30, 20, 30, 30, 30], strides = [2, 2], support_compress = true, use_3ic_optimize = 0 : i64, weight_is_coeff = 1 : i64, with_bias = true} : (tensor<1x3x640x640x!quant.uniform<u8:f32, 3.921600e-03>>, tensor<32x3x6x6xsi8>, tensor<1x32x1x1xi32>) -> tensor<1x32x320x320x!quant.uniform<i8:f32, 0.32595742834645669>> loc(#loc5)
    %6 = "top.Weight"() : () -> tensor<1x1x1x256xsi8> loc(#loc6)
    %7 = "tpu.Lut"(%5, %6) : (tensor<1x32x320x320x!quant.uniform<i8:f32, 0.32595742834645669>>, tensor<1x1x1x256xsi8>) -> tensor<1x32x320x320x!quant.uniform<i8:f32, 0.29535947637795273>> loc(#loc7)
    %8 = "top.Weight"() : () -> tensor<64x32x3x3xsi8> loc(#loc8)
    %9 = "top.Weight"() : () -> tensor<1x64x1x1xi32> loc(#loc9)
    %10 = "tpu.Conv2D"(%7, %8, %9) {coeff_merged = false, dilations = [1, 1], do_relu = false, do_winograd = false, dynweight_reorderd = false, group = 1 : i64, kernel_shape = [3, 3], kernel_zp = 0 : i64, multiplier = [3435049, 1323885, 541849, 926329, 3664693, 1813231, 668019, 2832495, 2740845, 151199, 2374721, 3065225, 1126231, 1090651, 1399629, 1615925, 105293, 3947793, 740451, 726701, 77401, 3325823, 1101383, 1870299, 2388221, 7165131, 161625, 394487, 511179, 4891495, 1203327, 2956125, 2078309, 3638103, 1036949, 3275233, 2732601, 672353, 3397261, 1552639, 3478565, 244007, 3148233, 804411, 678673, 1317115, 2040985, 2452449, 6415175, 1157305, 3986175, 1312817, 1254247, 1921359, 2083541, 962909, 5801459, 131719, 131439, 446215, 297105, 433143, 4346061, 543601], pads = [1, 1, 1, 1], quant_mode = #tpu<rq_mode MultiplierShift>, relu_limit = -1.000000e+00 : f64, round_mode = #tpu<round_mode HalfUp>, rshift = [30, 29, 29, 29, 30, 29, 28, 29, 30, 25, 30, 30, 28, 29, 29, 30, 26, 30, 28, 28, 26, 29, 28, 30, 30, 30, 26, 28, 27, 30, 29, 29, 30, 30, 29, 30, 30, 28, 30, 28, 30, 26, 30, 29, 29, 29, 29, 29, 30, 28, 30, 29, 29, 30, 30, 28, 30, 26, 25, 28, 27, 28, 30, 27], strides = [2, 2], support_compress = true, use_3ic_optimize = 0 : i64, weight_is_coeff = 1 : i64, with_bias = true} : (tensor<1x32x320x320x!quant.uniform<i8:f32, 0.29535947637795273>>, tensor<64x32x3x3xsi8>, tensor<1x64x1x1xi32>) -> tensor<1x64x160x160x!quant.uniform<i8:f32, 0.37150840629921261>> loc(#loc10)
    %11 = "top.Weight"() : () -> tensor<1x1x1x256xsi8> loc(#loc11)
    %12 = "tpu.Lut"(%10, %11) : (tensor<1x64x160x160x!quant.uniform<i8:f32, 0.37150840629921261>>, tensor<1x1x1x256xsi8>) -> tensor<1x64x160x160x!quant.uniform<i8:f32, 0.31670154330708666>> loc(#loc12)
    %13 = "top.Weight"() : () -> tensor<32x64x1x1xsi8> loc(#loc13)
    %14 = "top.Weight"() : () -> tensor<1x32x1x1xi32> loc(#loc14)
    %15 = "tpu.Conv2D"(%12, %13, %14) {coeff_merged = false, dilations = [1, 1], do_relu = false, do_winograd = false, dynweight_reorderd = false, group = 1 : i64, kernel_shape = [1, 1], kernel_zp = 0 : i64, multiplier = [7405941, 1638513, 768067, 1630477, 129857, 1873793, 427263, 107015, 1547683, 160929, 1078489, 33775, 1194699, 222729, 8333, 232385, 558291, 481853, 653169, 1678327, 1186205, 658801, 102079, 397685, 204559, 1514799, 612435, 1276473, 480625, 980283, 2304429, 10946247], pads = [0, 0, 0, 0], quant_mode = #tpu<rq_mode MultiplierShift>, relu_limit = -1.000000e+00 : f64, round_mode = #tpu<round_mode HalfUp>, rshift = [30, 30, 29, 30, 27, 30, 28, 26, 30, 27, 30, 26, 28, 30, 23, 28, 30, 30, 29, 30, 29, 29, 26, 26, 28, 30, 30, 29, 30, 29, 30, 30], strides = [1, 1], support_compress = true, use_3ic_optimize = 0 : i64, weight_is_coeff = 1 : i64, with_bias = true} : (tensor<1x64x160x160x!quant.uniform<i8:f32, 0.31670154330708666>>, tensor<32x64x1x1xsi8>, tensor<1x32x1x1xi32>) -> tensor<1x32x160x160x!quant.uniform<i8:f32, 0.24746363149606301>> loc(#loc15)
    %16 = "top.Weight"() : () -> tensor<1x1x1x256xsi8> loc(#loc16)
    %17 = "tpu.Lut"(%15, %16) : (tensor<1x32x160x160x!quant.uniform<i8:f32, 0.24746363149606301>>, tensor<1x1x1x256xsi8>) -> tensor<1x32x160x160x!quant.uniform<i8:f32, 0.032856783464566927>> loc(#loc17)
    %18 = "top.Weight"() : () -> tensor<32x32x1x1xsi8> loc(#loc18)
    %19 = "top.Weight"() : () -> tensor<1x32x1x1xi32> loc(#loc19)
    %20 = "tpu.Conv2D"(%17, %18, %19) {coeff_merged = false, dilations = [1, 1], do_relu = false, do_winograd = false, dynweight_reorderd = false, group = 1 : i64, kernel_shape = [1, 1], kernel_zp = 0 : i64, multiplier = [1638167, 6314329, 7048993, 2833525, 13379867, 3297281, 2132957, 10898395, 13503263, 3856491, 5740283, 3411319, 6689605, 9623859, 2500515, 950069, 8557205, 4759713, 427033, 2769689, 7610747, 4983657, 5039227, 5178801, 6833257, 4292625, 2490819, 597367, 13423733, 16194945, 3296963, 7720799], pads = [0, 0, 0, 0], quant_mode = #tpu<rq_mode MultiplierShift>, relu_limit = -1.000000e+00 : f64, round_mode = #tpu<round_mode HalfUp>, rshift = [28, 29, 30, 29, 30, 29, 28, 30, 30, 29, 30, 29, 29, 30, 28, 27, 30, 29, 26, 29, 30, 29, 30, 28, 29, 29, 28, 26, 30, 30, 29, 30], strides = [1, 1], support_compress = true, use_3ic_optimize = 0 : i64, weight_is_coeff = 1 : i64, with_bias = true} : (tensor<1x32x160x160x!quant.uniform<i8:f32, 0.032856783464566927>>, tensor<32x32x1x1xsi8>, tensor<1x32x1x1xi32>) -> tensor<1x32x160x160x!quant.uniform<i8:f32, 0.11114269842519685>> loc(#loc20)
    %21 = "top.Weight"() : () -> tensor<1x1x1x256xsi8> loc(#loc21)
    %22 = "tpu.Lut"(%20, %21) : (tensor<1x32x160x160x!quant.uniform<i8:f32, 0.11114269842519685>>, tensor<1x1x1x256xsi8>) -> tensor<1x32x160x160x!quant.uniform<i8:f32, 0.10140994409448818>> loc(#loc22)
    %23 = "top.Weight"() : () -> tensor<32x32x3x3xsi8> loc(#loc23)
    %24 = "top.Weight"() : () -> tensor<1x32x1x1xi32> loc(#loc24)
    %25 = "tpu.Conv2D"(%22, %23, %24) {coeff_merged = false, dilations = [1, 1], do_relu = false, do_winograd = false, dynweight_reorderd = false, group = 1 : i64, kernel_shape = [3, 3], kernel_zp = 0 : i64, multiplier = [2227053, 4330611, 1538773, 2233737, 3479797, 893125, 51831, 3446015, 869393, 1209581, 403589, 764825, 894101, 958499, 1573505, 1092417, 2851531, 84199, 3854599, 1223779, 2767, 3178897, 3763231, 4158213, 421433, 1131783, 1476103, 1897341, 552301, 253169, 1565553, 4121833], pads = [1, 1, 1, 1], quant_mode = #tpu<rq_mode MultiplierShift>, relu_limit = -1.000000e+00 : f64, round_mode = #tpu<round_mode HalfUp>, rshift = [29, 29, 29, 30, 29, 28, 23, 29, 28, 28, 27, 28, 27, 28, 28, 29, 30, 25, 30, 28, 21, 29, 30, 30, 28, 28, 29, 29, 27, 28, 29, 30], strides = [1, 1], support_compress = true, use_3ic_optimize = 0 : i64, weight_is_coeff = 1 : i64, with_bias = true} : (tensor<1x32x160x160x!quant.uniform<i8:f32, 0.10140994409448818>>, tensor<32x32x3x3xsi8>, tensor<1x32x1x1xi32>) -> tensor<1x32x160x160x!quant.uniform<i8:f32, 0.095083035433070867>> loc(#loc25)
    %26 = "top.Weight"() : () -> tensor<1x1x1x256xsi8> loc(#loc26)
    %27 = "tpu.Lut"(%25, %26) : (tensor<1x32x160x160x!quant.uniform<i8:f32, 0.095083035433070867>>, tensor<1x1x1x256xsi8>) -> tensor<1x32x160x160x!quant.uniform<i8:f32, 0.088719262204724411>> loc(#loc27)
    %28 = "tpu.Add"(%17, %27) {do_relu = false, multipliers = [69, 47], relu_limit = -1.000000e+00 : f64, rshifts = [8, 6]} : (tensor<1x32x160x160x!quant.uniform<i8:f32, 0.032856783464566927>>, tensor<1x32x160x160x!quant.uniform<i8:f32, 0.088719262204724411>>) -> tensor<1x32x160x160x!quant.uniform<i8:f32, 0.12114059212598426>> loc(#loc28)
    %29 = "top.Weight"() : () -> tensor<32x64x1x1xsi8> loc(#loc29)
    %30 = "top.Weight"() : () -> tensor<1x32x1x1xi32> loc(#loc30)
    %31 = "tpu.Conv2D"(%12, %29, %30) {coeff_merged = false, dilations = [1, 1], do_relu = false, do_winograd = false, dynweight_reorderd = false, group = 1 : i64, kernel_shape = [1, 1], kernel_zp = 0 : i64, multiplier = [2230097, 14037685, 6206699, 1457539, 3850859, 6223339, 1648001, 8811371, 2572753, 2223525, 9710117, 680455, 1549363, 2099811, 427095, 751495, 6572121, 9426495, 1678447, 1282739, 5131779, 10536079, 3529995, 1126265, 5570825, 3279881, 2427181, 10922237, 1493893, 6180985, 1441325, 702509], pads = [0, 0, 0, 0], quant_mode = #tpu<rq_mode MultiplierShift>, relu_limit = -1.000000e+00 : f64, round_mode = #tpu<round_mode HalfUp>, rshift = [30, 30, 30, 28, 29, 30, 27, 30, 29, 29, 30, 28, 28, 29, 27, 28, 29, 30, 29, 28, 29, 30, 29, 28, 30, 29, 29, 30, 28, 29, 29, 25], strides = [1, 1], support_compress = true, use_3ic_optimize = 0 : i64, weight_is_coeff = 1 : i64, with_bias = true} : (tensor<1x64x160x160x!quant.uniform<i8:f32, 0.31670154330708666>>, tensor<32x64x1x1xsi8>, tensor<1x32x1x1xi32>) -> tensor<1x32x160x160x!quant.uniform<i8:f32, 0.13293712362204724>> loc(#loc31)
    %32 = "top.Weight"() : () -> tensor<1x1x1x256xsi8> loc(#loc32)
    %33 = "tpu.Lut"(%31, %32) : (tensor<1x32x160x160x!quant.uniform<i8:f32, 0.13293712362204724>>, tensor<1x1x1x256xsi8>) -> tensor<1x32x160x160x!quant.uniform<i8:f32, 0.12114059212598426>> loc(#loc33)
    %34 = "tpu.Concat"(%28, %33) {axis = 1 : si32, do_relu = false, only_merge = false, relu_limit = -1.000000e+00 : f64} : (tensor<1x32x160x160x!quant.uniform<i8:f32, 0.12114059212598426>>, tensor<1x32x160x160x!quant.uniform<i8:f32, 0.12114059212598426>>) -> tensor<1x64x160x160x!quant.uniform<i8:f32, 0.12114059212598426>> loc(#loc34)
    %35 = "top.Weight"() : () -> tensor<64x64x1x1xsi8> loc(#loc35)
    %36 = "top.Weight"() : () -> tensor<1x64x1x1xi32> loc(#loc36)
    %37 = "tpu.Conv2D"(%34, %35, %36) {coeff_merged = false, dilations = [1, 1], do_relu = false, do_winograd = false, dynweight_reorderd = false, group = 1 : i64, kernel_shape = [1, 1], kernel_zp = 0 : i64, multiplier = [7458489, 22417, 1657337, 2161713, 2758165, 9247995, 1975019, 2130777, 3470459, 884631, 1552193, 2732415, 2024491, 2086767, 3169129, 100659, 1212335, 3926993, 395197, 737935, 13505133, 5430155, 1285859, 8986197, 185301, 1966653, 3338471, 10934211, 583005, 247755, 3228635, 3432997, 2647643, 3327033, 5270493, 2810531, 2937605, 3488505, 3927847, 2744837, 1524737, 2061063, 553843, 1801465, 1885083, 2616403, 453071, 453271, 688825, 3175951, 8853569, 12761295, 5483301, 2253643, 853443, 2852291, 1822131, 520155, 3145589, 6031631, 5335649, 2625147, 815903, 1215101], pads = [0, 0, 0, 0], quant_mode = #tpu<rq_mode MultiplierShift>, relu_limit = -1.000000e+00 : f64, round_mode = #tpu<round_mode HalfUp>, rshift = [30, 22, 28, 29, 29, 30, 29, 29, 29, 28, 28, 29, 28, 28, 30, 24, 28, 29, 27, 27, 30, 30, 28, 30, 25, 28, 30, 30, 27, 25, 29, 29, 29, 29, 30, 29, 29, 29, 30, 29, 28, 28, 27, 28, 28, 29, 27, 27, 27, 29, 30, 30, 30, 29, 27, 29, 28, 27, 29, 30, 30, 29, 27, 28], strides = [1, 1], support_compress = true, use_3ic_optimize = 0 : i64, weight_is_coeff = 1 : i64, with_bias = true} : (tensor<1x64x160x160x!quant.uniform<i8:f32, 0.12114059212598426>>, tensor<64x64x1x1xsi8>, tensor<1x64x1x1xi32>) -> tensor<1x64x160x160x!quant.uniform<i8:f32, 0.079613174015748023>> loc(#loc37)
    %38 = "top.Weight"() : () -> tensor<1x1x1x256xsi8> loc(#loc38)
    %39 = "tpu.Lut"(%37, %38) : (tensor<1x64x160x160x!quant.uniform<i8:f32, 0.079613174015748023>>, tensor<1x1x1x256xsi8>) -> tensor<1x64x160x160x!quant.uniform<i8:f32, 0.08493915826771653>> loc(#loc39)
    %40 = "top.Weight"() : () -> tensor<128x64x3x3xsi8> loc(#loc40)
    %41 = "top.Weight"() : () -> tensor<1x128x1x1xi32> loc(#loc41)
    %42 = "tpu.Conv2D"(%39, %40, %41) {coeff_merged = false, dilations = [1, 1], do_relu = false, do_winograd = false, dynweight_reorderd = false, group = 1 : i64, kernel_shape = [3, 3], kernel_zp = 0 : i64, multiplier = [433867, 140011, 255823, 3093313, 41713, 2292653, 2374045, 2991595, 2840637, 1986379, 62281, 1288117, 2257483, 502859, 1312459, 2769491, 2511793, 159497, 684055, 1082425, 1037501, 859293, 808239, 1819059, 2000211, 1116757, 2062091, 652527, 2385999, 291319, 1363351, 528557, 214407, 374017, 363103, 1564661, 1319599, 3653977, 17473, 1327613, 1636681, 686729, 76223, 718055, 616351, 517285, 2717739, 279473, 2735905, 1360851, 1267303, 3015887, 680777, 3291603, 950659, 3149367, 1047677, 1507467, 2312921, 694449, 809145, 1129031, 1074719, 2134847, 129275, 1528961, 1734533, 3015761, 135551, 1190949, 1769771, 1258147, 354067, 901303, 1877183, 1122685, 1879603, 508127, 1624963, 3036395, 2604909, 146133, 1469293, 1459267, 3753763, 2031793, 1506217, 435173, 556699, 1080623, 1059797, 25919, 1188523, 782521, 410677, 738657, 1060081, 734551, 3166427, 729181, 1076647, 1894405, 696113, 2309909, 384439, 3002261, 500507, 2324337, 231793, 547741, 3135811, 2435927, 2046277, 1575435, 3225277, 1081455, 1013765, 1402727, 965145, 1000351, 173289, 272483, 831475, 266679, 608411, 1089507, 1136475, 698799], pads = [1, 1, 1, 1], quant_mode = #tpu<rq_mode MultiplierShift>, relu_limit = -1.000000e+00 : f64, round_mode = #tpu<round_mode HalfUp>, rshift = [27, 26, 28, 30, 25, 30, 30, 30, 30, 30, 26, 30, 30, 29, 29, 30, 30, 26, 28, 29, 29, 29, 28, 29, 30, 29, 30, 29, 30, 28, 29, 28, 27, 27, 28, 29, 30, 30, 23, 30, 29, 29, 26, 28, 28, 28, 30, 27, 30, 29, 29, 30, 28, 30, 29, 30, 29, 29, 30, 29, 29, 29, 29, 30, 26, 29, 30, 30, 27, 29, 30, 29, 28, 29, 30, 29, 30, 28, 30, 30, 30, 27, 29, 30, 30, 30, 30, 28, 29, 30, 29, 25, 29, 28, 28, 28, 29, 29, 30, 28, 30, 30, 29, 30, 29, 30, 27, 30, 27, 29, 30, 30, 30, 30, 30, 29, 29, 30, 29, 30, 26, 27, 28, 27, 28, 29, 30, 29], strides = [2, 2], support_compress = true, use_3ic_optimize = 0 : i64, weight_is_coeff = 1 : i64, with_bias = true} : (tensor<1x64x160x160x!quant.uniform<i8:f32, 0.08493915826771653>>, tensor<128x64x3x3xsi8>, tensor<1x128x1x1xi32>) -> tensor<1x128x80x80x!quant.uniform<i8:f32, 0.052292868503937009>> loc(#loc42)
    %43 = "top.Weight"() : () -> tensor<1x1x1x256xsi8> loc(#loc43)
    %44 = "tpu.Lut"(%42, %43) : (tensor<1x128x80x80x!quant.uniform<i8:f32, 0.052292868503937009>>, tensor<1x1x1x256xsi8>) -> tensor<1x128x80x80x!quant.uniform<i8:f32, 0.039389724409448816>> loc(#loc44)
    %45 = "top.Weight"() : () -> tensor<64x128x1x1xsi8> loc(#loc45)
    %46 = "top.Weight"() : () -> tensor<1x64x1x1xi32> loc(#loc46)
    %47 = "tpu.Conv2D"(%44, %45, %46) {coeff_merged = false, dilations = [1, 1], do_relu = false, do_winograd = false, dynweight_reorderd = false, group = 1 : i64, kernel_shape = [1, 1], kernel_zp = 0 : i64, multiplier = [1343207, 170223, 912537, 3211529, 931873, 1579177, 637343, 2309161, 3875869, 1494871, 3647237, 1825917, 2143763, 310149, 2547993, 549517, 2285405, 1004399, 2259543, 3395193, 1562249, 3172173, 479797, 3257895, 2678699, 2961895, 1895171, 1787597, 1720747, 2116059, 869297, 493977, 1614555, 374157, 3616021, 2388559, 6359313, 4193171, 458989, 1120741, 1590593, 839143, 912195, 4337183, 756965, 3546863, 736059, 3360943, 112153, 1186767, 267765, 1474131, 3685003, 2376315, 5663919, 2581177, 4672535, 769099, 4109805, 1702807, 613753, 2118811, 1881077, 1245303], pads = [0, 0, 0, 0], quant_mode = #tpu<rq_mode MultiplierShift>, relu_limit = -1.000000e+00 : f64, round_mode = #tpu<round_mode HalfUp>, rshift = [29, 27, 29, 29, 28, 30, 28, 30, 30, 30, 30, 30, 30, 27, 30, 28, 30, 29, 29, 30, 30, 29, 27, 30, 30, 30, 29, 30, 30, 30, 28, 28, 29, 27, 30, 29, 30, 30, 27, 29, 30, 29, 29, 30, 29, 30, 29, 30, 26, 28, 27, 29, 30, 30, 30, 30, 30, 29, 30, 29, 28, 29, 30, 29], strides = [1, 1], support_compress = true, use_3ic_optimize = 0 : i64, weight_is_coeff = 1 : i64, with_bias = true} : (tensor<1x128x80x80x!quant.uniform<i8:f32, 0.039389724409448816>>, tensor<64x128x1x1xsi8>, tensor<1x64x1x1xi32>) -> tensor<1x64x80x80x!quant.uniform<i8:f32, 0.024539233858267718>> loc(#loc47)
    %48 = "top.Weight"() : () -> tensor<1x1x1x256xsi8> loc(#loc48)
    %49 = "tpu.Lut"(%47, %48) : (tensor<1x64x80x80x!quant.uniform<i8:f32, 0.024539233858267718>>, tensor<1x1x1x256xsi8>) -> tensor<1x64x80x80x!quant.uniform<i8:f32, 0.01122580157480315>> loc(#loc49)
    %50 = "top.Weight"() : () -> tensor<64x64x1x1xsi8> loc(#loc50)
    %51 = "top.Weight"() : () -> tensor<1x64x1x1xi32> loc(#loc51)
    %52 = "tpu.Conv2D"(%49, %50, %51) {coeff_merged = false, dilations = [1, 1], do_relu = false, do_winograd = false, dynweight_reorderd = false, group = 1 : i64, kernel_shape = [1, 1], kernel_zp = 0 : i64, multiplier = [2222351, 3440231, 2269793, 1864083, 1907453, 758153, 332223, 3202729, 1160955, 280911, 1814317, 3599681, 2899473, 394881, 3229775, 2294797, 3638265, 969603, 1747677, 4666675, 877159, 2816767, 2984711, 250075, 2956445, 1866559, 430717, 1193067, 2475215, 3052143, 2965987, 109811, 2058871, 196371, 392697, 4488737, 907375, 2521991, 2022853, 2869443, 964131, 3225539, 4709459, 3621929, 5599265, 824289, 2744527, 2585985, 50005, 4363661, 879567, 1186049, 4661977, 880979, 2370037, 917043, 3609311, 4753363, 4008067, 1083653, 3829327, 996727, 234077, 3786079], pads = [0, 0, 0, 0], quant_mode = #tpu<rq_mode MultiplierShift>, relu_limit = -1.000000e+00 : f64, round_mode = #tpu<round_mode HalfUp>, rshift = [29, 30, 29, 29, 29, 28, 26, 30, 28, 26, 29, 30, 30, 27, 29, 29, 30, 28, 29, 30, 28, 30, 29, 26, 29, 29, 27, 28, 29, 30, 30, 25, 29, 27, 27, 30, 28, 29, 29, 30, 28, 30, 30, 30, 30, 28, 30, 29, 24, 30, 28, 28, 30, 28, 29, 28, 30, 30, 30, 28, 30, 28, 26, 30], strides = [1, 1], support_compress = true, use_3ic_optimize = 0 : i64, weight_is_coeff = 1 : i64, with_bias = true} : (tensor<1x64x80x80x!quant.uniform<i8:f32, 0.01122580157480315>>, tensor<64x64x1x1xsi8>, tensor<1x64x1x1xi32>) -> tensor<1x64x80x80x!quant.uniform<i8:f32, 0.043872662204724411>> loc(#loc52)
    %53 = "top.Weight"() : () -> tensor<1x1x1x256xsi8> loc(#loc53)
    %54 = "tpu.Lut"(%52, %53) : (tensor<1x64x80x80x!quant.uniform<i8:f32, 0.043872662204724411>>, tensor<1x1x1x256xsi8>) -> tensor<1x64x80x80x!quant.uniform<i8:f32, 0.047696196062992122>> loc(#loc54)
    %55 = "top.Weight"() : () -> tensor<64x64x3x3xsi8> loc(#loc55)
    %56 = "top.Weight"() : () -> tensor<1x64x1x1xi32> loc(#loc56)
    %57 = "tpu.Conv2D"(%54, %55, %56) {coeff_merged = false, dilations = [1, 1], do_relu = false, do_winograd = false, dynweight_reorderd = false, group = 1 : i64, kernel_shape = [3, 3], kernel_zp = 0 : i64, multiplier = [2282615, 1472193, 574435, 22921, 1349929, 272877, 1154115, 1839707, 383801, 2493229, 1565697, 1978847, 17265, 1112103, 766769, 359825, 62057, 252207, 1230447, 2726285, 1445259, 729715, 1516071, 1137021, 828723, 917323, 126069, 1297623, 2022581, 576119, 2455887, 487773, 1037445, 538433, 87713, 2878827, 1432559, 872035, 383001, 1594407, 561683, 3115431, 545585, 2188731, 1527779, 2385835, 1909727, 1311939, 557097, 884223, 1776417, 963935, 703473, 2889661, 2074447, 3211285, 3565955, 2599151, 2231095, 373219, 515121, 1137865, 691039, 603313], pads = [1, 1, 1, 1], quant_mode = #tpu<rq_mode MultiplierShift>, relu_limit = -1.000000e+00 : f64, round_mode = #tpu<round_mode HalfUp>, rshift = [30, 29, 28, 24, 29, 27, 30, 29, 27, 30, 30, 30, 23, 30, 29, 28, 25, 27, 29, 30, 29, 28, 29, 29, 29, 29, 26, 29, 30, 28, 30, 28, 29, 29, 25, 30, 28, 29, 27, 29, 28, 30, 28, 30, 29, 30, 29, 29, 28, 29, 30, 29, 28, 30, 30, 30, 30, 30, 30, 28, 28, 29, 29, 29], strides = [1, 1], support_compress = true, use_3ic_optimize = 0 : i64, weight_is_coeff = 1 : i64, with_bias = true} : (tensor<1x64x80x80x!quant.uniform<i8:f32, 0.047696196062992122>>, tensor<64x64x3x3xsi8>, tensor<1x64x1x1xi32>) -> tensor<1x64x80x80x!quant.uniform<i8:f32, 0.03659276535433071>> loc(#loc57)
    %58 = "top.Weight"() : () -> tensor<1x1x1x256xsi8> loc(#loc58)
    %59 = "tpu.Lut"(%57, %58) : (tensor<1x64x80x80x!quant.uniform<i8:f32, 0.03659276535433071>>, tensor<1x1x1x256xsi8>) -> tensor<1x64x80x80x!quant.uniform<i8:f32, 0.021455972440944885>> loc(#loc59)
    %60 = "tpu.Add"(%49, %59) {do_relu = false, multipliers = [59, 113], relu_limit = -1.000000e+00 : f64, rshifts = [7, 7]} : (tensor<1x64x80x80x!quant.uniform<i8:f32, 0.01122580157480315>>, tensor<1x64x80x80x!quant.uniform<i8:f32, 0.021455972440944885>>) -> tensor<1x64x80x80x!quant.uniform<i8:f32, 0.024273014960629922>> loc(#loc60)
    %61 = "top.Weight"() : () -> tensor<64x64x1x1xsi8> loc(#loc61)
    %62 = "top.Weight"() : () -> tensor<1x64x1x1xi32> loc(#loc62)
    %63 = "tpu.Conv2D"(%60, %61, %62) {coeff_merged = false, dilations = [1, 1], do_relu = false, do_winograd = false, dynweight_reorderd = false, group = 1 : i64, kernel_shape = [1, 1], kernel_zp = 0 : i64, multiplier = [749415, 2269783, 2809851, 2662785, 1328135, 4267961, 3270823, 2032077, 1167355, 1402977, 5725359, 1193369, 901309, 3796171, 3028599, 8509999, 1871073, 1191763, 107563, 1882613, 561635, 2244925, 370409, 1394347, 1345201, 1637521, 2075069, 2786213, 198407, 1425533, 4111347, 302251, 4962761, 3584147, 592205, 4236643, 921435, 1085707, 3491517, 3662203, 3492377, 3142475, 625089, 3077455, 1291889, 1528851, 1473913, 12057, 2474439, 3124905, 629605, 2249251, 6038411, 4146415, 1021003, 1794755, 2156575, 3958287, 12691315, 1125623, 4129833, 4592407, 4718209, 1454067], pads = [0, 0, 0, 0], quant_mode = #tpu<rq_mode MultiplierShift>, relu_limit = -1.000000e+00 : f64, round_mode = #tpu<round_mode HalfUp>, rshift = [27, 29, 29, 29, 28, 30, 30, 29, 28, 29, 30, 28, 27, 30, 30, 30, 29, 28, 25, 28, 27, 29, 27, 28, 29, 28, 29, 29, 26, 29, 29, 26, 30, 30, 28, 30, 28, 28, 29, 30, 29, 30, 27, 30, 28, 28, 28, 21, 29, 30, 29, 29, 30, 30, 28, 29, 29, 30, 30, 28, 30, 30, 30, 28], strides = [1, 1], support_compress = true, use_3ic_optimize = 0 : i64, weight_is_coeff = 1 : i64, with_bias = true} : (tensor<1x64x80x80x!quant.uniform<i8:f32, 0.024273014960629922>>, tensor<64x64x1x1xsi8>, tensor<1x64x1x1xi32>) -> tensor<1x64x80x80x!quant.uniform<i8:f32, 0.041986418110236221>> loc(#loc63)
    %64 = "top.Weight"() : () -> tensor<1x1x1x256xsi8> loc(#loc64)
    %65 = "tpu.Lut"(%63, %64) : (tensor<1x64x80x80x!quant.uniform<i8:f32, 0.041986418110236221>>, tensor<1x1x1x256xsi8>) -> tensor<1x64x80x80x!quant.uniform<i8:f32, 0.047403425984251971>> loc(#loc65)
    %66 = "top.Weight"() : () -> tensor<64x64x3x3xsi8> loc(#loc66)
    %67 = "top.Weight"() : () -> tensor<1x64x1x1xi32> loc(#loc67)
    %68 = "tpu.Conv2D"(%65, %66, %67) {coeff_merged = false, dilations = [1, 1], do_relu = false, do_winograd = false, dynweight_reorderd = false, group = 1 : i64, kernel_shape = [3, 3], kernel_zp = 0 : i64, multiplier = [517399, 649753, 2051997, 2817559, 3023497, 3562361, 926609, 879863, 567119, 24393, 1812525, 19377, 1467797, 3216641, 3971219, 576115, 1094241, 1866219, 1900725, 2066423, 4278729, 2111333, 2175815, 2835689, 4749787, 2751751, 2560943, 2399733, 2028565, 2917601, 467355, 3103223, 1234245, 916649, 1323409, 1480901, 1182285, 594677, 2278907, 1828951, 338167, 265427, 3853713, 3927029, 98447, 444733, 1161079, 205101, 3311989, 1372413, 599955, 783527, 2254357, 1935735, 1641919, 2062127, 11349, 1893923, 1445485, 831603, 633881, 3620133, 1749125, 533753], pads = [1, 1, 1, 1], quant_mode = #tpu<rq_mode MultiplierShift>, relu_limit = -1.000000e+00 : f64, round_mode = #tpu<round_mode HalfUp>, rshift = [26, 28, 30, 30, 30, 30, 29, 28, 27, 23, 30, 23, 29, 30, 30, 28, 29, 29, 29, 29, 29, 29, 29, 30, 30, 30, 30, 30, 30, 30, 27, 30, 29, 28, 28, 29, 28, 28, 29, 29, 27, 27, 30, 30, 25, 27, 29, 26, 30, 29, 28, 28, 30, 29, 29, 30, 22, 30, 29, 28, 28, 30, 29, 28], strides = [1, 1], support_compress = true, use_3ic_optimize = 0 : i64, weight_is_coeff = 1 : i64, with_bias = true} : (tensor<1x64x80x80x!quant.uniform<i8:f32, 0.047403425984251971>>, tensor<64x64x3x3xsi8>, tensor<1x64x1x1xi32>) -> tensor<1x64x80x80x!quant.uniform<i8:f32, 0.048311879527559054>> loc(#loc68)
    %69 = "top.Weight"() : () -> tensor<1x1x1x256xsi8> loc(#loc69)
    %70 = "tpu.Lut"(%68, %69) : (tensor<1x64x80x80x!quant.uniform<i8:f32, 0.048311879527559054>>, tensor<1x1x1x256xsi8>) -> tensor<1x64x80x80x!quant.uniform<i8:f32, 0.039847262204724412>> loc(#loc70)
    %71 = "tpu.Add"(%60, %70) {do_relu = false, multipliers = [1, 105], relu_limit = -1.000000e+00 : f64, rshifts = [1, 7]} : (tensor<1x64x80x80x!quant.uniform<i8:f32, 0.024273014960629922>>, tensor<1x64x80x80x!quant.uniform<i8:f32, 0.039847262204724412>>) -> tensor<1x64x80x80x!quant.uniform<i8:f32, 0.048706242519685042>> loc(#loc71)
    %72 = "top.Weight"() : () -> tensor<64x128x1x1xsi8> loc(#loc72)
    %73 = "top.Weight"() : () -> tensor<1x64x1x1xi32> loc(#loc73)
    %74 = "tpu.Conv2D"(%44, %72, %73) {coeff_merged = false, dilations = [1, 1], do_relu = false, do_winograd = false, dynweight_reorderd = false, group = 1 : i64, kernel_shape = [1, 1], kernel_zp = 0 : i64, multiplier = [203717, 2421131, 7324931, 436137, 3434213, 4197725, 5086925, 7101929, 8978273, 1909623, 466495, 11191017, 4194717, 3531641, 8572965, 1619329, 3033473, 1023535, 4023697, 681249, 5170953, 3505629, 1137849, 10659811, 3931403, 962961, 673437, 2292813, 6003025, 9657195, 1936349, 2256205, 5409171, 1852265, 3949553, 1406825, 10194695, 2785205, 7657415, 4183643, 2786969, 109017, 5319643, 5813197, 1529221, 2750061, 949911, 2537727, 444853, 4310761, 2763987, 4047207, 696827, 5571935, 10964645, 4726059, 281157, 356523, 8131823, 13907587, 5523541, 2959203, 804787, 801991], pads = [0, 0, 0, 0], quant_mode = #tpu<rq_mode MultiplierShift>, relu_limit = -1.000000e+00 : f64, round_mode = #tpu<round_mode HalfUp>, rshift = [25, 29, 30, 27, 29, 28, 30, 29, 30, 28, 26, 30, 29, 30, 30, 28, 29, 28, 29, 27, 30, 29, 28, 30, 30, 28, 28, 29, 29, 30, 28, 29, 30, 29, 29, 27, 30, 29, 30, 29, 28, 25, 30, 30, 28, 29, 27, 29, 26, 29, 29, 30, 27, 30, 30, 29, 25, 26, 30, 30, 30, 29, 27, 27], strides = [1, 1], support_compress = true, use_3ic_optimize = 0 : i64, weight_is_coeff = 1 : i64, with_bias = true} : (tensor<1x128x80x80x!quant.uniform<i8:f32, 0.039389724409448816>>, tensor<64x128x1x1xsi8>, tensor<1x64x1x1xi32>) -> tensor<1x64x80x80x!quant.uniform<i8:f32, 0.038964575590551179>> loc(#loc74)
    %75 = "top.Weight"() : () -> tensor<1x1x1x256xsi8> loc(#loc75)
    %76 = "tpu.Lut"(%74, %75) : (tensor<1x64x80x80x!quant.uniform<i8:f32, 0.038964575590551179>>, tensor<1x1x1x256xsi8>) -> tensor<1x64x80x80x!quant.uniform<i8:f32, 0.048706242519685042>> loc(#loc76)
    %77 = "tpu.Concat"(%71, %76) {axis = 1 : si32, do_relu = false, only_merge = false, relu_limit = -1.000000e+00 : f64} : (tensor<1x64x80x80x!quant.uniform<i8:f32, 0.048706242519685042>>, tensor<1x64x80x80x!quant.uniform<i8:f32, 0.048706242519685042>>) -> tensor<1x128x80x80x!quant.uniform<i8:f32, 0.048706242519685042>> loc(#loc77)
    %78 = "top.Weight"() : () -> tensor<128x128x1x1xsi8> loc(#loc78)
    %79 = "top.Weight"() : () -> tensor<1x128x1x1xi32> loc(#loc79)
    %80 = "tpu.Conv2D"(%77, %78, %79) {coeff_merged = false, dilations = [1, 1], do_relu = false, do_winograd = false, dynweight_reorderd = false, group = 1 : i64, kernel_shape = [1, 1], kernel_zp = 0 : i64, multiplier = [1915199, 4132881, 2139999, 498811, 1231085, 3609885, 2691581, 1598379, 1372605, 1702105, 1167679, 1101281, 546713, 803739, 2606281, 321947, 3809097, 918061, 1884205, 4998465, 78889, 1900821, 406543, 3767171, 839967, 2124747, 3018819, 3919853, 2446791, 1783425, 2598483, 4303287, 2804669, 1432799, 1602955, 1890219, 1492993, 3369621, 2991479, 1530863, 212129, 2577129, 562267, 637713, 1532177, 2901923, 1188709, 337993, 3868585, 575439, 1543519, 31867, 1532951, 985605, 835301, 1882827, 3072895, 1343531, 2580119, 76771, 1984353, 861881, 660643, 3122979, 2408171, 283493, 1723901, 2255981, 4033679, 122605, 1860423, 671611, 656819, 222033, 2745409, 2447041, 3149907, 3114873, 2420853, 3880799, 4350269, 851851, 568425, 3070183, 2576305, 416549, 1432933, 1475247, 6568111, 1577157, 553103, 1514571, 2771763, 1513463, 787775, 100167, 1670375, 1465955, 1169089, 3182609, 1182893, 3907345, 3568299, 966535, 2960411, 653511, 2988809, 1153143, 1559153, 12171, 2927697, 1035677, 2636523, 2843043, 1081803, 2412101, 3014313, 3888083, 977869, 44963, 3837347, 2277987, 2153, 2085947, 1899317, 1313273, 1108595, 714279], pads = [0, 0, 0, 0], quant_mode = #tpu<rq_mode MultiplierShift>, relu_limit = -1.000000e+00 : f64, round_mode = #tpu<round_mode HalfUp>, rshift = [29, 29, 29, 28, 29, 30, 29, 30, 29, 28, 28, 28, 27, 28, 30, 27, 30, 28, 29, 30, 25, 29, 27, 30, 29, 29, 29, 30, 30, 28, 29, 30, 30, 29, 28, 30, 28, 29, 30, 29, 26, 29, 27, 27, 29, 30, 28, 27, 30, 27, 29, 23, 29, 29, 28, 29, 29, 29, 29, 25, 29, 29, 27, 30, 29, 26, 30, 29, 30, 25, 29, 28, 28, 27, 29, 29, 30, 30, 30, 30, 30, 28, 27, 30, 29, 27, 29, 29, 30, 29, 27, 29, 30, 29, 28, 24, 30, 29, 28, 30, 28, 30, 30, 28, 30, 28, 30, 29, 28, 22, 30, 28, 29, 30, 29, 30, 30, 29, 28, 24, 30, 30, 19, 29, 29, 29, 28, 28], strides = [1, 1], support_compress = true, use_3ic_optimize = 0 : i64, weight_is_coeff = 1 : i64, with_bias = true} : (tensor<1x128x80x80x!quant.uniform<i8:f32, 0.048706242519685042>>, tensor<128x128x1x1xsi8>, tensor<1x128x1x1xi32>) -> tensor<1x128x80x80x!quant.uniform<i8:f32, 0.03965484409448819>> loc(#loc80)
    %81 = "top.Weight"() : () -> tensor<1x1x1x256xsi8> loc(#loc81)
    %82 = "tpu.Lut"(%80, %81) : (tensor<1x128x80x80x!quant.uniform<i8:f32, 0.03965484409448819>>, tensor<1x1x1x256xsi8>) -> tensor<1x128x80x80x!quant.uniform<i8:f32, 0.030274422834645671>> loc(#loc82)
    %83 = "top.Weight"() : () -> tensor<256x128x3x3xsi8> loc(#loc83)
    %84 = "top.Weight"() : () -> tensor<1x256x1x1xi32> loc(#loc84)
    %85 = "tpu.Conv2D"(%82, %83, %84) {coeff_merged = false, dilations = [1, 1], do_relu = false, do_winograd = false, dynweight_reorderd = false, group = 1 : i64, kernel_shape = [3, 3], kernel_zp = 0 : i64, multiplier = [1122201, 236233, 7251, 555917, 502473, 783783, 1280789, 78705, 550875, 467285, 583515, 301617, 435199, 36385, 320985, 12271, 1024531, 197359, 41051, 1594249, 850165, 1022735, 13013, 411825, 1321575, 1188629, 930637, 311491, 1348411, 812751, 911151, 1286983, 259869, 278077, 23647, 131265, 269587, 257945, 580775, 1085167, 47727, 674209, 202529, 304087, 412739, 928635, 135783, 545417, 2013853, 1261421, 418851, 1231407, 195205, 1791607, 1211341, 254167, 84167, 858323, 808037, 799555, 2592473, 722869, 1212027, 49891, 111655, 1021673, 796549, 609759, 622505, 89195, 1179641, 587531, 589509, 244135, 1268681, 200547, 1101387, 86523, 1839847, 962467, 124407, 1221395, 229883, 500377, 369927, 630155, 53927, 352901, 769169, 386289, 217415, 166663, 119137, 1581833, 473323, 531523, 444567, 881503, 221927, 669557, 924581, 220069, 1886913, 95707, 465429, 411781, 173163, 784315, 67235, 1150371, 787353, 562695, 54381, 1393605, 1092445, 342241, 655497, 1162427, 1139609, 860079, 857765, 831421, 379539, 1184895, 707145, 55057, 750039, 134809, 669837, 1421415, 788997, 542803, 130693, 455313, 534479, 1591497, 90191, 568593, 2305443, 234011, 645767, 42865, 543451, 56623, 390113, 360455, 1322581, 1145067, 421, 164115, 62911, 576505, 755347, 302171, 491745, 108215, 750855, 546021, 1244343, 367059, 171301, 750045, 856205, 549677, 394321, 1074083, 678343, 708851, 156877, 428419, 989167, 337897, 247173, 1293197, 1555967, 1002505, 1292531, 1593599, 1061199, 862439, 313271, 564381, 706489, 263039, 124195, 1236841, 723727, 403603, 948951, 309139, 522163, 489493, 672381, 515001, 486801, 702535, 915507, 61823, 600405, 1395869, 778185, 1040429, 782025, 2579419, 400481, 136835, 716253, 1038431, 592531, 143825, 58841, 279071, 248557, 840547, 804225, 595541, 1130119, 125247, 1171635, 646293, 797243, 697165, 360319, 147935, 1255255, 1325703, 1667765, 820433, 236885, 517497, 74929, 1262729, 463599, 962519, 749629, 778039, 767473, 525773, 495583, 1003149, 167209, 389847, 80335, 1065657, 536369, 273231, 2289983, 159821, 671065, 714311, 674121, 896417, 1730953, 358645, 86933, 39845], pads = [1, 1, 1, 1], quant_mode = #tpu<rq_mode MultiplierShift>, relu_limit = -1.000000e+00 : f64, round_mode = #tpu<round_mode HalfUp>, rshift = [30, 28, 23, 29, 28, 30, 30, 27, 30, 29, 29, 29, 28, 26, 28, 24, 30, 28, 26, 30, 29, 30, 24, 28, 30, 30, 30, 29, 30, 29, 30, 30, 28, 28, 24, 27, 28, 29, 29, 30, 26, 30, 28, 29, 29, 30, 28, 29, 30, 30, 29, 30, 28, 30, 30, 28, 27, 30, 30, 30, 30, 30, 30, 25, 26, 30, 30, 29, 30, 26, 30, 29, 29, 28, 30, 28, 30, 26, 30, 30, 27, 30, 27, 29, 29, 30, 26, 28, 30, 28, 28, 28, 27, 30, 29, 29, 28, 30, 28, 30, 30, 29, 30, 27, 29, 29, 27, 30, 26, 30, 30, 29, 26, 30, 30, 29, 29, 30, 30, 30, 30, 30, 29, 30, 28, 26, 30, 27, 30, 30, 30, 29, 27, 29, 29, 30, 27, 30, 30, 28, 29, 25, 29, 26, 28, 29, 30, 30, 19, 27, 26, 29, 30, 28, 28, 27, 30, 29, 30, 29, 28, 30, 29, 29, 29, 30, 30, 30, 28, 29, 30, 29, 28, 30, 30, 30, 30, 30, 30, 30, 29, 29, 28, 28, 27, 30, 29, 29, 30, 28, 29, 29, 30, 29, 28, 30, 30, 26, 30, 30, 30, 30, 29, 30, 29, 28, 29, 30, 30, 27, 26, 28, 29, 30, 30, 29, 29, 28, 30, 28, 30, 29, 29, 27, 30, 30, 30, 30, 28, 29, 26, 30, 29, 30, 30, 30, 30, 29, 29, 30, 27, 29, 26, 30, 30, 28, 30, 27, 30, 29, 29, 30, 30, 29, 27, 26], strides = [2, 2], support_compress = true, use_3ic_optimize = 0 : i64, weight_is_coeff = 1 : i64, with_bias = true} : (tensor<1x128x80x80x!quant.uniform<i8:f32, 0.030274422834645671>>, tensor<256x128x3x3xsi8>, tensor<1x256x1x1xi32>) -> tensor<1x256x40x40x!quant.uniform<i8:f32, 0.063787422834645668>> loc(#loc85)
    %86 = "top.Weight"() : () -> tensor<1x1x1x256xsi8> loc(#loc86)
    %87 = "tpu.Lut"(%85, %86) : (tensor<1x256x40x40x!quant.uniform<i8:f32, 0.063787422834645668>>, tensor<1x1x1x256xsi8>) -> tensor<1x256x40x40x!quant.uniform<i8:f32, 0.033977317322834648>> loc(#loc87)
    %88 = "top.Weight"() : () -> tensor<128x256x1x1xsi8> loc(#loc88)
    %89 = "top.Weight"() : () -> tensor<1x128x1x1xi32> loc(#loc89)
    %90 = "tpu.Conv2D"(%87, %88, %89) {coeff_merged = false, dilations = [1, 1], do_relu = false, do_winograd = false, dynweight_reorderd = false, group = 1 : i64, kernel_shape = [1, 1], kernel_zp = 0 : i64, multiplier = [16831, 1145703, 533169, 999509, 1146909, 1454389, 990097, 1756321, 18789, 436579, 3314653, 1116399, 939963, 3399173, 242343, 738265, 1478257, 637661, 2551837, 1975673, 1255849, 468111, 3160127, 110835, 554085, 616333, 696975, 751069, 1298325, 1803573, 690113, 1732545, 601489, 421873, 1166379, 15665, 535447, 651705, 411421, 123015, 756091, 17141, 1785839, 341519, 2550939, 27933, 717497, 962159, 1270243, 1424741, 14237, 552753, 1470425, 69305, 1500267, 391279, 1595673, 375427, 1167071, 436507, 1926219, 433005, 1116005, 1230421, 147849, 59397, 1115727, 1780855, 314979, 1751467, 339829, 680445, 2397707, 385015, 224569, 1102725, 155133, 2457581, 2002639, 339701, 871915, 401549, 1733703, 290101, 381531, 974761, 6979667, 314285, 589017, 3661551, 584315, 2176263, 844393, 1110921, 2783407, 1319869, 330811, 1051195, 1086543, 5414697, 203697, 1257803, 1426999, 1807487, 498481, 122991, 1049143, 2473895, 1762177, 525983, 550079, 572965, 378721, 735245, 1914427, 2507501, 1204783, 568655, 1184399, 456407, 2141041, 4175983, 818275, 1344073, 275763, 876219, 1041677, 1430685], pads = [0, 0, 0, 0], quant_mode = #tpu<rq_mode MultiplierShift>, relu_limit = -1.000000e+00 : f64, round_mode = #tpu<round_mode HalfUp>, rshift = [23, 29, 29, 29, 30, 29, 30, 30, 24, 29, 30, 29, 30, 30, 27, 29, 30, 28, 30, 30, 30, 29, 30, 26, 28, 29, 29, 29, 29, 29, 28, 30, 29, 28, 30, 23, 28, 29, 28, 25, 29, 23, 30, 27, 30, 24, 29, 29, 30, 30, 23, 29, 30, 25, 30, 28, 30, 28, 29, 29, 30, 28, 30, 30, 27, 25, 30, 30, 28, 30, 27, 29, 30, 28, 28, 30, 27, 30, 30, 28, 29, 28, 30, 27, 28, 28, 29, 28, 28, 30, 29, 30, 29, 29, 30, 30, 28, 30, 29, 30, 27, 29, 30, 30, 29, 26, 29, 30, 30, 29, 29, 29, 27, 29, 30, 30, 30, 29, 30, 29, 30, 30, 29, 30, 27, 29, 29, 30], strides = [1, 1], support_compress = true, use_3ic_optimize = 0 : i64, weight_is_coeff = 1 : i64, with_bias = true} : (tensor<1x256x40x40x!quant.uniform<i8:f32, 0.033977317322834648>>, tensor<128x256x1x1xsi8>, tensor<1x128x1x1xi32>) -> tensor<1x128x40x40x!quant.uniform<i8:f32, 0.030121476377952757>> loc(#loc90)
    %91 = "top.Weight"() : () -> tensor<1x1x1x256xsi8> loc(#loc91)
    %92 = "tpu.Lut"(%90, %91) : (tensor<1x128x40x40x!quant.uniform<i8:f32, 0.030121476377952757>>, tensor<1x1x1x256xsi8>) -> tensor<1x128x40x40x!quant.uniform<i8:f32, 0.014900897637795276>> loc(#loc92)
    %93 = "top.Weight"() : () -> tensor<128x128x1x1xsi8> loc(#loc93)
    %94 = "top.Weight"() : () -> tensor<1x128x1x1xi32> loc(#loc94)
    %95 = "tpu.Conv2D"(%92, %93, %94) {coeff_merged = false, dilations = [1, 1], do_relu = false, do_winograd = false, dynweight_reorderd = false, group = 1 : i64, kernel_shape = [1, 1], kernel_zp = 0 : i64, multiplier = [1300865, 1423401, 1467117, 2598045, 980111, 2743405, 648907, 4671241, 871897, 1481525, 3493633, 1165433, 1414991, 1858269, 1628909, 1125971, 2735995, 1594615, 3645265, 358077, 803983, 2118065, 3594385, 2204665, 1148111, 3606699, 1457131, 1893331, 2663175, 2156725, 630769, 618147, 1224963, 989653, 194831, 1357961, 1631621, 1844739, 262779, 259265, 729371, 1369859, 984293, 308947, 1501555, 1702303, 443183, 1263299, 3962327, 2558175, 500645, 2107803, 2040871, 3009329, 811579, 502027, 1511207, 145967, 3497, 768045, 168911, 340367, 3131233, 5643, 768429, 512747, 1345329, 4044589, 1546705, 32895, 1163047, 2100203, 3732377, 729693, 1531847, 327589, 498233, 2233845, 1099385, 2355193, 1430419, 714547, 3155549, 2201137, 32735, 2281051, 1362595, 1903821, 395783, 411201, 4848195, 2125713, 757783, 3327575, 1920057, 392315, 177041, 196385, 1763489, 2740359, 558621, 3112129, 5988143, 3261881, 2332865, 1669429, 137073, 323977, 2303321, 2909901, 2107899, 1608181, 1551487, 8705, 686449, 893157, 2432321, 3642187, 1744635, 27743, 2217905, 1238517, 1490413, 2572821, 330149, 2216537, 1083441, 1875147], pads = [0, 0, 0, 0], quant_mode = #tpu<rq_mode MultiplierShift>, relu_limit = -1.000000e+00 : f64, round_mode = #tpu<round_mode HalfUp>, rshift = [29, 29, 29, 29, 29, 30, 28, 30, 28, 29, 30, 29, 29, 29, 29, 29, 30, 29, 30, 27, 28, 29, 30, 30, 29, 30, 29, 29, 30, 30, 28, 28, 29, 28, 26, 29, 29, 30, 27, 26, 28, 29, 28, 27, 29, 29, 27, 29, 30, 30, 27, 29, 29, 30, 28, 27, 29, 26, 20, 28, 26, 27, 30, 21, 28, 28, 29, 30, 29, 24, 29, 29, 30, 28, 29, 27, 28, 30, 28, 30, 29, 28, 30, 30, 24, 30, 29, 29, 27, 27, 30, 29, 28, 30, 29, 27, 25, 26, 29, 30, 28, 30, 30, 30, 29, 29, 26, 27, 30, 30, 30, 29, 29, 22, 28, 28, 30, 30, 29, 23, 30, 29, 29, 30, 26, 30, 29, 29], strides = [1, 1], support_compress = true, use_3ic_optimize = 0 : i64, weight_is_coeff = 1 : i64, with_bias = true} : (tensor<1x128x40x40x!quant.uniform<i8:f32, 0.014900897637795276>>, tensor<128x128x1x1xsi8>, tensor<1x128x1x1xi32>) -> tensor<1x128x40x40x!quant.uniform<i8:f32, 0.059924351181102363>> loc(#loc95)
    %96 = "top.Weight"() : () -> tensor<1x1x1x256xsi8> loc(#loc96)
    %97 = "tpu.Lut"(%95, %96) : (tensor<1x128x40x40x!quant.uniform<i8:f32, 0.059924351181102363>>, tensor<1x1x1x256xsi8>) -> tensor<1x128x40x40x!quant.uniform<i8:f32, 0.042636174015748034>> loc(#loc97)
    %98 = "top.Weight"() : () -> tensor<128x128x3x3xsi8> loc(#loc98)
    %99 = "top.Weight"() : () -> tensor<1x128x1x1xi32> loc(#loc99)
    %100 = "tpu.Conv2D"(%97, %98, %99) {coeff_merged = false, dilations = [1, 1], do_relu = false, do_winograd = false, dynweight_reorderd = false, group = 1 : i64, kernel_shape = [3, 3], kernel_zp = 0 : i64, multiplier = [596085, 1112515, 407781, 29595, 117949, 393281, 477519, 420771, 1098707, 572743, 582465, 877619, 549277, 651857, 1403913, 29401, 408249, 812261, 147547, 358119, 36075, 464475, 114957, 154485, 1234829, 612345, 650593, 636069, 243173, 20329, 244103, 725749, 744813, 157727, 511431, 293907, 583207, 1289271, 1957229, 871763, 125819, 338755, 30953, 229121, 138037, 336675, 80837, 1613943, 618927, 857605, 669431, 932201, 153711, 291283, 583737, 374831, 315961, 172033, 503925, 496231, 939123, 827567, 598709, 1016031, 472569, 619827, 1076709, 1651449, 708703, 80529, 1157949, 644719, 324785, 311555, 1302631, 150417, 489147, 469961, 137865, 745909, 56889, 41123, 1708435, 80463, 84885, 583995, 809353, 822271, 214999, 330745, 274195, 105035, 946949, 146531, 395847, 222571, 254675, 360801, 710507, 792773, 1167625, 1755909, 679625, 1211191, 798507, 745043, 331257, 387661, 724135, 420079, 85, 367881, 96891, 172605, 51175, 690459, 843809, 427467, 309273, 121249, 176079, 664603, 168669, 108063, 619303, 692599, 823303, 1004543], pads = [1, 1, 1, 1], quant_mode = #tpu<rq_mode MultiplierShift>, relu_limit = -1.000000e+00 : f64, round_mode = #tpu<round_mode HalfUp>, rshift = [30, 30, 30, 25, 28, 29, 30, 30, 30, 30, 30, 30, 30, 29, 30, 25, 30, 30, 28, 29, 24, 29, 27, 29, 30, 30, 30, 30, 28, 24, 28, 30, 30, 28, 30, 29, 30, 30, 30, 30, 28, 28, 26, 29, 27, 29, 27, 29, 30, 30, 30, 30, 28, 29, 30, 29, 29, 28, 29, 29, 30, 30, 30, 30, 28, 30, 30, 30, 30, 28, 30, 30, 29, 29, 30, 28, 30, 29, 28, 30, 26, 26, 30, 27, 27, 29, 30, 30, 29, 29, 29, 28, 29, 28, 30, 29, 29, 29, 30, 30, 30, 30, 30, 30, 30, 30, 29, 29, 30, 30, 17, 29, 28, 28, 27, 30, 30, 30, 30, 28, 29, 30, 28, 28, 30, 30, 30, 30], strides = [1, 1], support_compress = true, use_3ic_optimize = 0 : i64, weight_is_coeff = 1 : i64, with_bias = true} : (tensor<1x128x40x40x!quant.uniform<i8:f32, 0.042636174015748034>>, tensor<128x128x3x3xsi8>, tensor<1x128x1x1xi32>) -> tensor<1x128x40x40x!quant.uniform<i8:f32, 0.055917454330708667>> loc(#loc100)
    %101 = "top.Weight"() : () -> tensor<1x1x1x256xsi8> loc(#loc101)
    %102 = "tpu.Lut"(%100, %101) : (tensor<1x128x40x40x!quant.uniform<i8:f32, 0.055917454330708667>>, tensor<1x1x1x256xsi8>) -> tensor<1x128x40x40x!quant.uniform<i8:f32, 0.018550628346456693>> loc(#loc102)
    %103 = "tpu.Add"(%92, %102) {do_relu = false, multipliers = [95, 119], relu_limit = -1.000000e+00 : f64, rshifts = [7, 7]} : (tensor<1x128x40x40x!quant.uniform<i8:f32, 0.014900897637795276>>, tensor<1x128x40x40x!quant.uniform<i8:f32, 0.018550628346456693>>) -> tensor<1x128x40x40x!quant.uniform<i8:f32, 0.02003296535433071>> loc(#loc103)
    %104 = "top.Weight"() : () -> tensor<128x128x1x1xsi8> loc(#loc104)
    %105 = "top.Weight"() : () -> tensor<1x128x1x1xi32> loc(#loc105)
    %106 = "tpu.Conv2D"(%103, %104, %105) {coeff_merged = false, dilations = [1, 1], do_relu = false, do_winograd = false, dynweight_reorderd = false, group = 1 : i64, kernel_shape = [1, 1], kernel_zp = 0 : i64, multiplier = [2724649, 2149115, 2526663, 3318073, 7554113, 882197, 3609471, 1203905, 1148529, 736577, 2724047, 2489159, 2288485, 778113, 5220393, 3271795, 1066375, 1359315, 2354447, 60973, 533067, 1376381, 1074631, 408363, 1080381, 2334443, 1735681, 878367, 3108251, 1528489, 532585, 1212077, 2609565, 1179115, 3794249, 589005, 3406209, 1572561, 1567671, 1771959, 2015053, 3238207, 2560907, 1133743, 1440339, 2311873, 1313673, 2798491, 1435817, 1411447, 1026609, 2085403, 902327, 1443569, 572405, 276457, 3940773, 2891893, 247073, 285119, 4167495, 2881915, 3102425, 1134457, 2559541, 1807919, 1241541, 3714999, 1176967, 2378817, 755441, 1284661, 5421273, 1476103, 1235401, 3964883, 2356413, 1774103, 2923601, 2425137, 316821, 3303293, 1434669, 2865735, 293115, 1485285, 300591, 237415, 5356473, 1155999, 1448485, 1586393, 508919, 1204857, 2909697, 1947839, 2525007, 119065, 1098541, 490369, 2327125, 6021261, 643053, 4570933, 1225233, 1931577, 2732459, 1330937, 531557, 2766147, 3055105, 1288113, 2041137, 3456559, 6530935, 192689, 2815477, 3093879, 1375977, 2425189, 1372379, 2681597, 3525793, 1977629, 479007, 2247201, 1341511, 1580417], pads = [0, 0, 0, 0], quant_mode = #tpu<rq_mode MultiplierShift>, relu_limit = -1.000000e+00 : f64, round_mode = #tpu<round_mode HalfUp>, rshift = [30, 29, 30, 30, 30, 28, 30, 29, 29, 28, 30, 29, 30, 28, 30, 30, 29, 29, 30, 25, 27, 29, 28, 27, 29, 30, 29, 28, 30, 29, 27, 29, 30, 29, 30, 28, 30, 29, 30, 29, 29, 30, 30, 29, 29, 30, 29, 29, 29, 29, 29, 29, 28, 29, 27, 27, 30, 30, 26, 27, 30, 30, 30, 28, 30, 29, 29, 30, 29, 30, 28, 29, 30, 28, 29, 30, 29, 29, 30, 30, 27, 30, 29, 30, 27, 29, 27, 27, 30, 29, 29, 29, 27, 29, 30, 30, 30, 27, 28, 28, 30, 30, 28, 30, 29, 29, 30, 28, 27, 30, 30, 29, 30, 29, 30, 26, 30, 30, 29, 29, 29, 30, 30, 29, 28, 30, 29, 30], strides = [1, 1], support_compress = true, use_3ic_optimize = 0 : i64, weight_is_coeff = 1 : i64, with_bias = true} : (tensor<1x128x40x40x!quant.uniform<i8:f32, 0.02003296535433071>>, tensor<128x128x1x1xsi8>, tensor<1x128x1x1xi32>) -> tensor<1x128x40x40x!quant.uniform<i8:f32, 0.051305083464566928>> loc(#loc106)
    %107 = "top.Weight"() : () -> tensor<1x1x1x256xsi8> loc(#loc107)
    %108 = "tpu.Lut"(%106, %107) : (tensor<1x128x40x40x!quant.uniform<i8:f32, 0.051305083464566928>>, tensor<1x1x1x256xsi8>) -> tensor<1x128x40x40x!quant.uniform<i8:f32, 0.039380272440944879>> loc(#loc108)
    %109 = "top.Weight"() : () -> tensor<128x128x3x3xsi8> loc(#loc109)
    %110 = "top.Weight"() : () -> tensor<1x128x1x1xi32> loc(#loc110)
    %111 = "tpu.Conv2D"(%108, %109, %110) {coeff_merged = false, dilations = [1, 1], do_relu = false, do_winograd = false, dynweight_reorderd = false, group = 1 : i64, kernel_shape = [3, 3], kernel_zp = 0 : i64, multiplier = [352783, 3469763, 4833, 219203, 283937, 1228793, 734269, 146559, 1395695, 827287, 1349479, 1879349, 177765, 763335, 713689, 1900643, 291669, 1593781, 9221, 1100093, 872983, 2196481, 846085, 376245, 128819, 598127, 935271, 820399, 535197, 287263, 1880297, 2617357, 2281921, 764671, 880131, 1827207, 2103659, 1357751, 181203, 1822631, 357115, 1227275, 1850443, 698563, 179603, 1414391, 1253391, 172251, 200545, 1273351, 490725, 15175, 2756461, 305925, 1931073, 2531825, 190545, 72499, 1278385, 562505, 1109699, 1091809, 913703, 562225, 1681335, 692605, 776693, 1897609, 177673, 1405695, 2077617, 1905385, 2442837, 210561, 2150643, 47665, 648415, 2464605, 788013, 1996115, 601695, 1000609, 211513, 100363, 1265005, 1388885, 351693, 369655, 1297947, 132783, 809747, 68077, 2713083, 90797, 69425, 38977, 710737, 163459, 1261209, 993419, 1013755, 2088155, 1552073, 1862573, 1461105, 2437545, 1280233, 550487, 855957, 1425925, 551813, 874163, 1899581, 1420609, 1642543, 821677, 2409795, 2043445, 285143, 641321, 106887, 336259, 1825885, 1214741, 1320817, 293765, 517521, 1204387], pads = [1, 1, 1, 1], quant_mode = #tpu<rq_mode MultiplierShift>, relu_limit = -1.000000e+00 : f64, round_mode = #tpu<round_mode HalfUp>, rshift = [28, 30, 22, 27, 28, 29, 29, 27, 30, 30, 30, 30, 28, 29, 29, 30, 28, 30, 23, 30, 29, 30, 29, 28, 26, 29, 29, 29, 29, 27, 30, 30, 30, 29, 29, 30, 30, 30, 27, 30, 28, 29, 30, 29, 27, 30, 30, 27, 27, 30, 29, 24, 30, 28, 30, 30, 27, 25, 30, 29, 29, 30, 30, 29, 30, 29, 29, 30, 27, 30, 30, 30, 30, 27, 30, 25, 29, 30, 29, 30, 29, 30, 27, 26, 30, 30, 28, 28, 30, 27, 29, 26, 30, 25, 26, 25, 29, 27, 30, 29, 29, 30, 30, 30, 30, 30, 30, 29, 30, 30, 29, 29, 30, 30, 30, 29, 30, 30, 28, 29, 26, 28, 30, 30, 30, 27, 29, 28], strides = [1, 1], support_compress = true, use_3ic_optimize = 0 : i64, weight_is_coeff = 1 : i64, with_bias = true} : (tensor<1x128x40x40x!quant.uniform<i8:f32, 0.039380272440944879>>, tensor<128x128x3x3xsi8>, tensor<1x128x1x1xi32>) -> tensor<1x128x40x40x!quant.uniform<i8:f32, 0.045380907874015747>> loc(#loc111)
    %112 = "top.Weight"() : () -> tensor<1x1x1x256xsi8> loc(#loc112)
    %113 = "tpu.Lut"(%111, %112) : (tensor<1x128x40x40x!quant.uniform<i8:f32, 0.045380907874015747>>, tensor<1x1x1x256xsi8>) -> tensor<1x128x40x40x!quant.uniform<i8:f32, 0.029157995275590549>> loc(#loc113)
    %114 = "tpu.Add"(%103, %113) {do_relu = false, multipliers = [67, 49], relu_limit = -1.000000e+00 : f64, rshifts = [7, 6]} : (tensor<1x128x40x40x!quant.uniform<i8:f32, 0.02003296535433071>>, tensor<1x128x40x40x!quant.uniform<i8:f32, 0.029157995275590549>>) -> tensor<1x128x40x40x!quant.uniform<i8:f32, 0.038235908661417323>> loc(#loc114)
    %115 = "top.Weight"() : () -> tensor<128x128x1x1xsi8> loc(#loc115)
    %116 = "top.Weight"() : () -> tensor<1x128x1x1xi32> loc(#loc116)
    %117 = "tpu.Conv2D"(%114, %115, %116) {coeff_merged = false, dilations = [1, 1], do_relu = false, do_winograd = false, dynweight_reorderd = false, group = 1 : i64, kernel_shape = [1, 1], kernel_zp = 0 : i64, multiplier = [2557633, 1488307, 1247701, 2852121, 2668853, 1639713, 1643831, 2644601, 3546621, 6011237, 565063, 2343513, 636151, 667211, 2161767, 771851, 311359, 253653, 506619, 190615, 653983, 2023403, 716733, 2302387, 1566153, 139883, 1774509, 1776591, 3676623, 3862695, 1348727, 570685, 717655, 445025, 1706135, 77245, 980929, 1684911, 1709643, 476255, 2765767, 3315539, 765151, 1144189, 808187, 3712475, 2479885, 1611985, 1465439, 2730513, 3077113, 2900481, 2445541, 427743, 1859657, 1186323, 4968601, 47777, 830017, 1726565, 3733307, 3502625, 2285975, 1365487, 3839087, 2124403, 1758503, 1396905, 868781, 2539903, 1399181, 1582629, 613789, 2812223, 1598173, 4595459, 789823, 3020701, 1493081, 3778045, 1276927, 845363, 3314545, 2671711, 3420033, 1936535, 2506499, 2895847, 2127055, 687775, 599401, 2238753, 3854225, 2438261, 235361, 433457, 1157857, 1583225, 1311091, 4191075, 625229, 1350421, 2693509, 1276477, 1296181, 2291393, 3053365, 2811495, 1382697, 2374897, 616963, 1449609, 2459989, 3380191, 746271, 1445635, 1478045, 227929, 3274533, 3124489, 3223911, 2328407, 1389913, 145201, 77805, 3131461, 1220423, 741935], pads = [0, 0, 0, 0], quant_mode = #tpu<rq_mode MultiplierShift>, relu_limit = -1.000000e+00 : f64, round_mode = #tpu<round_mode HalfUp>, rshift = [30, 29, 29, 30, 30, 29, 29, 30, 30, 30, 28, 30, 28, 28, 29, 28, 27, 28, 27, 26, 28, 29, 28, 30, 29, 26, 30, 29, 30, 30, 29, 28, 28, 27, 29, 25, 28, 28, 30, 27, 30, 29, 28, 29, 28, 30, 29, 29, 29, 29, 30, 30, 29, 28, 29, 29, 30, 24, 28, 29, 30, 30, 29, 29, 30, 29, 29, 29, 28, 30, 29, 29, 28, 30, 29, 30, 28, 30, 29, 30, 28, 29, 30, 30, 30, 30, 29, 30, 30, 28, 28, 30, 30, 30, 26, 28, 29, 29, 29, 30, 28, 29, 30, 29, 29, 30, 29, 30, 29, 29, 28, 29, 30, 30, 28, 30, 29, 27, 30, 30, 30, 30, 29, 26, 25, 30, 29, 28], strides = [1, 1], support_compress = true, use_3ic_optimize = 0 : i64, weight_is_coeff = 1 : i64, with_bias = true} : (tensor<1x128x40x40x!quant.uniform<i8:f32, 0.038235908661417323>>, tensor<128x128x1x1xsi8>, tensor<1x128x1x1xi32>) -> tensor<1x128x40x40x!quant.uniform<i8:f32, 0.051927754330708661>> loc(#loc117)
    %118 = "top.Weight"() : () -> tensor<1x1x1x256xsi8> loc(#loc118)
    %119 = "tpu.Lut"(%117, %118) : (tensor<1x128x40x40x!quant.uniform<i8:f32, 0.051927754330708661>>, tensor<1x1x1x256xsi8>) -> tensor<1x128x40x40x!quant.uniform<i8:f32, 0.045076109448818895>> loc(#loc119)
    %120 = "top.Weight"() : () -> tensor<128x128x3x3xsi8> loc(#loc120)
    %121 = "top.Weight"() : () -> tensor<1x128x1x1xi32> loc(#loc121)
    %122 = "tpu.Conv2D"(%119, %120, %121) {coeff_merged = false, dilations = [1, 1], do_relu = false, do_winograd = false, dynweight_reorderd = false, group = 1 : i64, kernel_shape = [3, 3], kernel_zp = 0 : i64, multiplier = [741833, 997579, 1270235, 1912903, 1559303, 1142497, 766353, 1532263, 1462153, 1202273, 1589347, 993755, 585217, 2047763, 1471343, 306541, 589297, 460799, 458155, 2320651, 230075, 1060059, 198555, 152857, 615041, 2817631, 1656835, 1519913, 723569, 1298195, 1346953, 2199077, 1992333, 758901, 2021827, 479581, 2314087, 1740131, 1110721, 509147, 1305983, 169195, 395307, 857517, 229021, 874087, 984305, 2782815, 180997, 1082955, 310407, 1416613, 2088179, 1470763, 1578559, 163561, 706643, 1160459, 1717095, 2706861, 845203, 1541411, 302977, 2040623, 1860513, 743423, 1226135, 368391, 352879, 494631, 310153, 897637, 942285, 1787109, 460321, 938537, 751145, 975521, 509979, 31043, 338101, 1684383, 598277, 200207, 1058373, 754251, 257857, 1744825, 214163, 758273, 785649, 690599, 2563843, 1185719, 459061, 1109151, 292043, 686611, 638439, 811917, 458179, 248255, 1758589, 2116159, 1056467, 1876465, 1636377, 1441489, 377707, 100497, 222447, 1687073, 738463, 1524609, 1632881, 779271, 1948993, 2417727, 1175591, 2993691, 1798841, 503671, 1885281, 2220663, 393645, 378027, 1407315, 3646237], pads = [1, 1, 1, 1], quant_mode = #tpu<rq_mode MultiplierShift>, relu_limit = -1.000000e+00 : f64, round_mode = #tpu<round_mode HalfUp>, rshift = [29, 29, 30, 30, 30, 30, 29, 30, 30, 29, 30, 29, 29, 30, 30, 27, 28, 28, 28, 30, 27, 30, 27, 26, 28, 30, 30, 30, 29, 29, 29, 30, 30, 29, 30, 28, 30, 30, 29, 28, 30, 27, 27, 29, 27, 29, 29, 29, 26, 29, 28, 30, 30, 30, 29, 26, 29, 29, 30, 30, 29, 29, 28, 30, 30, 29, 30, 28, 28, 29, 28, 29, 29, 30, 28, 29, 29, 29, 28, 24, 27, 30, 28, 27, 29, 29, 28, 30, 27, 29, 29, 29, 30, 28, 28, 30, 28, 29, 29, 29, 28, 27, 29, 30, 29, 30, 30, 30, 28, 26, 27, 30, 29, 30, 30, 29, 30, 30, 30, 30, 30, 28, 30, 30, 28, 28, 30, 30], strides = [1, 1], support_compress = true, use_3ic_optimize = 0 : i64, weight_is_coeff = 1 : i64, with_bias = true} : (tensor<1x128x40x40x!quant.uniform<i8:f32, 0.045076109448818895>>, tensor<128x128x3x3xsi8>, tensor<1x128x1x1xi32>) -> tensor<1x128x40x40x!quant.uniform<i8:f32, 0.067552266141732278>> loc(#loc122)
    %123 = "top.Weight"() : () -> tensor<1x1x1x256xsi8> loc(#loc123)
    %124 = "tpu.Lut"(%122, %123) : (tensor<1x128x40x40x!quant.uniform<i8:f32, 0.067552266141732278>>, tensor<1x1x1x256xsi8>) -> tensor<1x128x40x40x!quant.uniform<i8:f32, 0.043672233858267719>> loc(#loc124)
    %125 = "tpu.Add"(%114, %124) {do_relu = false, multipliers = [93, 107], relu_limit = -1.000000e+00 : f64, rshifts = [7, 7]} : (tensor<1x128x40x40x!quant.uniform<i8:f32, 0.038235908661417323>>, tensor<1x128x40x40x!quant.uniform<i8:f32, 0.043672233858267719>>) -> tensor<1x128x40x40x!quant.uniform<i8:f32, 0.052360886614173228>> loc(#loc125)
    %126 = "top.Weight"() : () -> tensor<128x256x1x1xsi8> loc(#loc126)
    %127 = "top.Weight"() : () -> tensor<1x128x1x1xi32> loc(#loc127)
    %128 = "tpu.Conv2D"(%87, %126, %127) {coeff_merged = false, dilations = [1, 1], do_relu = false, do_winograd = false, dynweight_reorderd = false, group = 1 : i64, kernel_shape = [1, 1], kernel_zp = 0 : i64, multiplier = [1501177, 1395401, 1605225, 197243, 4701195, 2478337, 3301107, 2765131, 4122705, 440131, 2758207, 635495, 1170887, 1037627, 1138549, 410659, 588981, 2144435, 2456569, 3042879, 1329791, 752627, 3217051, 1967545, 2946327, 2649813, 3429663, 1622013, 3160751, 730981, 121933, 1260191, 2061687, 3121625, 2783569, 1511927, 1306997, 3055845, 4162573, 4029191, 2943545, 1156627, 1382475, 3129583, 1521703, 957841, 193945, 2478855, 2949721, 1660709, 1339817, 1146695, 3106959, 721877, 1608159, 594693, 3585675, 3932803, 1491739, 1168007, 2273451, 1465571, 2742343, 187501, 1072233, 3216905, 425317, 3522181, 1796085, 3243511, 2752447, 1408305, 1968537, 6956919, 670255, 3205053, 3087269, 2057179, 2963599, 1065813, 1045007, 1021907, 1697587, 1386935, 5483555, 602059, 3979689, 1632819, 96703, 1723429, 1063583, 386315, 1205389, 5069203, 2776949, 1425327, 3997739, 3015955, 2281357, 4514087, 1643025, 5689939, 1149117, 1968957, 85837, 880083, 643849, 829517, 443713, 2613609, 1475799, 1112287, 1713821, 3581527, 3139937, 296965, 2470193, 2477489, 2872721, 4048321, 3469211, 1709217, 3589057, 1617309, 2604585, 592375, 3926409, 2349823], pads = [0, 0, 0, 0], quant_mode = #tpu<rq_mode MultiplierShift>, relu_limit = -1.000000e+00 : f64, round_mode = #tpu<round_mode HalfUp>, rshift = [29, 28, 29, 26, 30, 30, 30, 30, 30, 27, 30, 28, 29, 29, 28, 27, 28, 29, 30, 30, 29, 28, 30, 29, 30, 30, 30, 29, 30, 28, 25, 29, 29, 30, 30, 29, 29, 30, 30, 30, 30, 29, 29, 30, 29, 28, 26, 30, 30, 29, 29, 29, 30, 28, 29, 27, 30, 30, 29, 29, 30, 28, 30, 26, 29, 30, 27, 30, 29, 29, 30, 28, 29, 30, 28, 30, 30, 30, 30, 28, 28, 28, 29, 29, 30, 28, 30, 29, 25, 29, 28, 27, 28, 30, 30, 29, 30, 29, 29, 30, 29, 30, 29, 29, 24, 28, 28, 28, 27, 30, 29, 29, 29, 30, 30, 27, 30, 30, 30, 30, 30, 29, 30, 29, 30, 28, 29, 30], strides = [1, 1], support_compress = true, use_3ic_optimize = 0 : i64, weight_is_coeff = 1 : i64, with_bias = true} : (tensor<1x256x40x40x!quant.uniform<i8:f32, 0.033977317322834648>>, tensor<128x256x1x1xsi8>, tensor<1x128x1x1xi32>) -> tensor<1x128x40x40x!quant.uniform<i8:f32, 0.052100023622047249>> loc(#loc128)
    %129 = "top.Weight"() : () -> tensor<1x1x1x256xsi8> loc(#loc129)
    %130 = "tpu.Lut"(%128, %129) : (tensor<1x128x40x40x!quant.uniform<i8:f32, 0.052100023622047249>>, tensor<1x1x1x256xsi8>) -> tensor<1x128x40x40x!quant.uniform<i8:f32, 0.052360886614173228>> loc(#loc130)
    %131 = "tpu.Concat"(%125, %130) {axis = 1 : si32, do_relu = false, only_merge = false, relu_limit = -1.000000e+00 : f64} : (tensor<1x128x40x40x!quant.uniform<i8:f32, 0.052360886614173228>>, tensor<1x128x40x40x!quant.uniform<i8:f32, 0.052360886614173228>>) -> tensor<1x256x40x40x!quant.uniform<i8:f32, 0.052360886614173228>> loc(#loc131)
    %132 = "top.Weight"() : () -> tensor<256x256x1x1xsi8> loc(#loc132)
    %133 = "top.Weight"() : () -> tensor<1x256x1x1xi32> loc(#loc133)
    %134 = "tpu.Conv2D"(%131, %132, %133) {coeff_merged = false, dilations = [1, 1], do_relu = false, do_winograd = false, dynweight_reorderd = false, group = 1 : i64, kernel_shape = [1, 1], kernel_zp = 0 : i64, multiplier = [310381, 1718127, 20463, 1397771, 1688589, 250123, 2539463, 833219, 1164583, 1528305, 1061831, 105471, 832429, 922623, 22957, 2666905, 230377, 2154607, 2095163, 1296805, 846789, 1602815, 1189591, 933313, 1683863, 126997, 438405, 2361905, 258181, 1760181, 2750605, 1744245, 1983211, 323901, 1427753, 1246041, 1427425, 1610733, 97263, 1939567, 3772501, 949475, 1670821, 101213, 1860999, 1771393, 788271, 2568455, 1420797, 924211, 231633, 879433, 1537983, 2425913, 509957, 2800933, 2019993, 1756467, 1164147, 1999, 2567561, 561349, 2406133, 1133419, 1173289, 1338807, 2538413, 1659221, 382951, 1430725, 1004407, 2118583, 2325311, 305103, 419145, 2428155, 1436419, 460923, 880945, 1097643, 1498899, 1121623, 1348767, 1107361, 302221, 1764049, 732001, 1569223, 1472927, 1340289, 1901411, 935887, 1051809, 1018225, 1521333, 877271, 1616293, 1638033, 2945089, 1953169, 1438489, 1135411, 580409, 1116391, 1929935, 1228805, 108849, 578803, 2569973, 1181331, 509791, 1395863, 2740629, 1264697, 1847339, 2710805, 235393, 362461, 1006451, 2696725, 966009, 991511, 1932797, 99229, 1633419, 445675, 392479, 1253743, 1215665, 1951277, 1020063, 2098101, 51267, 112725, 119547, 1223151, 1953991, 1519501, 1412907, 682097, 786915, 2339555, 1518903, 827645, 1923229, 2191415, 390527, 450927, 410187, 1917115, 1658083, 2099935, 769905, 470557, 619479, 167433, 813743, 1532371, 1671545, 324659, 504113, 105965, 2939631, 191489, 928397, 1655735, 64855, 726593, 543491, 1375343, 2650819, 1814275, 1230327, 1530481, 146047, 1390435, 1996573, 953155, 1789321, 936225, 35587, 1280507, 1027807, 1057691, 844575, 368751, 592995, 1009039, 1393347, 1612117, 346289, 2492693, 25945, 200579, 891903, 1105001, 500271, 2851129, 218289, 2329707, 1794175, 602181, 238497, 1953169, 773057, 1539683, 1762897, 1751859, 772227, 1941113, 3405737, 1539079, 2134235, 228523, 1091531, 468191, 1787491, 121767, 1552659, 1895907, 2369335, 2118269, 638539, 1313141, 921005, 845203, 371329, 1646187, 840159, 1653671, 955319, 293035, 2245031, 24867, 37619, 497999, 200195, 527461, 997069, 434083, 1149443, 3016899, 1266275, 2720689, 350221, 715751, 414629, 1332031, 105881, 219337, 3039401, 2286985, 192215, 1925205, 1737837, 768429], pads = [0, 0, 0, 0], quant_mode = #tpu<rq_mode MultiplierShift>, relu_limit = -1.000000e+00 : f64, round_mode = #tpu<round_mode HalfUp>, rshift = [28, 30, 24, 30, 30, 27, 30, 28, 30, 30, 28, 26, 29, 29, 24, 30, 27, 30, 30, 30, 28, 30, 30, 29, 30, 26, 28, 30, 27, 30, 30, 30, 30, 28, 29, 29, 30, 30, 25, 30, 30, 29, 30, 26, 30, 30, 28, 30, 30, 29, 27, 29, 30, 30, 28, 30, 30, 30, 29, 20, 30, 28, 30, 29, 29, 29, 30, 30, 28, 30, 29, 30, 30, 27, 28, 30, 30, 28, 29, 30, 29, 29, 30, 29, 27, 30, 29, 30, 30, 29, 30, 29, 29, 29, 30, 29, 30, 30, 30, 30, 30, 29, 28, 30, 30, 29, 26, 28, 30, 29, 29, 30, 30, 30, 30, 30, 28, 27, 29, 30, 30, 29, 30, 26, 30, 28, 28, 29, 29, 30, 29, 30, 25, 26, 26, 29, 30, 30, 30, 29, 29, 30, 30, 29, 30, 30, 28, 28, 28, 30, 30, 30, 29, 28, 28, 27, 29, 29, 29, 28, 29, 26, 30, 28, 29, 29, 26, 29, 29, 29, 30, 30, 30, 30, 26, 30, 30, 28, 30, 29, 25, 29, 29, 29, 29, 28, 28, 29, 29, 30, 28, 30, 24, 27, 29, 29, 28, 30, 27, 30, 30, 28, 27, 30, 29, 29, 30, 30, 29, 30, 30, 29, 30, 27, 29, 27, 30, 26, 30, 30, 30, 30, 29, 29, 29, 29, 28, 30, 29, 30, 29, 28, 30, 23, 25, 28, 27, 28, 29, 28, 29, 30, 30, 30, 28, 29, 28, 30, 26, 27, 30, 29, 26, 30, 30, 29], strides = [1, 1], support_compress = true, use_3ic_optimize = 0 : i64, weight_is_coeff = 1 : i64, with_bias = true} : (tensor<1x256x40x40x!quant.uniform<i8:f32, 0.052360886614173228>>, tensor<256x256x1x1xsi8>, tensor<1x256x1x1xi32>) -> tensor<1x256x40x40x!quant.uniform<i8:f32, 0.05543504566929134>> loc(#loc134)
    %135 = "top.Weight"() : () -> tensor<1x1x1x256xsi8> loc(#loc135)
    %136 = "tpu.Lut"(%134, %135) : (tensor<1x256x40x40x!quant.uniform<i8:f32, 0.05543504566929134>>, tensor<1x1x1x256xsi8>) -> tensor<1x256x40x40x!quant.uniform<i8:f32, 0.040043029133858273>> loc(#loc136)
    %137 = "top.Weight"() : () -> tensor<512x256x3x3xsi8> loc(#loc137)
    %138 = "top.Weight"() : () -> tensor<1x512x1x1xi32> loc(#loc138)
    %139 = "tpu.Conv2D"(%136, %137, %138) {coeff_merged = false, dilations = [1, 1], do_relu = false, do_winograd = false, dynweight_reorderd = false, group = 1 : i64, kernel_shape = [3, 3], kernel_zp = 0 : i64, multiplier = [655055, 607803, 110123, 380229, 979693, 1102525, 32637, 106695, 64747, 737957, 1184253, 1590941, 363007, 49517, 1018627, 735211, 722033, 774349, 476077, 735927, 620909, 434507, 890925, 1287355, 874387, 841339, 1130705, 855837, 345817, 984027, 747469, 211323, 475979, 941803, 701909, 392547, 500239, 824155, 969697, 131399, 1766461, 347887, 110943, 1368317, 862725, 800361, 649247, 677471, 526229, 987085, 791577, 423987, 51465, 46419, 691495, 2044301, 231499, 454881, 1109627, 1062877, 555223, 867531, 1068041, 608107, 8523, 413663, 383449, 1321145, 1623457, 844823, 1019927, 779101, 179227, 520371, 883879, 1272017, 665639, 1088647, 490997, 1265705, 199779, 515183, 830899, 37633, 793609, 723405, 461717, 616811, 659977, 274401, 284781, 580873, 365629, 1000813, 2017967, 783791, 231613, 778719, 853493, 92801, 739165, 138647, 812417, 318957, 961545, 835105, 686601, 1276857, 1183117, 879305, 695549, 359639, 2223801, 54195, 174057, 253845, 593291, 763641, 497841, 657711, 813521, 106117, 870907, 385293, 891911, 1429679, 488639, 210667, 540103, 881681, 528141, 672801, 1359993, 196033, 9859, 464159, 323091, 335565, 837547, 405601, 221227, 26027, 467073, 177937, 1424559, 338321, 856847, 446915, 292485, 270095, 704345, 844195, 1833519, 54075, 941273, 550121, 123803, 423999, 693571, 211983, 550803, 706425, 870127, 1956923, 690613, 1716017, 1100555, 1024071, 729115, 144047, 443979, 180141, 805267, 297829, 800623, 877411, 1116697, 844743, 777639, 1489801, 471559, 1149541, 146193, 63307, 381677, 1011379, 907997, 1412951, 723661, 215577, 563131, 88325, 243601, 393701, 344953, 51461, 1136549, 254091, 757897, 301289, 535443, 47115, 1491331, 355277, 947111, 995923, 661827, 21065, 896607, 970611, 769787, 210399, 230861, 1173635, 835941, 723761, 1537115, 55369, 693525, 722401, 239115, 294329, 1385, 343469, 857901, 57225, 118493, 938965, 1001435, 523203, 692045, 671763, 333805, 215197, 26557, 1249171, 585433, 1032727, 557755, 1061047, 208527, 199633, 1202291, 914233, 1767331, 842025, 777719, 1950899, 404075, 931697, 177367, 351171, 518411, 274517, 111837, 748831, 181737, 1259107, 140093, 1083673, 721975, 84617, 266611, 1054365, 1263951, 1141711, 1090113, 1133155, 1171689, 1324983, 1147733, 661769, 664095, 20065, 689995, 299613, 383923, 730027, 393829, 423945, 745431, 608249, 402647, 631073, 91437, 1239853, 197335, 790945, 865571, 1088883, 386265, 955771, 94829, 195103, 53867, 868681, 876917, 1154265, 165067, 382865, 1772927, 485211, 617491, 441291, 230995, 826543, 175199, 889277, 131439, 202467, 74611, 17383, 946865, 260165, 486977, 148347, 101419, 461719, 1199393, 908561, 940075, 754035, 354789, 349361, 1025735, 730959, 401837, 250929, 79171, 247555, 49609, 426005, 458343, 455739, 245085, 341129, 18375, 980615, 757531, 925719, 390443, 713801, 723605, 375709, 491581, 691215, 233583, 6099, 656279, 184623, 437853, 866431, 857703, 376725, 149473, 771603, 177021, 223639, 873329, 691199, 714143, 1319641, 399317, 379047, 1015979, 737463, 957509, 648617, 318843, 810483, 1255173, 896153, 444731, 380039, 615385, 1510041, 835613, 378767, 661917, 695789, 602367, 362573, 173131, 6353, 196899, 1016363, 628301, 362819, 683669, 1072169, 1075923, 929871, 930259, 760745, 1023207, 570327, 408735, 604185, 889557, 50615, 836837, 359149, 639789, 144019, 681129, 995741, 934683, 768313, 841347, 160793, 830307, 947219, 824173, 151989, 444473, 47025, 667823, 275891, 810017, 907417, 163965, 654155, 209605, 367309, 192143, 38943, 241283, 578473, 234295, 1478249, 229795, 535755, 402457, 196545, 708139, 104795, 351591, 50727, 1297705, 809035, 106055, 198273, 951427, 373885, 1410737, 235329, 397313, 643327, 984649, 499197, 719115, 632115, 905603, 50031, 182685, 561271, 1028177, 643493, 108863, 513949, 316297, 179189, 172817, 1009213, 700683, 608949, 123045, 203231, 489937, 942021, 993979, 307485, 587223, 432303, 218933, 291589, 600473, 486517, 1184419, 576541, 204543, 295829, 180255, 17921, 251073, 924777, 627485, 225249, 253431, 420493, 907967, 762651, 116783, 219225, 188655, 811123, 949111, 201803, 808921, 120751, 380091, 483747, 1130509, 705173, 693083, 1536935, 921885, 229761, 423481, 560597, 1054969, 119519], pads = [1, 1, 1, 1], quant_mode = #tpu<rq_mode MultiplierShift>, relu_limit = -1.000000e+00 : f64, round_mode = #tpu<round_mode HalfUp>, rshift = [30, 30, 27, 29, 30, 30, 25, 27, 26, 30, 30, 30, 29, 25, 30, 30, 30, 30, 29, 30, 29, 28, 30, 30, 30, 30, 30, 29, 29, 30, 30, 28, 29, 30, 30, 29, 29, 30, 30, 28, 30, 29, 27, 30, 30, 30, 30, 30, 29, 30, 30, 29, 26, 26, 30, 30, 28, 29, 30, 30, 29, 30, 30, 30, 23, 29, 29, 30, 30, 30, 30, 30, 28, 29, 30, 30, 30, 29, 29, 30, 28, 29, 30, 25, 30, 30, 29, 30, 30, 28, 28, 29, 29, 30, 30, 30, 28, 30, 30, 27, 30, 27, 30, 28, 30, 29, 30, 30, 30, 30, 30, 29, 30, 26, 28, 28, 29, 30, 29, 30, 30, 27, 30, 29, 30, 30, 29, 28, 29, 30, 29, 30, 30, 28, 24, 29, 28, 28, 30, 29, 28, 25, 29, 28, 30, 29, 30, 29, 28, 28, 30, 30, 30, 26, 30, 28, 27, 29, 30, 27, 29, 30, 30, 30, 30, 30, 30, 30, 30, 27, 29, 28, 30, 28, 30, 30, 30, 30, 30, 30, 29, 30, 27, 27, 29, 30, 30, 30, 28, 28, 29, 27, 28, 29, 29, 26, 30, 28, 30, 28, 29, 26, 30, 28, 30, 30, 30, 25, 30, 30, 30, 28, 28, 30, 30, 30, 30, 25, 30, 30, 28, 28, 21, 29, 30, 26, 27, 30, 30, 29, 30, 30, 28, 28, 25, 30, 29, 30, 30, 30, 28, 28, 30, 30, 30, 30, 30, 30, 29, 30, 28, 28, 29, 28, 27, 30, 28, 30, 27, 30, 30, 27, 28, 30, 30, 30, 30, 30, 30, 30, 30, 30, 30, 25, 30, 29, 29, 30, 29, 29, 30, 29, 29, 29, 27, 30, 28, 30, 30, 30, 29, 30, 27, 28, 26, 30, 30, 30, 28, 29, 30, 29, 30, 29, 28, 30, 27, 30, 27, 28, 27, 24, 30, 28, 29, 28, 27, 29, 30, 30, 30, 30, 29, 29, 30, 30, 29, 28, 26, 28, 26, 29, 28, 29, 28, 29, 24, 30, 30, 30, 29, 30, 30, 29, 29, 29, 28, 23, 30, 28, 29, 30, 30, 29, 27, 30, 28, 28, 30, 30, 30, 30, 29, 29, 30, 30, 30, 30, 29, 30, 30, 30, 29, 29, 29, 30, 30, 29, 30, 30, 29, 29, 28, 23, 28, 30, 30, 29, 30, 30, 30, 30, 30, 30, 30, 30, 28, 30, 30, 26, 30, 29, 30, 28, 30, 30, 30, 30, 30, 28, 30, 30, 30, 27, 29, 26, 30, 28, 30, 29, 27, 29, 28, 29, 28, 26, 28, 29, 28, 30, 28, 29, 29, 28, 30, 27, 29, 26, 30, 30, 27, 28, 30, 28, 30, 28, 29, 29, 30, 29, 30, 30, 30, 26, 28, 29, 30, 30, 27, 29, 28, 28, 28, 30, 30, 29, 27, 28, 30, 30, 30, 28, 29, 29, 27, 29, 30, 29, 30, 29, 28, 28, 28, 24, 28, 30, 30, 27, 28, 29, 30, 30, 27, 28, 28, 30, 30, 28, 30, 27, 29, 29, 30, 30, 30, 30, 30, 28, 29, 29, 30, 27], strides = [2, 2], support_compress = true, use_3ic_optimize = 0 : i64, weight_is_coeff = 1 : i64, with_bias = true} : (tensor<1x256x40x40x!quant.uniform<i8:f32, 0.040043029133858273>>, tensor<512x256x3x3xsi8>, tensor<1x512x1x1xi32>) -> tensor<1x512x20x20x!quant.uniform<i8:f32, 0.061178327559055119>> loc(#loc139)
    %140 = "top.Weight"() : () -> tensor<1x1x1x256xsi8> loc(#loc140)
    %141 = "tpu.Lut"(%139, %140) : (tensor<1x512x20x20x!quant.uniform<i8:f32, 0.061178327559055119>>, tensor<1x1x1x256xsi8>) -> tensor<1x512x20x20x!quant.uniform<i8:f32, 0.040236619685039374>> loc(#loc141)
    %142 = "top.Weight"() : () -> tensor<256x512x1x1xsi8> loc(#loc142)
    %143 = "top.Weight"() : () -> tensor<1x256x1x1xi32> loc(#loc143)
    %144 = "tpu.Conv2D"(%141, %142, %143) {coeff_merged = false, dilations = [1, 1], do_relu = false, do_winograd = false, dynweight_reorderd = false, group = 1 : i64, kernel_shape = [1, 1], kernel_zp = 0 : i64, multiplier = [613585, 310363, 1468477, 1156519, 81509, 898809, 1356965, 636131, 974455, 37701, 549353, 777153, 1827311, 131507, 74165, 290863, 329187, 167325, 432999, 1078397, 1945585, 425249, 132233, 310415, 1061991, 1926855, 491159, 1570803, 1383305, 1309693, 1652873, 672943, 1255145, 50739, 2065043, 1071557, 1767867, 410629, 979693, 2004445, 424039, 808463, 722759, 809191, 1429559, 1289887, 447453, 630875, 775921, 890419, 345637, 1053817, 1682515, 1541477, 345931, 1193979, 2219431, 80635, 506215, 1639815, 1907741, 336681, 163607, 688249, 665197, 653091, 582845, 455181, 1009811, 859107, 1046551, 2143177, 872219, 192615, 797207, 184553, 1084181, 250753, 1154573, 173005, 233499, 1184571, 2124421, 1377841, 571565, 456989, 1539191, 1162501, 608395, 539377, 1821247, 959127, 2934355, 8077, 1366587, 498413, 2261847, 2052835, 627517, 1290031, 1615211, 287517, 115297, 821453, 941865, 2373761, 1113451, 1146751, 323577, 507745, 1546485, 1927977, 1633125, 163019, 444069, 1459803, 1194645, 1406795, 609791, 1703303, 475171, 601121, 401853, 1372429, 1380641, 1539663, 1271341, 135227, 235401, 688119, 323173, 548951, 1543433, 609769, 529355, 499677, 289373, 519297, 833455, 1061145, 1254345, 227641, 239895, 1298625, 863377, 1148861, 1355245, 1839387, 487529, 1110409, 428163, 1439327, 1823301, 1099849, 561479, 1122227, 940971, 23653, 1190059, 1071415, 1168649, 761483, 1030263, 1395141, 1002121, 1106303, 586109, 1399935, 198295, 1144701, 120763, 1137819, 552363, 78505, 1829297, 240709, 2232483, 1283191, 1601933, 272477, 502303, 1729745, 1463427, 495603, 2341387, 1154067, 977999, 1985431, 348249, 2743373, 317445, 1334801, 1539209, 1458093, 311017, 859385, 891337, 214927, 588335, 1646375, 220673, 509997, 442801, 94473, 983693, 901291, 2028323, 955961, 924199, 492481, 844393, 530445, 1061915, 340917, 122133, 927147, 843951, 460325, 1101867, 454907, 1292021, 271989, 1702013, 620599, 1480885, 281411, 1360491, 1115877, 197965, 654699, 2442241, 883509, 1309329, 844709, 167191, 2432581, 2269627, 806741, 1768983, 337581, 714039, 135107, 1028793, 1237077, 1872603, 1132717, 2356327, 2050817, 182545, 18247, 2217301, 1577531, 120699, 398553, 1417167, 933467], pads = [0, 0, 0, 0], quant_mode = #tpu<rq_mode MultiplierShift>, relu_limit = -1.000000e+00 : f64, round_mode = #tpu<round_mode HalfUp>, rshift = [29, 28, 30, 30, 26, 30, 30, 29, 30, 25, 29, 29, 30, 27, 26, 27, 28, 27, 29, 30, 30, 29, 27, 29, 30, 30, 29, 30, 30, 30, 30, 29, 30, 25, 30, 30, 30, 29, 30, 30, 28, 29, 29, 29, 30, 30, 29, 29, 29, 30, 28, 29, 30, 30, 28, 30, 30, 26, 28, 30, 30, 28, 27, 29, 29, 29, 29, 29, 30, 29, 29, 30, 29, 27, 30, 27, 30, 28, 30, 27, 28, 30, 30, 30, 28, 29, 30, 29, 29, 29, 30, 29, 30, 23, 30, 29, 30, 30, 29, 30, 30, 27, 27, 29, 30, 30, 30, 30, 28, 28, 30, 30, 30, 27, 29, 30, 30, 30, 28, 30, 28, 29, 28, 30, 30, 30, 30, 27, 28, 29, 28, 29, 30, 29, 29, 29, 28, 29, 29, 30, 30, 28, 27, 30, 29, 30, 30, 30, 29, 30, 29, 30, 30, 30, 29, 30, 29, 24, 30, 30, 30, 29, 30, 29, 30, 30, 29, 30, 27, 30, 27, 30, 28, 26, 30, 28, 30, 30, 30, 28, 29, 30, 30, 28, 30, 30, 29, 30, 28, 30, 28, 30, 29, 30, 28, 30, 30, 27, 29, 30, 27, 29, 29, 26, 30, 30, 29, 29, 30, 29, 29, 29, 29, 28, 27, 29, 29, 28, 30, 28, 29, 28, 30, 29, 30, 28, 30, 29, 27, 29, 30, 29, 30, 29, 27, 30, 30, 29, 30, 28, 29, 27, 30, 30, 30, 30, 30, 30, 27, 23, 30, 30, 27, 28, 30, 30], strides = [1, 1], support_compress = true, use_3ic_optimize = 0 : i64, weight_is_coeff = 1 : i64, with_bias = true} : (tensor<1x512x20x20x!quant.uniform<i8:f32, 0.040236619685039374>>, tensor<256x512x1x1xsi8>, tensor<1x256x1x1xi32>) -> tensor<1x256x20x20x!quant.uniform<i8:f32, 0.0523291874015748>> loc(#loc144)
    %145 = "top.Weight"() : () -> tensor<1x1x1x256xsi8> loc(#loc145)
    %146 = "tpu.Lut"(%144, %145) : (tensor<1x256x20x20x!quant.uniform<i8:f32, 0.0523291874015748>>, tensor<1x1x1x256xsi8>) -> tensor<1x256x20x20x!quant.uniform<i8:f32, 0.021297727559055117>> loc(#loc146)
    %147 = "top.Weight"() : () -> tensor<256x256x1x1xsi8> loc(#loc147)
    %148 = "top.Weight"() : () -> tensor<1x256x1x1xi32> loc(#loc148)
    %149 = "tpu.Conv2D"(%146, %147, %148) {coeff_merged = false, dilations = [1, 1], do_relu = false, do_winograd = false, dynweight_reorderd = false, group = 1 : i64, kernel_shape = [1, 1], kernel_zp = 0 : i64, multiplier = [629593, 324295, 977573, 3325469, 2950607, 2956507, 1322931, 792159, 2662815, 308299, 858991, 3375979, 2386589, 2774759, 1183045, 219501, 1535575, 2518719, 10573, 4071379, 646421, 465223, 1233879, 2012907, 2434621, 627259, 1743637, 2944957, 1959905, 1258413, 3019249, 2310977, 3103195, 81469, 913297, 3801809, 889955, 90953, 2047325, 2483649, 548995, 1667419, 1409517, 2422459, 2361859, 1451737, 1210957, 1209251, 1304555, 2379411, 2529943, 2529241, 1782043, 1526771, 272419, 1089427, 2162787, 1365209, 1261427, 406777, 3114057, 2475409, 1202735, 413365, 3335677, 1246735, 1632313, 287505, 2297703, 3263603, 840161, 411583, 2659983, 1132585, 2179671, 720499, 1474859, 332309, 2717681, 2711509, 2642671, 1831289, 9259, 4105325, 2409537, 3657175, 2413901, 1804595, 2849241, 3007181, 989279, 794935, 3089597, 799641, 536449, 554655, 2190751, 3789069, 769787, 1473785, 1354383, 3021617, 1121271, 1057301, 2543491, 95667, 3869659, 1741225, 1279795, 783907, 1500019, 275285, 816753, 3508949, 4818233, 2235653, 714005, 2367503, 1327915, 1652553, 1918181, 189121, 2919225, 1258693, 2537729, 2584565, 606943, 2676863, 1130479, 149719, 3680911, 2247139, 993697, 1755067, 3608271, 3041363, 1824895, 2532485, 715119, 2815981, 2728995, 16479, 916249, 749653, 798231, 968709, 1195375, 736675, 1531587, 1467779, 657807, 2140937, 127867, 2244277, 155055, 1660979, 1896759, 1169813, 1879111, 2347655, 1223557, 708025, 2502607, 363181, 3154879, 31271, 439171, 2805441, 362693, 343867, 835967, 2196145, 3942207, 2089371, 359409, 2895359, 2664517, 1290875, 1507053, 706367, 2899243, 1274475, 3134589, 1295737, 2938667, 2916499, 2593167, 323413, 358341, 1643907, 149799, 1195927, 297371, 1393291, 1373469, 2467097, 1315315, 3454823, 92213, 80337, 446977, 2207195, 1035327, 2876069, 1407749, 3572103, 913777, 695083, 2601771, 1209861, 1667571, 176255, 450647, 748621, 1783107, 4808325, 3532743, 641295, 2361951, 2186699, 2344409, 419977, 2848623, 3162307, 3036345, 2286747, 2061421, 1639365, 1336027, 205071, 741431, 1338351, 3651107, 2165753, 1309877, 1949523, 2544073, 881247, 616827, 1171803, 586001, 4431127, 1061155, 2755307, 272773, 1812041, 662065, 2283223, 1687527, 548583, 262665, 2485735, 1953579, 1391255, 654043, 1284893], pads = [0, 0, 0, 0], quant_mode = #tpu<rq_mode MultiplierShift>, relu_limit = -1.000000e+00 : f64, round_mode = #tpu<round_mode HalfUp>, rshift = [28, 27, 28, 30, 30, 30, 29, 28, 30, 27, 28, 30, 30, 30, 29, 26, 29, 30, 21, 30, 28, 27, 29, 30, 30, 28, 29, 30, 29, 29, 30, 30, 30, 25, 28, 30, 28, 25, 30, 30, 28, 29, 29, 29, 30, 29, 29, 29, 29, 30, 30, 30, 29, 29, 27, 29, 30, 29, 29, 27, 30, 30, 29, 27, 30, 29, 30, 27, 30, 30, 28, 27, 30, 29, 30, 28, 29, 27, 30, 30, 29, 30, 22, 30, 30, 30, 30, 29, 30, 30, 28, 28, 30, 28, 28, 28, 29, 30, 28, 29, 29, 30, 29, 29, 30, 25, 30, 29, 29, 28, 29, 27, 28, 30, 30, 29, 28, 30, 29, 29, 29, 26, 30, 29, 30, 29, 28, 30, 29, 25, 30, 30, 29, 29, 30, 30, 29, 30, 28, 30, 30, 23, 29, 28, 28, 29, 29, 28, 29, 29, 28, 30, 25, 30, 26, 29, 30, 29, 30, 30, 29, 28, 30, 27, 30, 24, 27, 30, 27, 27, 28, 30, 30, 29, 27, 30, 30, 29, 29, 28, 30, 29, 30, 29, 30, 30, 30, 27, 27, 29, 26, 30, 27, 29, 29, 30, 29, 30, 25, 25, 27, 30, 29, 30, 29, 30, 28, 28, 30, 29, 29, 26, 27, 28, 29, 30, 30, 28, 30, 30, 30, 27, 30, 30, 30, 30, 29, 29, 29, 26, 28, 29, 30, 30, 29, 29, 29, 29, 28, 28, 28, 30, 28, 30, 27, 29, 28, 30, 29, 28, 26, 30, 29, 29, 28, 29], strides = [1, 1], support_compress = true, use_3ic_optimize = 0 : i64, weight_is_coeff = 1 : i64, with_bias = true} : (tensor<1x256x20x20x!quant.uniform<i8:f32, 0.021297727559055117>>, tensor<256x256x1x1xsi8>, tensor<1x256x1x1xi32>) -> tensor<1x256x20x20x!quant.uniform<i8:f32, 0.083065092913385832>> loc(#loc149)
    %150 = "top.Weight"() : () -> tensor<1x1x1x256xsi8> loc(#loc150)
    %151 = "tpu.Lut"(%149, %150) : (tensor<1x256x20x20x!quant.uniform<i8:f32, 0.083065092913385832>>, tensor<1x1x1x256xsi8>) -> tensor<1x256x20x20x!quant.uniform<i8:f32, 0.066370716535433069>> loc(#loc151)
    %152 = "top.Weight"() : () -> tensor<256x256x3x3xsi8> loc(#loc152)
    %153 = "top.Weight"() : () -> tensor<1x256x1x1xi32> loc(#loc153)
    %154 = "tpu.Conv2D"(%151, %152, %153) {coeff_merged = false, dilations = [1, 1], do_relu = false, do_winograd = false, dynweight_reorderd = false, group = 1 : i64, kernel_shape = [3, 3], kernel_zp = 0 : i64, multiplier = [339903, 749359, 945193, 458263, 734095, 168993, 782665, 70085, 361641, 582105, 57837, 772629, 190579, 82379, 824449, 307071, 376625, 128387, 745133, 410731, 272429, 739249, 140785, 966641, 340633, 737631, 718669, 20441, 970771, 101895, 1362081, 955587, 861465, 204553, 743027, 554191, 996163, 120829, 959, 925981, 598943, 486619, 27453, 433853, 1529701, 1007251, 719181, 321441, 604011, 562521, 590847, 752347, 734761, 1050341, 1046031, 1632463, 709079, 996639, 623755, 108279, 625383, 69567, 891393, 168355, 27085, 926451, 1006977, 330585, 777537, 419997, 1124537, 54105, 551259, 130377, 356767, 487049, 89463, 139529, 328195, 1558973, 718123, 623225, 295129, 638369, 198985, 378545, 757815, 676879, 108613, 1580285, 709351, 376387, 523955, 518975, 688773, 829901, 360507, 61905, 291331, 52577, 317423, 1331497, 839249, 648019, 1463737, 1515333, 1677277, 142207, 268393, 1095149, 185283, 174929, 785833, 386421, 159651, 255075, 278613, 403531, 112301, 1039091, 760589, 1306559, 23845, 749591, 797583, 743425, 33717, 824373, 895369, 730909, 100185, 340241, 1024713, 682791, 937925, 710677, 848205, 479087, 795097, 413027, 156633, 427969, 2217615, 384503, 590397, 1123835, 535333, 323775, 404487, 320575, 206001, 130471, 57459, 645013, 987297, 511169, 707109, 1232089, 841935, 249569, 368731, 754647, 1517279, 1054905, 1117967, 328035, 688303, 927257, 1997571, 192445, 914441, 717259, 366919, 986971, 792621, 791171, 8847, 1446397, 363225, 262737, 202461, 848789, 198435, 64871, 788777, 638235, 813653, 673547, 514371, 788281, 666277, 280899, 753883, 364465, 360255, 633371, 355317, 261419, 920485, 849957, 269231, 836481, 153885, 1747969, 156545, 1165367, 191347, 221257, 838123, 359683, 409189, 201851, 405923, 173431, 585437, 688415, 475411, 790421, 976005, 707959, 848037, 823961, 333939, 807485, 623699, 400093, 1378695, 222081, 27459, 395489, 906021, 90937, 35961, 1186927, 1019447, 307007, 23279, 907689, 1270447, 539335, 697447, 776967, 206395, 698349, 984511, 66127, 711401, 189687, 205901, 465635, 447385, 599943, 330503, 615031, 1063417, 330067], pads = [1, 1, 1, 1], quant_mode = #tpu<rq_mode MultiplierShift>, relu_limit = -1.000000e+00 : f64, round_mode = #tpu<round_mode HalfUp>, rshift = [29, 30, 30, 29, 30, 27, 30, 26, 29, 29, 26, 30, 28, 26, 30, 29, 29, 28, 30, 29, 28, 30, 28, 30, 28, 30, 30, 25, 30, 27, 30, 30, 30, 28, 30, 29, 30, 27, 20, 30, 29, 29, 25, 29, 30, 30, 28, 29, 29, 30, 30, 30, 29, 30, 30, 30, 30, 30, 30, 26, 29, 26, 30, 28, 25, 30, 30, 29, 30, 29, 30, 26, 30, 27, 29, 29, 27, 27, 29, 30, 30, 29, 28, 30, 28, 29, 30, 30, 27, 30, 29, 29, 30, 30, 30, 30, 29, 26, 28, 26, 29, 30, 30, 29, 30, 30, 30, 27, 28, 30, 28, 28, 30, 29, 28, 28, 28, 29, 27, 30, 30, 30, 25, 30, 30, 30, 26, 30, 30, 30, 26, 28, 30, 30, 30, 30, 30, 29, 30, 29, 28, 29, 30, 29, 29, 30, 30, 29, 29, 29, 28, 27, 26, 30, 30, 28, 30, 30, 30, 28, 28, 30, 29, 30, 30, 28, 30, 30, 30, 28, 30, 30, 29, 30, 30, 30, 23, 30, 29, 29, 28, 30, 28, 26, 30, 29, 30, 30, 29, 30, 30, 28, 30, 29, 29, 30, 29, 28, 30, 30, 29, 30, 28, 30, 28, 30, 27, 28, 30, 29, 29, 27, 29, 28, 30, 29, 29, 30, 30, 29, 30, 29, 29, 30, 29, 29, 30, 28, 25, 29, 30, 27, 25, 30, 29, 29, 25, 30, 30, 30, 30, 30, 28, 30, 30, 27, 30, 28, 28, 29, 29, 29, 29, 30, 30, 29], strides = [1, 1], support_compress = true, use_3ic_optimize = 0 : i64, weight_is_coeff = 1 : i64, with_bias = true} : (tensor<1x256x20x20x!quant.uniform<i8:f32, 0.066370716535433069>>, tensor<256x256x3x3xsi8>, tensor<1x256x1x1xi32>) -> tensor<1x256x20x20x!quant.uniform<i8:f32, 0.10008439527559056>> loc(#loc154)
    %155 = "top.Weight"() : () -> tensor<1x1x1x256xsi8> loc(#loc155)
    %156 = "tpu.Lut"(%154, %155) : (tensor<1x256x20x20x!quant.uniform<i8:f32, 0.10008439527559056>>, tensor<1x1x1x256xsi8>) -> tensor<1x256x20x20x!quant.uniform<i8:f32, 0.055023859055118106>> loc(#loc156)
    %157 = "tpu.Add"(%146, %156) {do_relu = false, multipliers = [81, 105], relu_limit = -1.000000e+00 : f64, rshifts = [8, 7]} : (tensor<1x256x20x20x!quant.uniform<i8:f32, 0.021297727559055117>>, tensor<1x256x20x20x!quant.uniform<i8:f32, 0.055023859055118106>>) -> tensor<1x256x20x20x!quant.uniform<i8:f32, 0.067261059842519691>> loc(#loc157)
    %158 = "top.Weight"() : () -> tensor<256x512x1x1xsi8> loc(#loc158)
    %159 = "top.Weight"() : () -> tensor<1x256x1x1xi32> loc(#loc159)
    %160 = "tpu.Conv2D"(%141, %158, %159) {coeff_merged = false, dilations = [1, 1], do_relu = false, do_winograd = false, dynweight_reorderd = false, group = 1 : i64, kernel_shape = [1, 1], kernel_zp = 0 : i64, multiplier = [2016979, 2347603, 477535, 2217183, 212087, 1778581, 410333, 1943661, 596725, 760197, 827699, 228741, 846907, 2662677, 402463, 117081, 925641, 2184331, 823471, 164113, 459301, 796127, 2854775, 107765, 60817, 517847, 1616567, 1597603, 490299, 1727885, 1829717, 607073, 1752233, 1068477, 260369, 1008149, 515, 347933, 464183, 2033657, 1189943, 231793, 329461, 1839083, 2391463, 896679, 1041939, 402769, 461953, 760621, 1109407, 1382299, 1705821, 1576795, 1281759, 1570157, 239993, 1643801, 1747921, 915487, 741183, 425173, 5357991, 237393, 1729485, 829693, 55555, 892751, 16547, 916019, 1445409, 1570661, 2070145, 236079, 945671, 1361183, 231369, 2682775, 869033, 671319, 94181, 285597, 1449313, 1023677, 1815617, 2453079, 1582089, 2162081, 1510149, 1370831, 1914905, 498049, 148659, 1872973, 1431167, 2306203, 269809, 979681, 1704111, 1032505, 734185, 987259, 392933, 1755263, 518917, 2076369, 1422953, 21767, 394261, 848871, 2117427, 428851, 1967481, 249479, 1825059, 464695, 1792605, 56085, 458733, 1488025, 8383, 1443485, 220645, 931553, 2087247, 815451, 1608945, 715785, 2744939, 1633039, 532999, 1763745, 2042047, 551185, 727655, 804755, 1878057, 1768161, 1558633, 185405, 894519, 718663, 1770599, 1967645, 208301, 598505, 210855, 815483, 1116617, 1536471, 2245357, 1587963, 798473, 2612729, 1846745, 2124057, 1890465, 331941, 1078625, 1427109, 1092555, 466653, 876533, 2150597, 1528003, 1608985, 446003, 726187, 965799, 1956589, 703143, 855641, 1941, 1832519, 831391, 758683, 90223, 1460155, 282015, 878669, 1724547, 752801, 439377, 710135, 448791, 1969545, 1698431, 2087551, 791967, 483721, 1629195, 1932407, 883521, 404371, 2642297, 1839875, 1914621, 238059, 943117, 1981287, 212181, 744513, 998471, 2162435, 1140309, 1875691, 19905, 1813177, 2197189, 672325, 959411, 52047, 1641259, 2629819, 1100857, 814589, 1042153, 933093, 1246759, 3157371, 989003, 852019, 1014919, 1805623, 105729, 1096271, 1185149, 1951853, 918115, 1274247, 1050181, 517387, 455917, 437147, 2168495, 101271, 1601633, 2351655, 529809, 919901, 2208191, 958783, 489637, 1794485, 719617, 1009387, 1035715, 1773809, 1739019, 97241, 2284189, 748959, 3098393, 1855291, 2056173, 1459157], pads = [0, 0, 0, 0], quant_mode = #tpu<rq_mode MultiplierShift>, relu_limit = -1.000000e+00 : f64, round_mode = #tpu<round_mode HalfUp>, rshift = [30, 30, 28, 30, 27, 30, 28, 30, 28, 29, 29, 27, 29, 30, 28, 26, 29, 30, 29, 25, 28, 29, 30, 25, 25, 28, 30, 30, 28, 30, 30, 28, 30, 29, 27, 29, 18, 28, 28, 30, 29, 27, 27, 30, 30, 29, 29, 28, 28, 29, 29, 30, 30, 30, 29, 30, 27, 30, 30, 29, 29, 28, 30, 26, 30, 29, 25, 29, 23, 29, 30, 30, 30, 27, 29, 29, 27, 30, 29, 29, 26, 28, 30, 29, 30, 30, 30, 30, 30, 28, 30, 28, 26, 30, 29, 30, 27, 29, 30, 29, 29, 29, 28, 30, 28, 30, 30, 24, 28, 29, 30, 28, 30, 27, 30, 28, 30, 25, 28, 30, 22, 30, 27, 28, 30, 29, 30, 29, 30, 30, 28, 30, 30, 28, 29, 29, 30, 30, 30, 27, 29, 29, 30, 30, 27, 28, 27, 29, 29, 30, 30, 30, 29, 30, 30, 30, 30, 28, 29, 30, 29, 28, 29, 29, 30, 30, 28, 29, 29, 30, 28, 29, 20, 30, 29, 29, 26, 30, 27, 29, 30, 29, 28, 29, 28, 30, 30, 30, 29, 28, 30, 30, 29, 28, 30, 30, 30, 27, 29, 30, 27, 29, 29, 30, 29, 30, 23, 30, 30, 28, 29, 24, 30, 30, 29, 29, 29, 29, 29, 29, 29, 29, 29, 30, 26, 28, 29, 30, 29, 29, 29, 28, 28, 28, 30, 26, 30, 30, 28, 29, 30, 29, 28, 30, 29, 29, 29, 30, 30, 26, 30, 29, 30, 30, 30, 30], strides = [1, 1], support_compress = true, use_3ic_optimize = 0 : i64, weight_is_coeff = 1 : i64, with_bias = true} : (tensor<1x512x20x20x!quant.uniform<i8:f32, 0.040236619685039374>>, tensor<256x512x1x1xsi8>, tensor<1x256x1x1xi32>) -> tensor<1x256x20x20x!quant.uniform<i8:f32, 0.066902498425196855>> loc(#loc160)
    %161 = "top.Weight"() : () -> tensor<1x1x1x256xsi8> loc(#loc161)
    %162 = "tpu.Lut"(%160, %161) : (tensor<1x256x20x20x!quant.uniform<i8:f32, 0.066902498425196855>>, tensor<1x1x1x256xsi8>) -> tensor<1x256x20x20x!quant.uniform<i8:f32, 0.067261059842519691>> loc(#loc162)
    %163 = "tpu.Concat"(%157, %162) {axis = 1 : si32, do_relu = false, only_merge = false, relu_limit = -1.000000e+00 : f64} : (tensor<1x256x20x20x!quant.uniform<i8:f32, 0.067261059842519691>>, tensor<1x256x20x20x!quant.uniform<i8:f32, 0.067261059842519691>>) -> tensor<1x512x20x20x!quant.uniform<i8:f32, 0.067261059842519691>> loc(#loc163)
    %164 = "top.Weight"() : () -> tensor<512x512x1x1xsi8> loc(#loc164)
    %165 = "top.Weight"() : () -> tensor<1x512x1x1xi32> loc(#loc165)
    %166 = "tpu.Conv2D"(%163, %164, %165) {coeff_merged = false, dilations = [1, 1], do_relu = false, do_winograd = false, dynweight_reorderd = false, group = 1 : i64, kernel_shape = [1, 1], kernel_zp = 0 : i64, multiplier = [76835, 992971, 1663957, 1467259, 1404715, 1048685, 910765, 366851, 343265, 1179479, 1365259, 293335, 227653, 1429063, 1163325, 1624933, 41571, 1297197, 418929, 1113149, 1901877, 1568377, 2387945, 24449, 260221, 1374013, 884417, 664593, 1263823, 2849791, 1475283, 596843, 43081, 1233515, 1583481, 1389413, 1393735, 357419, 374677, 619197, 974855, 1364027, 791335, 897323, 1287691, 839549, 1890157, 2144171, 141377, 506127, 81469, 1253091, 651917, 1842371, 829779, 1550193, 1350513, 956687, 191809, 806269, 564303, 1637469, 582219, 1222125, 1506629, 422823, 1330741, 447099, 3099, 84961, 1570445, 1258575, 2468473, 199947, 1283757, 265811, 1844479, 751873, 2077591, 1327919, 712643, 1126931, 1861595, 222745, 810383, 3744579, 879473, 403037, 40661, 767705, 1414303, 616223, 364989, 1257437, 921675, 287229, 1269387, 366091, 141921, 539845, 141149, 1914287, 713045, 1099809, 1760093, 200653, 1658789, 1353499, 338863, 2086019, 1333999, 1636055, 1913425, 2662597, 1790325, 41653, 23173, 1557877, 1071599, 41375, 790143, 665429, 1345927, 1521367, 300659, 2003597, 45367, 1245007, 1711075, 404735, 864517, 1353757, 1396251, 566143, 1229663, 85971, 176607, 1838145, 1636207, 1380029, 1756955, 1529881, 1037383, 1725047, 765861, 1508523, 40309, 650785, 325175, 893319, 994027, 1429651, 981923, 1121961, 390043, 707319, 2478525, 100445, 1111257, 1227587, 1551723, 2129685, 2117063, 726925, 1538701, 963901, 592737, 831153, 356981, 2886235, 371245, 3194393, 1605921, 1310455, 88785, 1774339, 1099841, 2074295, 1504315, 95235, 1621105, 1375945, 1658085, 1189503, 1789255, 1640651, 1360553, 2380229, 715991, 2266759, 1103643, 780317, 1728301, 1445471, 840147, 2015757, 845687, 341887, 1760953, 158829, 1187805, 646027, 882083, 1315589, 399421, 823063, 1241727, 2169377, 99583, 1799639, 1529117, 359901, 788781, 86197, 169717, 668889, 228359, 1805821, 321523, 228711, 2077877, 83817, 1412647, 775091, 83647, 751215, 1426495, 1188493, 1326839, 1160357, 300257, 391287, 1546971, 246623, 670729, 2171279, 1197109, 776253, 1911665, 204043, 1436751, 355483, 153229, 514447, 1341817, 820081, 1553875, 227149, 1356881, 374331, 1421341, 671515, 278679, 657003, 1644231, 1473207, 1642825, 149287, 205735, 1317891, 786947, 126191, 1185669, 1518685, 1153417, 1838123, 259559, 1272109, 378721, 210569, 1634211, 551151, 2061179, 45751, 485237, 1417209, 1889551, 104957, 1209563, 129871, 699611, 181053, 812437, 1539915, 1362047, 874747, 322905, 1325617, 1381743, 231353, 90709, 2644539, 451675, 1140163, 1557705, 462537, 616621, 1125703, 338261, 178581, 208899, 1140159, 153759, 1401749, 185299, 1601277, 902563, 809911, 702277, 1826017, 238039, 358369, 448285, 940421, 693105, 1389743, 1430341, 858797, 2156371, 1530737, 244405, 1144299, 1324901, 482839, 1483441, 1771531, 1184965, 1531847, 659871, 914313, 1322647, 349963, 1449511, 1344009, 1479593, 318887, 364385, 2561377, 164523, 959657, 873673, 914413, 343159, 1185915, 961789, 599879, 773875, 1442019, 1789925, 1213677, 1673575, 1259311, 953019, 1749951, 225109, 1065391, 35359, 355135, 1943997, 1004543, 1005575, 1924731, 1871909, 1545871, 1721097, 1320057, 95135, 865599, 735573, 887079, 595107, 1528125, 1801803, 624107, 580695, 1614815, 1371581, 835807, 1418235, 278091, 1923593, 798871, 1374533, 1139989, 196137, 545415, 1262443, 2337437, 1236035, 1285341, 1060701, 1453009, 1380331, 1736817, 456685, 207677, 193073, 339503, 46587, 1372643, 648049, 1388059, 1558839, 345, 63049, 458215, 1695819, 1704737, 169497, 956037, 1418863, 405443, 312025, 1803731, 39519, 1178087, 1415949, 552205, 1532969, 638223, 444547, 1567103, 753015, 1866409, 1503209, 235677, 1666705, 1057011, 1176311, 321971, 725829, 531269, 742395, 727241, 965141, 1494477, 1650443, 855803, 1772787, 1326717, 1035441, 1547959, 652333, 1451045, 615819, 1832443, 743073, 95203, 381191, 719999, 1788239, 1100987, 794503, 989943, 738269, 1541325, 23417, 1072289, 1663333, 36557, 1939971, 778471, 1277561, 1384103, 1613529, 464271, 1751097, 425231, 1132415, 885561, 1497359, 1572559, 1008605, 743081, 1285083, 2897883, 615265, 1364451, 415571, 890947, 181113, 2002901, 968809, 194405, 730391, 1708799, 2419783, 19935, 1824901, 1951451, 696013, 3011669, 272105, 1668565, 1746919, 3249239, 1479783, 1547757, 1164327, 836445, 299213, 529707, 604659, 2114893, 1453797, 343291, 1400317, 1555203, 2395081, 407659, 332423, 1014155], pads = [0, 0, 0, 0], quant_mode = #tpu<rq_mode MultiplierShift>, relu_limit = -1.000000e+00 : f64, round_mode = #tpu<round_mode HalfUp>, rshift = [26, 29, 30, 30, 30, 29, 29, 28, 28, 30, 30, 28, 27, 30, 30, 30, 25, 30, 28, 29, 30, 30, 30, 24, 27, 30, 29, 29, 29, 30, 30, 29, 25, 30, 30, 30, 30, 28, 28, 29, 29, 30, 29, 29, 30, 29, 30, 30, 27, 28, 26, 30, 29, 30, 29, 30, 30, 29, 27, 29, 28, 30, 29, 30, 30, 28, 30, 28, 21, 26, 30, 30, 30, 27, 30, 27, 30, 29, 30, 29, 29, 30, 30, 27, 29, 30, 29, 28, 25, 29, 30, 29, 28, 30, 29, 28, 30, 28, 26, 28, 26, 30, 29, 29, 30, 27, 30, 30, 28, 30, 29, 30, 30, 30, 30, 25, 24, 30, 29, 25, 29, 29, 30, 30, 28, 30, 25, 30, 30, 28, 29, 30, 30, 29, 30, 26, 27, 30, 30, 30, 30, 30, 29, 29, 29, 30, 25, 29, 28, 29, 29, 30, 29, 29, 28, 29, 30, 26, 30, 30, 30, 30, 30, 29, 30, 29, 29, 29, 27, 30, 28, 30, 30, 30, 26, 30, 30, 30, 30, 26, 30, 30, 30, 30, 30, 30, 30, 30, 28, 30, 30, 29, 30, 30, 29, 30, 29, 28, 30, 27, 29, 29, 29, 30, 28, 29, 30, 30, 26, 30, 30, 28, 29, 25, 27, 29, 27, 30, 28, 27, 29, 26, 30, 29, 26, 28, 30, 30, 30, 30, 28, 28, 30, 27, 29, 30, 30, 29, 30, 27, 30, 28, 27, 28, 28, 29, 30, 27, 30, 28, 30, 29, 27, 29, 30, 30, 30, 26, 27, 30, 29, 26, 30, 30, 30, 30, 27, 30, 28, 27, 30, 28, 30, 25, 27, 30, 30, 26, 30, 27, 29, 27, 29, 30, 30, 29, 28, 30, 30, 27, 26, 30, 28, 30, 30, 28, 29, 30, 28, 27, 27, 30, 26, 30, 27, 30, 29, 29, 29, 30, 27, 28, 28, 29, 29, 30, 30, 29, 30, 30, 27, 30, 29, 28, 30, 30, 30, 30, 29, 29, 30, 28, 30, 30, 30, 28, 28, 30, 27, 30, 29, 29, 28, 30, 29, 28, 29, 30, 30, 30, 30, 29, 29, 30, 27, 30, 25, 28, 29, 29, 29, 30, 30, 30, 30, 30, 26, 29, 29, 29, 29, 30, 30, 29, 28, 30, 30, 29, 30, 28, 30, 29, 30, 30, 27, 28, 30, 30, 29, 29, 29, 30, 30, 30, 28, 27, 27, 27, 25, 30, 29, 30, 30, 18, 25, 28, 30, 30, 27, 29, 30, 28, 27, 30, 25, 30, 30, 29, 30, 29, 28, 30, 29, 30, 30, 27, 30, 30, 30, 28, 29, 28, 29, 29, 29, 30, 30, 28, 30, 30, 28, 30, 29, 30, 29, 30, 29, 26, 28, 29, 30, 30, 29, 29, 29, 30, 23, 29, 30, 25, 30, 29, 30, 30, 30, 28, 30, 28, 29, 29, 30, 30, 29, 29, 29, 30, 29, 30, 28, 29, 27, 30, 30, 27, 29, 30, 30, 24, 30, 30, 29, 30, 27, 30, 30, 30, 30, 30, 30, 29, 28, 28, 29, 30, 30, 28, 30, 30, 30, 28, 28, 29], strides = [1, 1], support_compress = true, use_3ic_optimize = 0 : i64, weight_is_coeff = 1 : i64, with_bias = true} : (tensor<1x512x20x20x!quant.uniform<i8:f32, 0.067261059842519691>>, tensor<512x512x1x1xsi8>, tensor<1x512x1x1xi32>) -> tensor<1x512x20x20x!quant.uniform<i8:f32, 0.084654470078740162>> loc(#loc166)
    %167 = "top.Weight"() : () -> tensor<1x1x1x256xsi8> loc(#loc167)
    %168 = "tpu.Lut"(%166, %167) : (tensor<1x512x20x20x!quant.uniform<i8:f32, 0.084654470078740162>>, tensor<1x1x1x256xsi8>) -> tensor<1x512x20x20x!quant.uniform<i8:f32, 0.046091244094488192>> loc(#loc168)
    %169 = "top.Weight"() : () -> tensor<256x512x1x1xsi8> loc(#loc169)
    %170 = "top.Weight"() : () -> tensor<1x256x1x1xi32> loc(#loc170)
    %171 = "tpu.Conv2D"(%168, %169, %170) {coeff_merged = false, dilations = [1, 1], do_relu = false, do_winograd = false, dynweight_reorderd = false, group = 1 : i64, kernel_shape = [1, 1], kernel_zp = 0 : i64, multiplier = [796013, 282957, 362759, 1086163, 254583, 776637, 1679079, 641171, 1456703, 185549, 1655679, 517175, 2829953, 1252055, 583595, 1377337, 760099, 2470559, 1457381, 398351, 1790529, 368035, 1811577, 1375807, 872965, 2877863, 710465, 818175, 906627, 603309, 339791, 375197, 408937, 676671, 330165, 432707, 1418155, 620171, 1407677, 1657139, 1187869, 766133, 885559, 618463, 779973, 1545669, 1419127, 2127399, 781433, 1229735, 343605, 720133, 255889, 1364123, 1327919, 167789, 1290177, 662633, 1437559, 1466103, 54791, 449223, 1676327, 305455, 1307925, 554993, 1712835, 160169, 2020325, 632007, 1662987, 887679, 2953685, 1221061, 203549, 451949, 824071, 755023, 1393939, 2380071, 189125, 1560281, 1397089, 34525, 462029, 734813, 1288785, 74049, 1243989, 916735, 1099825, 1555077, 1435269, 765289, 1417587, 327643, 1750861, 1476713, 418559, 2206485, 1692925, 1568723, 727335, 272873, 1623907, 782129, 690819, 1473403, 44593, 1583971, 1365217, 438433, 1475551, 1199887, 1314705, 1387151, 668591, 1579907, 1576123, 1390447, 693085, 171749, 1414427, 1595265, 761949, 1169613, 2025401, 352195, 1329067, 976689, 1588161, 2530285, 2060555, 105453, 2403855, 794661, 757381, 1421525, 589677, 156873, 685985, 1231833, 1412769, 1068923, 571953, 340221, 303877, 343421, 853173, 1619331, 372845, 876141, 1731711, 1539153, 259729, 1670223, 1158441, 468381, 708137, 1778557, 1342233, 73761, 1432513, 2158363, 918149, 409269, 1342111, 1345931, 1176897, 1191341, 251675, 641915, 1657453, 107171, 1149125, 100831, 2889443, 775027, 1244881, 3271827, 775897, 547181, 820409, 1289911, 1405641, 1077287, 1533563, 833743, 299453, 1876693, 3004007, 43511, 962441, 1654651, 1015213, 678771, 1643901, 584007, 199911, 706309, 688265, 673593, 1304139, 1983915, 323401, 1561149, 1185201, 428497, 1022729, 907019, 1206913, 1649783, 876425, 187837, 1703669, 1433087, 1270311, 679189, 1663129, 1232173, 1348453, 707327, 2197345, 372515, 2173683, 655187, 1368049, 1082993, 3139989, 2398033, 3053595, 1753171, 906663, 71283, 411195, 306267, 1036099, 776739, 1453677, 1829515, 753881, 2180085, 736083, 3376011, 2534791, 4339481, 323253, 83709, 76493, 884809, 112233, 1418467, 412975, 1038215, 2704373, 1037049], pads = [0, 0, 0, 0], quant_mode = #tpu<rq_mode MultiplierShift>, relu_limit = -1.000000e+00 : f64, round_mode = #tpu<round_mode HalfUp>, rshift = [29, 28, 28, 29, 27, 29, 30, 28, 30, 27, 30, 28, 30, 30, 28, 29, 29, 30, 29, 28, 29, 28, 30, 30, 29, 30, 29, 29, 29, 29, 28, 27, 28, 29, 27, 28, 30, 28, 30, 30, 29, 29, 29, 29, 29, 30, 30, 29, 29, 30, 27, 29, 27, 30, 30, 27, 30, 29, 30, 29, 25, 28, 30, 27, 30, 27, 30, 27, 30, 29, 30, 29, 30, 30, 27, 28, 29, 29, 30, 30, 27, 30, 30, 25, 28, 29, 30, 26, 30, 29, 29, 30, 30, 29, 30, 28, 30, 30, 28, 30, 30, 30, 29, 27, 30, 29, 29, 30, 25, 30, 30, 28, 30, 30, 30, 30, 29, 30, 30, 30, 29, 27, 29, 30, 29, 30, 30, 28, 30, 29, 30, 30, 29, 26, 30, 29, 29, 30, 29, 27, 28, 29, 29, 29, 28, 28, 28, 28, 29, 30, 28, 29, 30, 30, 27, 30, 30, 29, 29, 30, 30, 26, 29, 30, 29, 28, 30, 30, 30, 30, 27, 29, 30, 26, 30, 26, 30, 29, 30, 30, 29, 29, 29, 30, 30, 29, 30, 29, 28, 30, 30, 25, 29, 30, 28, 29, 30, 28, 27, 29, 29, 29, 30, 30, 28, 30, 29, 28, 29, 29, 30, 30, 29, 27, 30, 30, 30, 29, 30, 30, 30, 29, 30, 28, 30, 29, 30, 29, 30, 30, 30, 30, 29, 26, 28, 27, 29, 29, 29, 30, 29, 30, 29, 30, 30, 30, 28, 25, 26, 29, 26, 30, 28, 30, 29, 30], strides = [1, 1], support_compress = true, use_3ic_optimize = 0 : i64, weight_is_coeff = 1 : i64, with_bias = true} : (tensor<1x512x20x20x!quant.uniform<i8:f32, 0.046091244094488192>>, tensor<256x512x1x1xsi8>, tensor<1x256x1x1xi32>) -> tensor<1x256x20x20x!quant.uniform<i8:f32, 0.047517513385826778>> loc(#loc171)
    %172 = "top.Weight"() : () -> tensor<1x1x1x256xsi8> loc(#loc172)
    %173 = "tpu.Lut"(%171, %172) : (tensor<1x256x20x20x!quant.uniform<i8:f32, 0.047517513385826778>>, tensor<1x1x1x256xsi8>) -> tensor<1x256x20x20x!quant.uniform<i8:f32, 0.058765585039370079>> loc(#loc173)
    %174 = "tpu.Pool2D"(%173) {count_include_pad = false, do_relu = false, first_round_mode = #tpu<round_mode HalfAwayFromZero>, is_adaptive = false, keepdims = true, kernel_shape = [5, 5], pad_value = 0 : i64, pads = [2, 2, 2, 2], pool_mode = #tpu<pool_mode Max>, relu_limit = -1.000000e+00 : f64, round_mode = #tpu<round_mode HalfAwayFromZero>, strides = [1, 1]} : (tensor<1x256x20x20x!quant.uniform<i8:f32, 0.058765585039370079>>) -> tensor<1x256x20x20x!quant.uniform<i8:f32, 0.058765585039370079>> loc(#loc174)
    %175 = "tpu.Pool2D"(%174) {count_include_pad = false, do_relu = false, first_round_mode = #tpu<round_mode HalfAwayFromZero>, is_adaptive = false, keepdims = true, kernel_shape = [5, 5], pad_value = 0 : i64, pads = [2, 2, 2, 2], pool_mode = #tpu<pool_mode Max>, relu_limit = -1.000000e+00 : f64, round_mode = #tpu<round_mode HalfAwayFromZero>, strides = [1, 1]} : (tensor<1x256x20x20x!quant.uniform<i8:f32, 0.058765585039370079>>) -> tensor<1x256x20x20x!quant.uniform<i8:f32, 0.058765585039370079>> loc(#loc175)
    %176 = "tpu.Pool2D"(%175) {count_include_pad = false, do_relu = false, first_round_mode = #tpu<round_mode HalfAwayFromZero>, is_adaptive = false, keepdims = true, kernel_shape = [5, 5], pad_value = 0 : i64, pads = [2, 2, 2, 2], pool_mode = #tpu<pool_mode Max>, relu_limit = -1.000000e+00 : f64, round_mode = #tpu<round_mode HalfAwayFromZero>, strides = [1, 1]} : (tensor<1x256x20x20x!quant.uniform<i8:f32, 0.058765585039370079>>) -> tensor<1x256x20x20x!quant.uniform<i8:f32, 0.058765585039370079>> loc(#loc176)
    %177 = "tpu.Concat"(%173, %174, %175, %176) {axis = 1 : si32, do_relu = false, only_merge = false, relu_limit = -1.000000e+00 : f64} : (tensor<1x256x20x20x!quant.uniform<i8:f32, 0.058765585039370079>>, tensor<1x256x20x20x!quant.uniform<i8:f32, 0.058765585039370079>>, tensor<1x256x20x20x!quant.uniform<i8:f32, 0.058765585039370079>>, tensor<1x256x20x20x!quant.uniform<i8:f32, 0.058765585039370079>>) -> tensor<1x1024x20x20x!quant.uniform<i8:f32, 0.058765585039370079>> loc(#loc177)
    %178 = "top.Weight"() : () -> tensor<512x1024x1x1xsi8> loc(#loc178)
    %179 = "top.Weight"() : () -> tensor<1x512x1x1xi32> loc(#loc179)
    %180 = "tpu.Conv2D"(%177, %178, %179) {coeff_merged = false, dilations = [1, 1], do_relu = false, do_winograd = false, dynweight_reorderd = false, group = 1 : i64, kernel_shape = [1, 1], kernel_zp = 0 : i64, multiplier = [413473, 1471379, 700263, 979697, 680861, 1106913, 1212543, 469051, 554211, 844439, 499433, 1470977, 1072627, 841287, 903793, 290993, 1001019, 464003, 467551, 1749273, 1426963, 1258681, 1469483, 2589605, 1272531, 74041, 444303, 1235889, 705043, 499737, 375327, 2358769, 377367, 1188829, 426007, 746637, 3561029, 1347773, 1097815, 1077319, 768363, 457057, 1810547, 306683, 1029513, 56399, 849315, 377633, 716553, 657601, 970821, 339503, 270437, 1015403, 1410925, 340817, 2923633, 1234415, 286261, 315623, 559919, 31127, 1398809, 1148925, 781387, 1266677, 1115567, 1017513, 444203, 25071, 371485, 1808903, 208163, 454329, 1414725, 2174253, 91123, 1397299, 2172429, 1393107, 868775, 860829, 1178725, 628989, 1137509, 107707, 14803, 2298067, 285063, 312521, 120477, 1145963, 1153277, 2060179, 396591, 1019913, 342055, 610653, 92655, 1619085, 722707, 544101, 1504813, 1046985, 627755, 554133, 599201, 1226135, 1077201, 1364555, 490989, 484831, 1019801, 138491, 563121, 884243, 1286439, 212689, 647433, 580589, 448021, 2072879, 696739, 589127, 1859371, 1265683, 632639, 537273, 2079185, 277691, 387043, 2856183, 463761, 387297, 1081601, 1232095, 1047905, 1178745, 3459839, 350241, 293265, 2316227, 1018023, 465183, 108831, 342921, 1785417, 123155, 319215, 885635, 1038303, 1146279, 1726649, 56255, 92743, 888645, 171815, 1515127, 740003, 2514753, 1255401, 1281923, 978077, 607533, 1101991, 320177, 1262423, 604197, 1460679, 1051239, 203689, 655683, 139305, 42285, 1242589, 486183, 617685, 1370729, 1644269, 701901, 1101641, 353751, 624737, 873215, 355469, 2171151, 448753, 1584461, 211509, 287441, 1159819, 576247, 3651117, 40773, 406955, 13553, 151245, 990915, 424221, 73273, 50163, 52111, 406185, 1760449, 1261599, 726383, 914387, 748819, 329875, 1153803, 1000693, 903817, 1089385, 1579841, 1367617, 1093891, 1911389, 974371, 981913, 35047, 1576267, 1195677, 269701, 832673, 1446235, 951599, 356271, 663769, 1016097, 1178529, 1330839, 186599, 175125, 50829, 226559, 2398803, 1864343, 1801513, 884107, 623833, 1688721, 683021, 691217, 1000783, 489429, 94637, 367695, 1103923, 353603, 155173, 636407, 1465949, 1257497, 25497, 704375, 1763245, 2569627, 468485, 58353, 1479931, 489425, 85883, 565765, 399225, 1223269, 1122613, 187967, 1117625, 620061, 1335433, 1956055, 2012189, 1512905, 377775, 586861, 77585, 874293, 426679, 914147, 993657, 551227, 1406663, 1089377, 1211851, 963139, 1307209, 500881, 843497, 1040121, 766329, 817635, 708741, 1257693, 1192491, 1441335, 1471087, 906905, 1154659, 1484481, 761529, 648851, 935051, 960249, 151445, 1314497, 1120343, 610537, 319281, 1508021, 449619, 764407, 2252305, 360963, 1755425, 234913, 1990021, 22623, 875761, 806075, 88465, 1033111, 980653, 1647723, 1063745, 375899, 195823, 447069, 1058645, 1821771, 2915219, 220507, 1546089, 851927, 474249, 1518459, 852407, 525477, 1900235, 1099431, 1299177, 1236471, 970227, 1502959, 1290275, 588855, 1037183, 891779, 1361633, 1259639, 1336469, 778315, 830761, 441745, 222199, 1841957, 504075, 1251811, 1644689, 587933, 13311, 1073467, 1473519, 2413845, 161585, 122983, 722161, 1118003, 925015, 1449163, 1512405, 643657, 530391, 4405063, 794437, 199795, 480979, 404981, 578125, 439833, 1268255, 740037, 1208873, 2167403, 462047, 656617, 1469391, 385309, 508167, 515193, 758667, 567499, 232433, 100785, 943743, 687199, 1454821, 784203, 420053, 3043237, 1438131, 1213007, 1883475, 1271087, 284947, 80495, 1280545, 368317, 1361805, 1213735, 143179, 666045, 114959, 221485, 429863, 1050543, 1943409, 721473, 966167, 2327699, 990859, 310409, 247855, 631785, 864731, 782259, 443237, 679581, 1442873, 942635, 408985, 472189, 528629, 424917, 1954771, 1641415, 893819, 786187, 456715, 921973, 406719, 1152927, 820937, 331257, 175449, 1030685, 239399, 1271831, 1356247, 1018807, 1877273, 1483395, 1450513, 52493, 1316379, 588705, 1579103, 420923, 498277, 1084729, 1538789, 867841, 86499, 950029, 601857, 1196901, 976135, 1156083, 776711, 676083, 1115387, 351619, 1609327, 356651, 2090579, 200953, 1227777, 1326663, 1055343, 467113, 1390353, 2329885, 1242183, 1312893, 1245901, 1225355, 476165, 828219, 216973, 199279, 1482499, 23383, 546529, 1466941, 330451, 1573417, 888333, 1247441, 1065065, 163383, 679689, 1080097, 242817, 481151, 838321, 870933, 308963, 1550727, 3496689, 477339, 1141237, 448059, 1655165], pads = [0, 0, 0, 0], quant_mode = #tpu<rq_mode MultiplierShift>, relu_limit = -1.000000e+00 : f64, round_mode = #tpu<round_mode HalfUp>, rshift = [28, 30, 29, 30, 29, 30, 30, 29, 29, 29, 29, 30, 30, 29, 30, 28, 30, 28, 29, 29, 30, 30, 30, 30, 29, 26, 28, 30, 29, 29, 28, 29, 29, 30, 28, 29, 30, 30, 30, 29, 30, 29, 30, 27, 30, 26, 30, 28, 29, 30, 30, 28, 28, 30, 29, 28, 30, 30, 27, 28, 28, 24, 30, 30, 29, 29, 30, 29, 29, 23, 28, 29, 27, 29, 29, 30, 26, 30, 30, 30, 30, 29, 30, 29, 30, 26, 23, 30, 28, 27, 27, 30, 29, 30, 28, 29, 28, 29, 26, 30, 29, 29, 30, 30, 29, 29, 29, 30, 29, 30, 28, 29, 30, 27, 29, 29, 30, 28, 29, 29, 29, 30, 29, 29, 29, 30, 29, 29, 30, 28, 28, 30, 28, 29, 30, 30, 29, 29, 30, 28, 27, 30, 30, 29, 27, 27, 29, 26, 28, 29, 30, 30, 29, 26, 26, 30, 26, 30, 29, 30, 29, 30, 30, 28, 29, 28, 29, 29, 30, 29, 27, 29, 27, 25, 30, 29, 29, 30, 30, 29, 30, 27, 29, 30, 28, 30, 29, 30, 28, 28, 30, 29, 30, 26, 29, 24, 27, 29, 29, 26, 25, 26, 28, 30, 30, 29, 30, 29, 29, 30, 30, 29, 30, 30, 30, 29, 30, 30, 30, 25, 29, 30, 28, 30, 29, 30, 29, 29, 29, 30, 30, 27, 27, 25, 28, 30, 30, 30, 30, 28, 30, 29, 29, 29, 28, 26, 29, 30, 28, 27, 29, 30, 30, 24, 30, 30, 30, 27, 24, 30, 29, 26, 29, 28, 30, 30, 27, 30, 29, 30, 30, 30, 29, 29, 29, 26, 30, 29, 30, 29, 29, 30, 30, 30, 29, 30, 29, 29, 30, 30, 28, 29, 30, 29, 30, 29, 30, 30, 30, 29, 29, 30, 30, 27, 30, 29, 29, 27, 30, 29, 29, 30, 28, 30, 28, 30, 24, 30, 29, 27, 29, 30, 30, 29, 29, 28, 29, 30, 30, 30, 28, 30, 30, 28, 30, 29, 29, 30, 30, 30, 30, 30, 30, 30, 29, 29, 29, 30, 30, 29, 29, 29, 29, 27, 29, 29, 29, 30, 29, 24, 30, 30, 30, 26, 26, 29, 30, 29, 30, 30, 28, 28, 30, 29, 28, 29, 29, 29, 27, 30, 29, 29, 30, 28, 29, 30, 29, 29, 29, 29, 29, 28, 27, 30, 28, 30, 30, 28, 30, 30, 30, 30, 29, 28, 25, 30, 29, 30, 29, 27, 29, 27, 28, 28, 30, 30, 28, 29, 30, 28, 27, 28, 29, 29, 29, 28, 29, 30, 30, 28, 29, 29, 29, 30, 30, 30, 30, 29, 29, 28, 30, 30, 28, 28, 30, 28, 30, 30, 30, 30, 30, 30, 26, 30, 29, 30, 29, 29, 30, 30, 30, 26, 30, 29, 30, 30, 29, 29, 29, 30, 28, 30, 29, 30, 26, 30, 30, 29, 29, 30, 29, 30, 30, 30, 30, 29, 30, 28, 28, 30, 24, 28, 30, 28, 30, 29, 30, 29, 27, 28, 30, 28, 28, 29, 30, 29, 30, 30, 29, 29, 29, 30], strides = [1, 1], support_compress = true, use_3ic_optimize = 0 : i64, weight_is_coeff = 1 : i64, with_bias = true} : (tensor<1x1024x20x20x!quant.uniform<i8:f32, 0.058765585039370079>>, tensor<512x1024x1x1xsi8>, tensor<1x512x1x1xi32>) -> tensor<1x512x20x20x!quant.uniform<i8:f32, 0.062088748818897636>> loc(#loc180)
    %181 = "top.Weight"() : () -> tensor<1x1x1x256xsi8> loc(#loc181)
    %182 = "tpu.Lut"(%180, %181) : (tensor<1x512x20x20x!quant.uniform<i8:f32, 0.062088748818897636>>, tensor<1x1x1x256xsi8>) -> tensor<1x512x20x20x!quant.uniform<i8:f32, 0.046367635433070861>> loc(#loc182)
    %183 = "top.Weight"() : () -> tensor<256x512x1x1xsi8> loc(#loc183)
    %184 = "top.Weight"() : () -> tensor<1x256x1x1xi32> loc(#loc184)
    %185 = "tpu.Conv2D"(%182, %183, %184) {coeff_merged = false, dilations = [1, 1], do_relu = false, do_winograd = false, dynweight_reorderd = false, group = 1 : i64, kernel_shape = [1, 1], kernel_zp = 0 : i64, multiplier = [4621365, 1578961, 1985963, 931665, 339957, 4911659, 272171, 545147, 365229, 918593, 1505985, 2653113, 2443403, 3387267, 236759, 2630359, 2433953, 1084769, 1684909, 2623619, 2586113, 1658657, 1534115, 1201227, 3006835, 1015099, 808893, 2604097, 956139, 2469155, 2673663, 3020159, 1853277, 351375, 2249077, 1388433, 1858065, 156023, 2120209, 1010195, 2807561, 3157679, 166643, 1439173, 1215901, 1635377, 284177, 3340129, 1576473, 407999, 1880629, 3368445, 2525089, 3411427, 340081, 2043635, 1283883, 656341, 1715103, 96099, 1776277, 139233, 972029, 509989, 4959341, 1306815, 1500701, 1497183, 543925, 1868981, 713317, 486209, 1494803, 906515, 182471, 2237727, 1853509, 351847, 817431, 1040793, 884955, 1750737, 338757, 1565565, 1020979, 6691195, 2153271, 508745, 2434783, 2755063, 1713265, 442313, 816391, 1126533, 2291961, 1650091, 305391, 644739, 184405, 1230535, 2915767, 575077, 1702251, 1943325, 1566477, 3474181, 2610757, 1328221, 2631731, 2765355, 828007, 2607451, 2024093, 139261, 914575, 1802161, 1423803, 636137, 2687901, 1212107, 198263, 434683, 2706453, 3963001, 2445959, 230681, 2725157, 1117175, 1059795, 3171041, 3177607, 1538751, 1910961, 2049375, 4185395, 144259, 377845, 1853043, 1488415, 233123, 2546599, 1260627, 352099, 1511717, 4717637, 3375495, 1048015, 159871, 29721, 838189, 942851, 1658495, 2271971, 753335, 2339411, 2613267, 1875923, 1881687, 1265529, 2024087, 2239591, 617391, 3464781, 1410017, 2778401, 1802077, 231511, 649997, 1825953, 668915, 1573681, 3704217, 182271, 2440641, 1685139, 477583, 1183019, 916641, 1677975, 713251, 3263419, 1262995, 4297089, 95205, 522117, 2720555, 714087, 116615, 1507475, 1906675, 2476071, 1332841, 232111, 11996443, 2525677, 2229005, 1287163, 1303641, 2134601, 1070485, 2409091, 636991, 4687659, 476951, 3264859, 653315, 2082993, 806927, 774135, 1346381, 727145, 471793, 2703575, 1766257, 514163, 6542039, 3622189, 8807111, 531775, 1286187, 2932685, 879189, 414881, 2009923, 462745, 9176883, 69739, 2569785, 1526425, 3444067, 2708041, 351905, 289049, 4510231, 4415303, 1608677, 3721873, 760187, 778983, 1054101, 531977, 2652797, 2926759, 906913, 3550647, 3149365, 1162737, 1651329, 519541, 1373369, 23337, 3669791, 1970185, 2780277, 637277, 4126001], pads = [0, 0, 0, 0], quant_mode = #tpu<rq_mode MultiplierShift>, relu_limit = -1.000000e+00 : f64, round_mode = #tpu<round_mode HalfUp>, rshift = [30, 29, 30, 29, 27, 30, 27, 28, 28, 28, 28, 30, 30, 30, 26, 30, 30, 29, 29, 30, 29, 30, 30, 29, 30, 28, 28, 30, 29, 30, 30, 30, 30, 27, 29, 29, 29, 26, 30, 28, 29, 29, 27, 29, 28, 30, 27, 30, 29, 27, 30, 30, 29, 30, 27, 30, 29, 27, 29, 26, 30, 26, 28, 27, 30, 29, 29, 29, 28, 29, 28, 28, 29, 28, 26, 30, 29, 27, 28, 29, 29, 29, 28, 29, 28, 30, 30, 28, 30, 30, 29, 27, 29, 29, 30, 29, 27, 28, 27, 29, 30, 28, 30, 30, 30, 30, 29, 29, 30, 29, 28, 30, 28, 26, 29, 30, 29, 28, 30, 29, 26, 27, 30, 30, 30, 27, 30, 28, 29, 29, 30, 29, 30, 30, 30, 26, 28, 30, 29, 27, 30, 29, 27, 29, 30, 30, 29, 25, 23, 28, 29, 30, 30, 29, 30, 30, 30, 29, 28, 29, 30, 28, 30, 29, 30, 29, 27, 28, 30, 27, 29, 30, 27, 30, 29, 28, 29, 29, 29, 29, 30, 29, 30, 25, 28, 30, 28, 25, 30, 29, 30, 29, 27, 30, 30, 29, 29, 30, 30, 29, 30, 28, 30, 28, 30, 28, 30, 29, 28, 29, 27, 27, 29, 30, 28, 30, 30, 30, 28, 28, 30, 28, 28, 30, 28, 30, 25, 30, 29, 30, 30, 27, 26, 30, 30, 29, 30, 28, 28, 29, 28, 29, 29, 29, 30, 30, 28, 29, 28, 29, 24, 29, 30, 29, 28, 30], strides = [1, 1], support_compress = true, use_3ic_optimize = 0 : i64, weight_is_coeff = 1 : i64, with_bias = true} : (tensor<1x512x20x20x!quant.uniform<i8:f32, 0.046367635433070861>>, tensor<256x512x1x1xsi8>, tensor<1x256x1x1xi32>) -> tensor<1x256x20x20x!quant.uniform<i8:f32, 0.056583201574803149>> loc(#loc185)
    %186 = "top.Weight"() : () -> tensor<1x1x1x256xsi8> loc(#loc186)
    %187 = "tpu.Lut"(%185, %186) : (tensor<1x256x20x20x!quant.uniform<i8:f32, 0.056583201574803149>>, tensor<1x1x1x256xsi8>) -> tensor<1x256x20x20x!quant.uniform<i8:f32, 0.045868659842519685>> loc(#loc187)
    %188 = "tpu.MulShift"(%187) {multiplier = 1 : si32, rshift = 0 : si32} : (tensor<1x256x20x20x!quant.uniform<i8:f32, 0.045868659842519685>>) -> tensor<1x256x20x20x!quant.uniform<i8:f32, 0.046014477952755907>> loc(#loc188)
    %189 = "tpu.Upsample"(%187) {do_relu = false, relu_limit = -1.000000e+00 : f64, scale_h = 2 : i64, scale_w = 2 : i64} : (tensor<1x256x20x20x!quant.uniform<i8:f32, 0.045868659842519685>>) -> tensor<1x256x40x40x!quant.uniform<i8:f32, 0.045868659842519685>> loc(#loc189)
    %190 = "tpu.MulShift"(%189) {multiplier = 73 : si32, rshift = 6 : si32} : (tensor<1x256x40x40x!quant.uniform<i8:f32, 0.045868659842519685>>) -> tensor<1x256x40x40x!quant.uniform<i8:f32, 0.040043029133858273>> loc(#loc190)
    %191 = "tpu.Concat"(%190, %136) {axis = 1 : si32, do_relu = false, only_merge = false, relu_limit = -1.000000e+00 : f64} : (tensor<1x256x40x40x!quant.uniform<i8:f32, 0.040043029133858273>>, tensor<1x256x40x40x!quant.uniform<i8:f32, 0.040043029133858273>>) -> tensor<1x512x40x40x!quant.uniform<i8:f32, 0.040043029133858273>> loc(#loc191)
    %192 = "top.Weight"() : () -> tensor<128x512x1x1xsi8> loc(#loc192)
    %193 = "top.Weight"() : () -> tensor<1x128x1x1xi32> loc(#loc193)
    %194 = "tpu.Conv2D"(%191, %192, %193) {coeff_merged = false, dilations = [1, 1], do_relu = false, do_winograd = false, dynweight_reorderd = false, group = 1 : i64, kernel_shape = [1, 1], kernel_zp = 0 : i64, multiplier = [2139065, 350191, 176119, 2291951, 3149233, 1065855, 604161, 336697, 1138747, 343317, 3882921, 537619, 1164575, 1486671, 2161065, 497527, 531025, 203971, 1209405, 4892645, 1080891, 1782577, 898533, 2190589, 809891, 866537, 1738385, 2092929, 385515, 440335, 1728273, 2604081, 1758379, 1725727, 360231, 1756783, 528073, 1113779, 2589455, 877775, 2493249, 374685, 484777, 222427, 1896859, 1411763, 530849, 1158683, 1145731, 144075, 2787973, 2880361, 1400219, 2074793, 496535, 1251077, 2140423, 3912225, 462895, 1239567, 2420429, 367029, 213337, 906301, 3596819, 1090395, 2811079, 2999027, 661611, 2161507, 1761953, 1402541, 527679, 1468843, 1040811, 1832897, 1080129, 314119, 789121, 2269843, 1217371, 787027, 970119, 1081837, 4105733, 392439, 805673, 2444787, 457719, 1930343, 2878771, 1616395, 1751613, 1493659, 1402655, 274841, 2603313, 537207, 1867485, 836589, 480537, 2674361, 21091, 614327, 787555, 2217583, 7023431, 2866959, 206679, 1697149, 652139, 887, 1991109, 1812883, 1308715, 1037049, 3183455, 606777, 325251, 1569577, 1732371, 1567115, 2228731, 3645485, 2937689, 1491791, 2594071, 825531], pads = [0, 0, 0, 0], quant_mode = #tpu<rq_mode MultiplierShift>, relu_limit = -1.000000e+00 : f64, round_mode = #tpu<round_mode HalfUp>, rshift = [30, 27, 26, 30, 30, 29, 28, 27, 29, 28, 30, 28, 29, 30, 30, 28, 28, 27, 29, 30, 29, 30, 29, 30, 29, 29, 28, 30, 27, 28, 30, 30, 29, 30, 28, 30, 28, 29, 30, 29, 30, 28, 28, 27, 30, 29, 28, 29, 29, 25, 30, 30, 29, 30, 29, 29, 30, 30, 28, 29, 30, 27, 26, 29, 30, 29, 30, 30, 28, 30, 30, 30, 28, 30, 29, 30, 29, 27, 28, 30, 29, 29, 29, 29, 30, 28, 29, 30, 28, 30, 29, 30, 30, 29, 29, 27, 30, 28, 30, 29, 28, 30, 23, 29, 29, 30, 30, 30, 26, 30, 28, 19, 29, 30, 29, 29, 30, 28, 28, 30, 30, 30, 30, 30, 30, 29, 30, 29], strides = [1, 1], support_compress = true, use_3ic_optimize = 0 : i64, weight_is_coeff = 1 : i64, with_bias = true} : (tensor<1x512x40x40x!quant.uniform<i8:f32, 0.040043029133858273>>, tensor<128x512x1x1xsi8>, tensor<1x128x1x1xi32>) -> tensor<1x128x40x40x!quant.uniform<i8:f32, 0.05114162283464567>> loc(#loc194)
    %195 = "top.Weight"() : () -> tensor<1x1x1x256xsi8> loc(#loc195)
    %196 = "tpu.Lut"(%194, %195) : (tensor<1x128x40x40x!quant.uniform<i8:f32, 0.05114162283464567>>, tensor<1x1x1x256xsi8>) -> tensor<1x128x40x40x!quant.uniform<i8:f32, 0.024342402362204724>> loc(#loc196)
    %197 = "top.Weight"() : () -> tensor<128x128x1x1xsi8> loc(#loc197)
    %198 = "top.Weight"() : () -> tensor<1x128x1x1xi32> loc(#loc198)
    %199 = "tpu.Conv2D"(%196, %197, %198) {coeff_merged = false, dilations = [1, 1], do_relu = false, do_winograd = false, dynweight_reorderd = false, group = 1 : i64, kernel_shape = [1, 1], kernel_zp = 0 : i64, multiplier = [1167931, 2966841, 346561, 2157755, 641, 2797527, 2767179, 1141993, 887, 212641, 3446001, 4323411, 832169, 1504973, 993739, 1041189, 1693141, 1999341, 687069, 1218347, 831633, 36735, 3629667, 1447217, 3401671, 1298155, 1736805, 1257131, 3429511, 380391, 2370579, 111249, 3047787, 1661089, 1919371, 72829, 2587941, 1542597, 1143283, 1606461, 436353, 3727973, 1166175, 2679013, 1029935, 1106431, 911429, 1505717, 2062019, 3067437, 3030155, 996281, 656117, 541239, 1691703, 325755, 1375303, 665943, 621797, 1170607, 1433981, 2011755, 289275, 910607, 2994549, 1170525, 3595685, 2958691, 681753, 2511169, 981179, 196805, 298873, 127127, 1421315, 503671, 1396999, 420335, 61677, 2049991, 264767, 6404889, 528911, 713937, 1061715, 1676861, 907631, 32013, 3811189, 117437, 2058497, 1176045, 498425, 1973907, 2251479, 333991, 2007837, 359141, 859583, 3407063, 3106875, 3223417, 565787, 1719691, 365757, 1116261, 1702301, 1239991, 1291293, 826103, 2718197, 571053, 97529, 1954075, 2364661, 636501, 2690697, 2747709, 511989, 1260699, 411913, 2058461, 3433879, 1709749, 1011327, 422851, 2411669, 331163], pads = [0, 0, 0, 0], quant_mode = #tpu<rq_mode MultiplierShift>, relu_limit = -1.000000e+00 : f64, round_mode = #tpu<round_mode HalfUp>, rshift = [29, 30, 27, 30, 18, 30, 30, 29, 18, 27, 30, 30, 28, 29, 28, 29, 29, 29, 28, 29, 29, 24, 30, 29, 30, 29, 29, 29, 30, 28, 30, 25, 30, 29, 30, 25, 30, 30, 29, 29, 27, 30, 29, 30, 29, 29, 29, 29, 30, 30, 30, 29, 28, 28, 29, 28, 29, 28, 28, 29, 29, 30, 27, 28, 30, 29, 30, 30, 28, 30, 29, 26, 27, 26, 29, 28, 29, 27, 24, 30, 27, 30, 27, 28, 29, 29, 29, 24, 30, 25, 29, 29, 28, 29, 30, 27, 29, 27, 28, 30, 30, 30, 28, 29, 27, 29, 29, 29, 28, 29, 30, 28, 24, 30, 30, 28, 30, 29, 28, 29, 27, 30, 30, 29, 29, 28, 30, 27], strides = [1, 1], support_compress = true, use_3ic_optimize = 0 : i64, weight_is_coeff = 1 : i64, with_bias = true} : (tensor<1x128x40x40x!quant.uniform<i8:f32, 0.024342402362204724>>, tensor<128x128x1x1xsi8>, tensor<1x128x1x1xi32>) -> tensor<1x128x40x40x!quant.uniform<i8:f32, 0.05376176771653543>> loc(#loc199)
    %200 = "top.Weight"() : () -> tensor<1x1x1x256xsi8> loc(#loc200)
    %201 = "tpu.Lut"(%199, %200) : (tensor<1x128x40x40x!quant.uniform<i8:f32, 0.05376176771653543>>, tensor<1x1x1x256xsi8>) -> tensor<1x128x40x40x!quant.uniform<i8:f32, 0.034454263779527559>> loc(#loc201)
    %202 = "top.Weight"() : () -> tensor<128x128x3x3xsi8> loc(#loc202)
    %203 = "top.Weight"() : () -> tensor<1x128x1x1xi32> loc(#loc203)
    %204 = "tpu.Conv2D"(%201, %202, %203) {coeff_merged = false, dilations = [1, 1], do_relu = false, do_winograd = false, dynweight_reorderd = false, group = 1 : i64, kernel_shape = [3, 3], kernel_zp = 0 : i64, multiplier = [447591, 1002711, 960877, 583543, 2444205, 706947, 793873, 1054595, 448543, 1516125, 60229, 247795, 434953, 1686213, 1735609, 1476643, 108669, 2156963, 1731481, 94079, 1100563, 2410719, 868343, 2295721, 482619, 44141, 337483, 537505, 908185, 1144359, 556769, 947241, 321059, 910829, 621359, 2044205, 1306335, 360555, 889827, 972841, 1014981, 683519, 926743, 1755499, 1655209, 643163, 2065009, 65719, 109863, 1867917, 259615, 1747781, 1555103, 381711, 120931, 1866709, 428781, 1953059, 521797, 1058471, 876297, 583213, 2183307, 668301, 195103, 860581, 152659, 831667, 1211037, 1270957, 107265, 2020671, 2684951, 619129, 1479419, 1579185, 1112615, 1231177, 49151, 4293019, 1008735, 573935, 32051, 621819, 219165, 675583, 253909, 259749, 1154053, 411285, 1864325, 848383, 493605, 37287, 1736045, 2381469, 193899, 123933, 1819311, 886261, 626831, 481661, 2892579, 122537, 760481, 2253443, 488309, 3105837, 296385, 968609, 2861109, 3113233, 457629, 1363615, 830107, 159799, 700577, 1456587, 2063217, 873521, 703441, 491439, 1732323, 155213, 1816549, 364739, 1759605, 643329], pads = [1, 1, 1, 1], quant_mode = #tpu<rq_mode MultiplierShift>, relu_limit = -1.000000e+00 : f64, round_mode = #tpu<round_mode HalfUp>, rshift = [29, 29, 29, 29, 30, 28, 29, 29, 29, 30, 26, 27, 28, 30, 30, 29, 26, 30, 30, 27, 30, 30, 30, 30, 29, 25, 28, 29, 28, 30, 29, 30, 28, 29, 29, 30, 29, 28, 30, 28, 29, 29, 30, 30, 30, 29, 30, 25, 25, 30, 27, 30, 30, 27, 26, 30, 29, 30, 28, 29, 30, 29, 30, 28, 27, 29, 27, 29, 30, 29, 26, 30, 30, 29, 29, 30, 29, 30, 25, 30, 29, 29, 24, 28, 27, 29, 27, 27, 30, 28, 30, 29, 28, 25, 30, 30, 28, 26, 30, 30, 29, 29, 30, 27, 28, 30, 28, 30, 29, 29, 30, 30, 29, 30, 29, 29, 28, 29, 30, 29, 29, 28, 30, 27, 29, 28, 30, 29], strides = [1, 1], support_compress = true, use_3ic_optimize = 0 : i64, weight_is_coeff = 1 : i64, with_bias = true} : (tensor<1x128x40x40x!quant.uniform<i8:f32, 0.034454263779527559>>, tensor<128x128x3x3xsi8>, tensor<1x128x1x1xi32>) -> tensor<1x128x40x40x!quant.uniform<i8:f32, 0.0477942968503937>> loc(#loc204)
    %205 = "top.Weight"() : () -> tensor<1x1x1x256xsi8> loc(#loc205)
    %206 = "tpu.Lut"(%204, %205) : (tensor<1x128x40x40x!quant.uniform<i8:f32, 0.0477942968503937>>, tensor<1x1x1x256xsi8>) -> tensor<1x128x40x40x!quant.uniform<i8:f32, 0.029759533858267715>> loc(#loc206)
    %207 = "top.Weight"() : () -> tensor<128x512x1x1xsi8> loc(#loc207)
    %208 = "top.Weight"() : () -> tensor<1x128x1x1xi32> loc(#loc208)
    %209 = "tpu.Conv2D"(%191, %207, %208) {coeff_merged = false, dilations = [1, 1], do_relu = false, do_winograd = false, dynweight_reorderd = false, group = 1 : i64, kernel_shape = [1, 1], kernel_zp = 0 : i64, multiplier = [295857, 1274543, 2671759, 1086077, 1444885, 2481211, 618601, 2879995, 693283, 1562769, 2280937, 1781709, 531377, 1889193, 1083339, 2692891, 398925, 2388167, 2365481, 2360519, 2527657, 916001, 253319, 956021, 630467, 1142507, 1992443, 2591715, 2483235, 1456319, 1693501, 2790191, 1367491, 3262093, 848565, 2204157, 13599, 1166485, 2383787, 1825543, 2354105, 2297455, 1374941, 716219, 496375, 994979, 1669631, 2053585, 738901, 231911, 1062899, 530163, 2722159, 1020419, 1993321, 1628959, 790915, 555511, 772505, 1604111, 112577, 1392589, 1042849, 2897349, 153773, 2543483, 115911, 1899, 1263959, 1482495, 408963, 2677971, 1179763, 284935, 1953851, 1385529, 467867, 1080125, 811619, 258749, 2210139, 1441085, 402905, 1892835, 1640217, 959929, 921411, 3476773, 1414291, 715153, 934713, 689021, 257903, 811067, 1787513, 2894019, 1576815, 2515905, 2413465, 1541071, 2508199, 383539, 2149655, 1201765, 857917, 2470339, 1562353, 4293619, 499853, 1050545, 2879075, 2598451, 1714655, 670721, 2512441, 150631, 2266461, 1672311, 618019, 2424231, 2694373, 15905, 894303, 2173179, 340669, 2749575, 2652105, 609767], pads = [0, 0, 0, 0], quant_mode = #tpu<rq_mode MultiplierShift>, relu_limit = -1.000000e+00 : f64, round_mode = #tpu<round_mode HalfUp>, rshift = [27, 30, 30, 29, 29, 29, 29, 30, 28, 30, 30, 30, 28, 30, 29, 30, 27, 30, 30, 30, 30, 29, 27, 29, 28, 29, 30, 30, 30, 29, 30, 30, 29, 29, 29, 30, 23, 29, 30, 30, 30, 30, 30, 28, 28, 29, 30, 30, 28, 26, 29, 28, 30, 29, 30, 30, 29, 28, 29, 30, 26, 30, 29, 30, 26, 30, 26, 19, 29, 30, 28, 30, 29, 27, 30, 30, 28, 29, 29, 27, 30, 30, 28, 30, 30, 29, 29, 30, 29, 29, 29, 28, 27, 28, 30, 30, 29, 30, 30, 29, 30, 28, 30, 29, 29, 30, 29, 30, 27, 29, 30, 30, 30, 29, 30, 26, 30, 30, 28, 30, 30, 23, 29, 30, 27, 30, 30, 28], strides = [1, 1], support_compress = true, use_3ic_optimize = 0 : i64, weight_is_coeff = 1 : i64, with_bias = true} : (tensor<1x512x40x40x!quant.uniform<i8:f32, 0.040043029133858273>>, tensor<128x512x1x1xsi8>, tensor<1x128x1x1xi32>) -> tensor<1x128x40x40x!quant.uniform<i8:f32, 0.050511762204724413>> loc(#loc209)
    %210 = "top.Weight"() : () -> tensor<1x1x1x256xsi8> loc(#loc210)
    %211 = "tpu.Lut"(%209, %210) : (tensor<1x128x40x40x!quant.uniform<i8:f32, 0.050511762204724413>>, tensor<1x1x1x256xsi8>) -> tensor<1x128x40x40x!quant.uniform<i8:f32, 0.029759533858267715>> loc(#loc211)
    %212 = "tpu.Concat"(%206, %211) {axis = 1 : si32, do_relu = false, only_merge = false, relu_limit = -1.000000e+00 : f64} : (tensor<1x128x40x40x!quant.uniform<i8:f32, 0.029759533858267715>>, tensor<1x128x40x40x!quant.uniform<i8:f32, 0.029759533858267715>>) -> tensor<1x256x40x40x!quant.uniform<i8:f32, 0.029759533858267715>> loc(#loc212)
    %213 = "top.Weight"() : () -> tensor<256x256x1x1xsi8> loc(#loc213)
    %214 = "top.Weight"() : () -> tensor<1x256x1x1xi32> loc(#loc214)
    %215 = "tpu.Conv2D"(%212, %213, %214) {coeff_merged = false, dilations = [1, 1], do_relu = false, do_winograd = false, dynweight_reorderd = false, group = 1 : i64, kernel_shape = [1, 1], kernel_zp = 0 : i64, multiplier = [1606097, 65517, 389769, 2361287, 2128255, 437585, 1330691, 1659225, 3242963, 1962227, 3416795, 2323981, 1934665, 127099, 1350309, 2499897, 868573, 1346407, 605841, 1536961, 1262891, 833253, 368187, 2928023, 380019, 28579, 2116861, 1200177, 1807643, 2864415, 2251113, 1365265, 2362879, 1580157, 400999, 2612959, 1523825, 1832495, 300443, 1367803, 1091129, 1593533, 625867, 1569717, 186779, 53467, 1372621, 1086769, 22075, 1045773, 1700105, 3173861, 535357, 2251281, 1961487, 2103097, 544643, 3639293, 1399763, 379031, 1067363, 731807, 1854561, 274321, 816811, 1302813, 1817217, 137439, 320729, 2563215, 2040807, 613969, 519247, 1256323, 1876755, 122179, 2145363, 1713443, 359593, 1540171, 1490757, 888381, 2022879, 3104827, 987037, 2679333, 2019323, 2396197, 674693, 2242383, 674025, 162275, 744271, 1949483, 624423, 1195995, 175967, 938421, 899691, 819055, 32023, 1206175, 106011, 2522453, 2355993, 813775, 1753393, 1018995, 466183, 1715581, 1482345, 1646041, 634337, 1996949, 3176959, 585301, 508721, 2528065, 1874401, 27199, 1272029, 2131525, 2971229, 3147433, 1529991, 1863089, 309, 2781499, 1492527, 202729, 2082125, 746439, 3092519, 890377, 1375887, 472691, 2813421, 1161065, 441727, 2001939, 1067139, 2106687, 1966623, 267135, 1901345, 1335447, 566919, 2304095, 975255, 893661, 1704207, 463691, 1566961, 3394389, 396447, 1604747, 2408629, 2183597, 385933, 2269633, 1158415, 925037, 197163, 518977, 2282569, 3028219, 1960809, 993647, 2670671, 2337567, 330435, 1738393, 378105, 765151, 2340503, 2563421, 556233, 736389, 1924175, 2866153, 1931139, 1746833, 940579, 1209395, 1494567, 571261, 1163029, 536447, 1710053, 288647, 760433, 231531, 706325, 1142431, 216819, 1253771, 1061549, 129645, 1281263, 1409473, 1296367, 168749, 1393709, 1013095, 2434829, 2721649, 1369379, 593195, 2030437, 251475, 1478405, 2638751, 286351, 523585, 1242399, 825507, 554535, 304071, 1316573, 1875043, 1558627, 864045, 1415921, 1167391, 557121, 1172791, 2405957, 2393747, 1372773, 2868215, 2000303, 2283883, 988377, 794605, 2475387, 1457859, 2316853, 2815909, 635499, 170457, 1535015, 1717025, 1249209, 1096933, 1004973, 1459423, 437669, 669725, 96137, 1137441, 1339041, 2943647, 604347, 1682589, 1590949, 528343], pads = [0, 0, 0, 0], quant_mode = #tpu<rq_mode MultiplierShift>, relu_limit = -1.000000e+00 : f64, round_mode = #tpu<round_mode HalfUp>, rshift = [30, 25, 28, 30, 30, 27, 29, 29, 30, 29, 30, 30, 30, 26, 29, 30, 29, 29, 28, 29, 29, 29, 28, 30, 27, 24, 30, 29, 30, 30, 30, 29, 30, 30, 28, 30, 29, 30, 27, 29, 29, 30, 28, 29, 27, 25, 29, 29, 23, 29, 29, 30, 28, 30, 29, 30, 28, 30, 30, 27, 29, 28, 30, 27, 29, 29, 30, 26, 27, 30, 30, 28, 28, 29, 29, 26, 29, 30, 27, 30, 29, 29, 30, 30, 29, 30, 30, 30, 28, 30, 29, 27, 29, 30, 28, 29, 27, 29, 29, 29, 24, 29, 25, 30, 30, 29, 30, 28, 28, 29, 29, 29, 28, 30, 30, 28, 28, 30, 30, 24, 30, 30, 30, 30, 30, 30, 17, 30, 30, 27, 30, 28, 30, 29, 29, 28, 30, 29, 28, 30, 29, 30, 30, 27, 30, 29, 28, 30, 29, 29, 30, 28, 30, 30, 28, 29, 30, 30, 27, 30, 29, 29, 27, 28, 30, 30, 30, 29, 30, 30, 27, 29, 27, 29, 30, 30, 28, 28, 30, 30, 30, 30, 29, 29, 30, 28, 29, 28, 29, 27, 28, 27, 29, 29, 27, 29, 29, 26, 29, 30, 30, 26, 29, 29, 30, 30, 29, 28, 30, 27, 30, 30, 27, 27, 29, 28, 28, 27, 29, 30, 30, 29, 29, 29, 27, 29, 30, 30, 29, 30, 30, 30, 29, 29, 30, 29, 29, 30, 28, 27, 29, 29, 29, 29, 29, 29, 28, 29, 26, 29, 29, 30, 28, 28, 30, 28], strides = [1, 1], support_compress = true, use_3ic_optimize = 0 : i64, weight_is_coeff = 1 : i64, with_bias = true} : (tensor<1x256x40x40x!quant.uniform<i8:f32, 0.029759533858267715>>, tensor<256x256x1x1xsi8>, tensor<1x256x1x1xi32>) -> tensor<1x256x40x40x!quant.uniform<i8:f32, 0.062721117322834641>> loc(#loc215)
    %216 = "top.Weight"() : () -> tensor<1x1x1x256xsi8> loc(#loc216)
    %217 = "tpu.Lut"(%215, %216) : (tensor<1x256x40x40x!quant.uniform<i8:f32, 0.062721117322834641>>, tensor<1x1x1x256xsi8>) -> tensor<1x256x40x40x!quant.uniform<i8:f32, 0.040151231496062992>> loc(#loc217)
    %218 = "top.Weight"() : () -> tensor<128x256x1x1xsi8> loc(#loc218)
    %219 = "top.Weight"() : () -> tensor<1x128x1x1xi32> loc(#loc219)
    %220 = "tpu.Conv2D"(%217, %218, %219) {coeff_merged = false, dilations = [1, 1], do_relu = false, do_winograd = false, dynweight_reorderd = false, group = 1 : i64, kernel_shape = [1, 1], kernel_zp = 0 : i64, multiplier = [496447, 519503, 820209, 1391995, 1726499, 816223, 1050097, 1844063, 2265791, 1083479, 2724837, 342707, 735769, 1098183, 3110109, 1336053, 2731827, 1398801, 2161573, 3149363, 2926721, 3550247, 561147, 2130313, 721573, 3242803, 4433039, 2582083, 1327307, 810665, 3409209, 1962731, 3635639, 2039187, 1075873, 1572559, 854143, 566115, 2526619, 2356573, 583049, 3610977, 1880723, 1824883, 875529, 3659413, 6773, 982071, 1165269, 2834917, 426511, 12253, 1770463, 4782053, 1236691, 2421219, 306301, 1359561, 95323, 136847, 989049, 91181, 649903, 2386079, 582673, 721889, 1195141, 929541, 1268893, 1747519, 207859, 2476813, 2082029, 2144479, 2820727, 2245919, 1931175, 3933165, 777035, 3074381, 1621673, 3257183, 2932609, 1724811, 2112715, 1676187, 1718005, 1331093, 279353, 869813, 2860587, 1715137, 3543667, 711847, 272743, 1108873, 2877261, 544813, 1934711, 2023553, 1492023, 609097, 1278031, 289129, 458889, 1214769, 3201269, 1695329, 2065891, 2676263, 938555, 116957, 374713, 98233, 68067, 1669897, 1821697, 61291, 1913699, 258335, 1231841, 2088979, 2451773, 2127025, 765035, 1069659, 3310953, 1342041], pads = [0, 0, 0, 0], quant_mode = #tpu<rq_mode MultiplierShift>, relu_limit = -1.000000e+00 : f64, round_mode = #tpu<round_mode HalfUp>, rshift = [28, 28, 28, 29, 29, 29, 28, 30, 30, 29, 30, 27, 28, 29, 30, 29, 30, 29, 30, 30, 30, 30, 27, 30, 28, 30, 30, 30, 29, 28, 30, 30, 30, 30, 28, 30, 29, 28, 30, 29, 28, 30, 29, 30, 29, 30, 22, 29, 29, 30, 28, 23, 29, 30, 29, 30, 27, 29, 26, 26, 29, 25, 28, 30, 28, 28, 29, 29, 29, 29, 26, 30, 30, 29, 30, 30, 30, 30, 28, 30, 30, 30, 30, 30, 30, 29, 30, 29, 28, 28, 30, 30, 30, 28, 27, 29, 30, 28, 30, 30, 29, 28, 29, 27, 27, 29, 30, 29, 30, 30, 29, 25, 28, 25, 25, 29, 30, 25, 30, 27, 29, 30, 30, 30, 28, 29, 30, 29], strides = [1, 1], support_compress = true, use_3ic_optimize = 0 : i64, weight_is_coeff = 1 : i64, with_bias = true} : (tensor<1x256x40x40x!quant.uniform<i8:f32, 0.040151231496062992>>, tensor<128x256x1x1xsi8>, tensor<1x128x1x1xi32>) -> tensor<1x128x40x40x!quant.uniform<i8:f32, 0.045750985826771652>> loc(#loc220)
    %221 = "top.Weight"() : () -> tensor<1x1x1x256xsi8> loc(#loc221)
    %222 = "tpu.Lut"(%220, %221) : (tensor<1x128x40x40x!quant.uniform<i8:f32, 0.045750985826771652>>, tensor<1x1x1x256xsi8>) -> tensor<1x128x40x40x!quant.uniform<i8:f32, 0.033892595275590548>> loc(#loc222)
    %223 = "tpu.MulShift"(%222) {multiplier = 115 : si32, rshift = 7 : si32} : (tensor<1x128x40x40x!quant.uniform<i8:f32, 0.033892595275590548>>) -> tensor<1x128x40x40x!quant.uniform<i8:f32, 0.037835844094488189>> loc(#loc223)
    %224 = "tpu.Upsample"(%222) {do_relu = false, relu_limit = -1.000000e+00 : f64, scale_h = 2 : i64, scale_w = 2 : i64} : (tensor<1x128x40x40x!quant.uniform<i8:f32, 0.033892595275590548>>) -> tensor<1x128x80x80x!quant.uniform<i8:f32, 0.033892595275590548>> loc(#loc224)
    %225 = "tpu.MulShift"(%224) {multiplier = 9 : si32, rshift = 3 : si32} : (tensor<1x128x80x80x!quant.uniform<i8:f32, 0.033892595275590548>>) -> tensor<1x128x80x80x!quant.uniform<i8:f32, 0.030274422834645671>> loc(#loc225)
    %226 = "tpu.Concat"(%225, %82) {axis = 1 : si32, do_relu = false, only_merge = false, relu_limit = -1.000000e+00 : f64} : (tensor<1x128x80x80x!quant.uniform<i8:f32, 0.030274422834645671>>, tensor<1x128x80x80x!quant.uniform<i8:f32, 0.030274422834645671>>) -> tensor<1x256x80x80x!quant.uniform<i8:f32, 0.030274422834645671>> loc(#loc226)
    %227 = "top.Weight"() : () -> tensor<64x256x1x1xsi8> loc(#loc227)
    %228 = "top.Weight"() : () -> tensor<1x64x1x1xi32> loc(#loc228)
    %229 = "tpu.Conv2D"(%226, %227, %228) {coeff_merged = false, dilations = [1, 1], do_relu = false, do_winograd = false, dynweight_reorderd = false, group = 1 : i64, kernel_shape = [1, 1], kernel_zp = 0 : i64, multiplier = [1224205, 1233521, 371225, 573991, 1659871, 543999, 21185, 336009, 1204363, 1673015, 1391001, 741261, 633523, 561243, 1791281, 747255, 889689, 1410375, 1201431, 1276373, 642381, 2829499, 129747, 2763793, 4492367, 628215, 356717, 1356889, 235869, 74643, 1765039, 604575, 1436871, 1221681, 616855, 2953085, 1935157, 2655369, 198763, 162815, 543155, 1349625, 1955879, 560459, 2529185, 2018175, 111203, 1101009, 2388803, 681257, 265991, 551593, 2256487, 4436597, 184107, 381559, 505671, 214723, 1425973, 1260883, 2943203, 4537801, 694503, 1441961], pads = [0, 0, 0, 0], quant_mode = #tpu<rq_mode MultiplierShift>, relu_limit = -1.000000e+00 : f64, round_mode = #tpu<round_mode HalfUp>, rshift = [29, 29, 28, 27, 29, 29, 23, 26, 29, 30, 29, 29, 28, 29, 29, 28, 29, 29, 29, 29, 29, 30, 27, 30, 30, 28, 28, 29, 27, 25, 30, 29, 30, 29, 28, 30, 29, 30, 26, 27, 28, 29, 30, 29, 30, 30, 26, 28, 30, 28, 27, 28, 30, 30, 26, 27, 29, 27, 30, 30, 30, 30, 29, 29], strides = [1, 1], support_compress = true, use_3ic_optimize = 0 : i64, weight_is_coeff = 1 : i64, with_bias = true} : (tensor<1x256x80x80x!quant.uniform<i8:f32, 0.030274422834645671>>, tensor<64x256x1x1xsi8>, tensor<1x64x1x1xi32>) -> tensor<1x64x80x80x!quant.uniform<i8:f32, 0.042595983464566931>> loc(#loc229)
    %230 = "top.Weight"() : () -> tensor<1x1x1x256xsi8> loc(#loc230)
    %231 = "tpu.Lut"(%229, %230) : (tensor<1x64x80x80x!quant.uniform<i8:f32, 0.042595983464566931>>, tensor<1x1x1x256xsi8>) -> tensor<1x64x80x80x!quant.uniform<i8:f32, 0.018695966929133858>> loc(#loc231)
    %232 = "top.Weight"() : () -> tensor<64x64x1x1xsi8> loc(#loc232)
    %233 = "top.Weight"() : () -> tensor<1x64x1x1xi32> loc(#loc233)
    %234 = "tpu.Conv2D"(%231, %232, %233) {coeff_merged = false, dilations = [1, 1], do_relu = false, do_winograd = false, dynweight_reorderd = false, group = 1 : i64, kernel_shape = [1, 1], kernel_zp = 0 : i64, multiplier = [477707, 578851, 1474755, 284433, 2745329, 2368789, 895317, 2882351, 3928521, 1129723, 77527, 2606075, 4028673, 1450873, 5200411, 1317347, 2170717, 4729171, 5177013, 2417305, 4600001, 1425711, 423461, 2571239, 1753423, 1591957, 994943, 698167, 1020325, 2833853, 183641, 2485625, 851669, 4196015, 3602965, 5536387, 3534589, 3355263, 1807877, 843811, 2947955, 1838089, 4096177, 3560049, 2652497, 168137, 4182779, 5586573, 3917915, 1298441, 1657253, 1858279, 2969091, 3283057, 1953857, 2704845, 3691625, 3761893, 1599511, 3935813, 108525, 1521219, 1528037, 1610239], pads = [0, 0, 0, 0], quant_mode = #tpu<rq_mode MultiplierShift>, relu_limit = -1.000000e+00 : f64, round_mode = #tpu<round_mode HalfUp>, rshift = [28, 27, 29, 26, 29, 29, 28, 29, 30, 28, 24, 30, 29, 29, 30, 29, 29, 30, 30, 29, 30, 30, 27, 29, 30, 29, 28, 27, 28, 30, 25, 30, 28, 30, 30, 30, 30, 30, 29, 28, 29, 29, 29, 30, 29, 26, 30, 30, 30, 28, 28, 29, 29, 30, 30, 30, 30, 30, 29, 30, 26, 29, 30, 29], strides = [1, 1], support_compress = true, use_3ic_optimize = 0 : i64, weight_is_coeff = 1 : i64, with_bias = true} : (tensor<1x64x80x80x!quant.uniform<i8:f32, 0.018695966929133858>>, tensor<64x64x1x1xsi8>, tensor<1x64x1x1xi32>) -> tensor<1x64x80x80x!quant.uniform<i8:f32, 0.039544574803149601>> loc(#loc234)
    %235 = "top.Weight"() : () -> tensor<1x1x1x256xsi8> loc(#loc235)
    %236 = "tpu.Lut"(%234, %235) : (tensor<1x64x80x80x!quant.uniform<i8:f32, 0.039544574803149601>>, tensor<1x1x1x256xsi8>) -> tensor<1x64x80x80x!quant.uniform<i8:f32, 0.027242776377952756>> loc(#loc236)
    %237 = "top.Weight"() : () -> tensor<64x64x3x3xsi8> loc(#loc237)
    %238 = "top.Weight"() : () -> tensor<1x64x1x1xi32> loc(#loc238)
    %239 = "tpu.Conv2D"(%236, %237, %238) {coeff_merged = false, dilations = [1, 1], do_relu = false, do_winograd = false, dynweight_reorderd = false, group = 1 : i64, kernel_shape = [3, 3], kernel_zp = 0 : i64, multiplier = [2516683, 732027, 3510579, 2529815, 1556127, 2170217, 2011257, 7887, 1220209, 828039, 1627501, 3066029, 502299, 1386083, 919789, 219695, 701553, 1864639, 104275, 2192085, 1494661, 235403, 1891007, 318923, 1550899, 149461, 2322749, 690099, 1265683, 1339295, 573593, 2129633, 713541, 902543, 3431305, 639909, 664885, 611547, 2118597, 903131, 2449833, 784277, 1434839, 2763345, 979971, 1933819, 730803, 2524631, 291281, 1575207, 2066329, 721963, 1757381, 1142275, 2622939, 2739485, 1382965, 706955, 995045, 9703, 1682695, 2609165, 3757025, 299781], pads = [1, 1, 1, 1], quant_mode = #tpu<rq_mode MultiplierShift>, relu_limit = -1.000000e+00 : f64, round_mode = #tpu<round_mode HalfUp>, rshift = [30, 28, 30, 30, 30, 30, 30, 23, 29, 29, 29, 30, 27, 30, 29, 26, 29, 30, 26, 29, 29, 26, 29, 27, 29, 27, 30, 29, 30, 29, 28, 30, 29, 29, 30, 28, 29, 28, 30, 29, 30, 29, 29, 30, 29, 30, 28, 30, 28, 29, 30, 28, 30, 29, 30, 30, 29, 28, 28, 22, 29, 29, 30, 28], strides = [1, 1], support_compress = true, use_3ic_optimize = 0 : i64, weight_is_coeff = 1 : i64, with_bias = true} : (tensor<1x64x80x80x!quant.uniform<i8:f32, 0.027242776377952756>>, tensor<64x64x3x3xsi8>, tensor<1x64x1x1xi32>) -> tensor<1x64x80x80x!quant.uniform<i8:f32, 0.071361091338582677>> loc(#loc239)
    %240 = "top.Weight"() : () -> tensor<1x1x1x256xsi8> loc(#loc240)
    %241 = "tpu.Lut"(%239, %240) : (tensor<1x64x80x80x!quant.uniform<i8:f32, 0.071361091338582677>>, tensor<1x1x1x256xsi8>) -> tensor<1x64x80x80x!quant.uniform<i8:f32, 0.071617907086614169>> loc(#loc241)
    %242 = "top.Weight"() : () -> tensor<64x256x1x1xsi8> loc(#loc242)
    %243 = "top.Weight"() : () -> tensor<1x64x1x1xi32> loc(#loc243)
    %244 = "tpu.Conv2D"(%226, %242, %243) {coeff_merged = false, dilations = [1, 1], do_relu = false, do_winograd = false, dynweight_reorderd = false, group = 1 : i64, kernel_shape = [1, 1], kernel_zp = 0 : i64, multiplier = [1221703, 2623497, 1940423, 1616747, 302729, 341457, 2596793, 2863785, 1893491, 1648957, 2945767, 2942145, 1559271, 1347375, 88633, 662259, 1190245, 1333107, 1585659, 3397255, 531933, 182673, 1127139, 2026745, 912501, 2924693, 1005027, 2862347, 1198573, 1419195, 442659, 1607005, 1571329, 1567541, 3230541, 1867639, 615903, 202053, 728865, 1412069, 3200749, 1340077, 885155, 159281, 2221539, 2145595, 3656193, 917369, 1732445, 2604421, 1094133, 2587769, 2464981, 1035907, 1874421, 4309589, 1730085, 3693225, 1859959, 836331, 2456171, 1873419, 666355, 1025685], pads = [0, 0, 0, 0], quant_mode = #tpu<rq_mode MultiplierShift>, relu_limit = -1.000000e+00 : f64, round_mode = #tpu<round_mode HalfUp>, rshift = [29, 30, 30, 30, 28, 28, 30, 30, 30, 29, 30, 30, 29, 29, 25, 28, 29, 29, 29, 30, 27, 26, 29, 30, 28, 30, 29, 30, 29, 29, 27, 29, 30, 29, 30, 29, 28, 26, 28, 29, 30, 30, 29, 27, 29, 30, 30, 28, 30, 30, 29, 29, 30, 29, 30, 30, 30, 29, 29, 29, 30, 30, 28, 29], strides = [1, 1], support_compress = true, use_3ic_optimize = 0 : i64, weight_is_coeff = 1 : i64, with_bias = true} : (tensor<1x256x80x80x!quant.uniform<i8:f32, 0.030274422834645671>>, tensor<64x256x1x1xsi8>, tensor<1x64x1x1xi32>) -> tensor<1x64x80x80x!quant.uniform<i8:f32, 0.049906219685039367>> loc(#loc244)
    %245 = "top.Weight"() : () -> tensor<1x1x1x256xsi8> loc(#loc245)
    %246 = "tpu.Lut"(%244, %245) : (tensor<1x64x80x80x!quant.uniform<i8:f32, 0.049906219685039367>>, tensor<1x1x1x256xsi8>) -> tensor<1x64x80x80x!quant.uniform<i8:f32, 0.071617907086614169>> loc(#loc246)
    %247 = "tpu.Concat"(%241, %246) {axis = 1 : si32, do_relu = false, only_merge = false, relu_limit = -1.000000e+00 : f64} : (tensor<1x64x80x80x!quant.uniform<i8:f32, 0.071617907086614169>>, tensor<1x64x80x80x!quant.uniform<i8:f32, 0.071617907086614169>>) -> tensor<1x128x80x80x!quant.uniform<i8:f32, 0.071617907086614169>> loc(#loc247)
    %248 = "top.Weight"() : () -> tensor<128x128x1x1xsi8> loc(#loc248)
    %249 = "top.Weight"() : () -> tensor<1x128x1x1xi32> loc(#loc249)
    %250 = "tpu.Conv2D"(%247, %248, %249) {coeff_merged = false, dilations = [1, 1], do_relu = false, do_winograd = false, dynweight_reorderd = false, group = 1 : i64, kernel_shape = [1, 1], kernel_zp = 0 : i64, multiplier = [6102411, 2430081, 9041923, 609499, 1521433, 457879, 354301, 1962707, 1801749, 813931, 2744359, 558311, 3422765, 8524783, 3444029, 10677561, 11564611, 2782923, 2868843, 1155231, 2909675, 8763541, 5508147, 3844905, 8955421, 1700739, 1166391, 1655605, 11890605, 448609, 1776417, 3862257, 270715, 10139891, 1127297, 2881777, 1138357, 252115, 2913265, 6124511, 4783495, 7339193, 3751023, 1192407, 3899009, 2249119, 8892027, 8561971, 8600635, 4840303, 5215683, 2500679, 5096663, 2147745, 970407, 567825, 4776601, 1757545, 873527, 2351735, 3566031, 5793371, 241355, 4367679, 220591, 8989833, 1429725, 242057, 3025639, 240557, 2784839, 1662901, 877509, 8691281, 1715625, 1955301, 1276883, 4143527, 2806409, 9462309, 582741, 1825805, 3707369, 6954785, 1369771, 1771733, 8820559, 3195873, 344857, 2016029, 11676511, 9373991, 3684159, 2709929, 3639041, 4251671, 406623, 2381189, 1829913, 3195801, 5918689, 2095607, 7595359, 1354821, 515477, 2047767, 36441, 718053, 788069, 3548189, 1323197, 2715079, 1626435, 4623435, 2114585, 2590207, 1131073, 12166419, 2900945, 3053453, 859121, 7921889, 3690805, 455719, 4240437, 10109337, 7113797, 8456771], pads = [0, 0, 0, 0], quant_mode = #tpu<rq_mode MultiplierShift>, relu_limit = -1.000000e+00 : f64, round_mode = #tpu<round_mode HalfUp>, rshift = [30, 29, 30, 28, 29, 26, 26, 28, 28, 28, 29, 26, 30, 30, 30, 30, 30, 30, 29, 28, 29, 30, 30, 30, 30, 28, 27, 28, 30, 26, 28, 30, 26, 30, 27, 30, 28, 26, 29, 30, 29, 30, 29, 26, 29, 29, 30, 30, 30, 29, 29, 30, 29, 29, 27, 27, 30, 30, 28, 29, 29, 30, 25, 29, 25, 30, 29, 26, 30, 27, 29, 29, 27, 30, 28, 29, 29, 29, 29, 30, 26, 29, 30, 30, 28, 30, 30, 29, 26, 28, 30, 30, 29, 29, 29, 29, 26, 29, 28, 29, 30, 30, 30, 29, 26, 28, 23, 29, 27, 29, 30, 30, 28, 29, 30, 28, 27, 30, 29, 29, 28, 30, 29, 27, 29, 30, 30, 30], strides = [1, 1], support_compress = true, use_3ic_optimize = 0 : i64, weight_is_coeff = 1 : i64, with_bias = true} : (tensor<1x128x80x80x!quant.uniform<i8:f32, 0.071617907086614169>>, tensor<128x128x1x1xsi8>, tensor<1x128x1x1xi32>) -> tensor<1x128x80x80x!quant.uniform<i8:f32, 0.16584052440944883>> loc(#loc250)
    %251 = "top.Weight"() : () -> tensor<1x1x1x256xsi8> loc(#loc251)
    %252 = "tpu.Lut"(%250, %251) : (tensor<1x128x80x80x!quant.uniform<i8:f32, 0.16584052440944883>>, tensor<1x1x1x256xsi8>) -> tensor<1x128x80x80x!quant.uniform<i8:f32, 0.13672920708661418>> loc(#loc252)
    %253 = "top.Weight"() : () -> tensor<128x128x3x3xsi8> loc(#loc253)
    %254 = "top.Weight"() : () -> tensor<1x128x1x1xi32> loc(#loc254)
    %255 = "tpu.Conv2D"(%252, %253, %254) {coeff_merged = false, dilations = [1, 1], do_relu = false, do_winograd = false, dynweight_reorderd = false, group = 1 : i64, kernel_shape = [3, 3], kernel_zp = 0 : i64, multiplier = [616583, 524255, 412271, 846073, 527427, 4217249, 114635, 46709, 1422573, 775721, 2805779, 860559, 388305, 2954501, 2499631, 2602311, 2318079, 613579, 1846283, 534705, 1565003, 968519, 1500659, 897793, 976815, 2175087, 3315799, 358303, 1483241, 725631, 3995283, 1737481, 2248991, 137755, 3178373, 184411, 427677, 234795, 2155619, 797477, 930565, 436637, 54579, 3039599, 269353, 3082225, 428585, 2727169, 554273, 127587, 916511, 1539161, 760969, 448489, 1314519, 419613, 2604181, 2145147, 527527, 633015, 235289, 1971565, 45155, 1333245, 531465, 1384919, 1656119, 596091, 1623973, 4426783, 1198791, 1589983, 745175, 152859, 903863, 195481, 318109, 1823501, 823327, 779279, 702419, 1396603, 1857543, 2090185, 1785171, 158633, 238861, 68383, 571543, 769785, 227963, 387127, 953943, 1858467, 430835, 440293, 773455, 1109523, 2606911, 616493, 1413019, 1133135, 522825, 3544711, 178413, 1502101, 484875, 399233, 279799, 2877067, 63, 677273, 1153361, 1329103, 1269743, 1109039, 2965093, 1159835, 150647, 83553, 684151, 99383, 466037, 791697, 2686117, 3659719, 2517075, 3106387], pads = [1, 1, 1, 1], quant_mode = #tpu<rq_mode MultiplierShift>, relu_limit = -1.000000e+00 : f64, round_mode = #tpu<round_mode HalfUp>, rshift = [29, 30, 28, 28, 28, 30, 27, 26, 30, 30, 30, 30, 29, 30, 29, 30, 30, 30, 30, 28, 29, 29, 29, 29, 29, 30, 30, 28, 29, 28, 30, 30, 30, 27, 30, 28, 30, 29, 29, 30, 29, 28, 24, 30, 29, 30, 29, 30, 28, 28, 29, 30, 27, 29, 30, 28, 30, 29, 30, 30, 27, 29, 24, 29, 28, 30, 29, 30, 30, 30, 29, 30, 30, 27, 28, 28, 27, 30, 28, 29, 30, 29, 30, 30, 29, 27, 28, 26, 29, 30, 29, 30, 29, 30, 28, 30, 30, 29, 30, 28, 30, 29, 30, 30, 28, 30, 28, 28, 29, 30, 14, 30, 30, 29, 29, 29, 30, 30, 27, 27, 28, 26, 28, 30, 30, 30, 30, 30], strides = [2, 2], support_compress = true, use_3ic_optimize = 0 : i64, weight_is_coeff = 1 : i64, with_bias = true} : (tensor<1x128x80x80x!quant.uniform<i8:f32, 0.13672920708661418>>, tensor<128x128x3x3xsi8>, tensor<1x128x1x1xi32>) -> tensor<1x128x40x40x!quant.uniform<i8:f32, 0.053125216535433069>> loc(#loc255)
    %256 = "top.Weight"() : () -> tensor<1x1x1x256xsi8> loc(#loc256)
    %257 = "tpu.Lut"(%255, %256) : (tensor<1x128x40x40x!quant.uniform<i8:f32, 0.053125216535433069>>, tensor<1x1x1x256xsi8>) -> tensor<1x128x40x40x!quant.uniform<i8:f32, 0.037835844094488189>> loc(#loc257)
    %258 = "tpu.Concat"(%257, %223) {axis = 1 : si32, do_relu = false, only_merge = false, relu_limit = -1.000000e+00 : f64} : (tensor<1x128x40x40x!quant.uniform<i8:f32, 0.037835844094488189>>, tensor<1x128x40x40x!quant.uniform<i8:f32, 0.037835844094488189>>) -> tensor<1x256x40x40x!quant.uniform<i8:f32, 0.037835844094488189>> loc(#loc258)
    %259 = "top.Weight"() : () -> tensor<128x256x1x1xsi8> loc(#loc259)
    %260 = "top.Weight"() : () -> tensor<1x128x1x1xi32> loc(#loc260)
    %261 = "tpu.Conv2D"(%258, %259, %260) {coeff_merged = false, dilations = [1, 1], do_relu = false, do_winograd = false, dynweight_reorderd = false, group = 1 : i64, kernel_shape = [1, 1], kernel_zp = 0 : i64, multiplier = [2856423, 749761, 4125681, 1930889, 1275627, 3282599, 1892271, 3135493, 438253, 400943, 1558725, 1140071, 793363, 1870797, 2390265, 3009055, 2320199, 3067113, 2218803, 2053901, 3031293, 155799, 2415105, 4085917, 656341, 1183349, 1196673, 2748951, 3115407, 3267237, 2197435, 698025, 2379855, 417429, 1322525, 2876729, 1418211, 2026895, 1969373, 1391773, 3547919, 1212859, 1580433, 2950111, 2349667, 1922919, 4698697, 1599287, 3771077, 1799021, 700733, 2047477, 1271789, 1007299, 2921653, 3971485, 362775, 572087, 2120557, 1143207, 1246725, 62371, 1549699, 1448675, 1246791, 250449, 1181783, 1797691, 1706997, 1026689, 1434259, 2213327, 1416685, 2448971, 3597439, 666191, 144067, 5493147, 573523, 2521967, 456309, 1919375, 3777289, 897871, 28761, 957537, 707897, 3082875, 1715079, 198363, 1330781, 117139, 1583927, 2145415, 1305935, 5130841, 2958591, 1361795, 1918287, 2114051, 1216341, 3285861, 422665, 3342615, 2430231, 2901353, 2411679, 2229657, 1721267, 2796907, 371395, 632277, 1859063, 1467289, 1233455, 1726895, 2454277, 2782807, 3557353, 84773, 3288121, 4130745, 229257, 1753405, 2661913, 2616657, 769457, 1127531], pads = [0, 0, 0, 0], quant_mode = #tpu<rq_mode MultiplierShift>, relu_limit = -1.000000e+00 : f64, round_mode = #tpu<round_mode HalfUp>, rshift = [30, 28, 30, 30, 29, 29, 30, 30, 27, 27, 29, 30, 28, 30, 30, 30, 29, 30, 30, 30, 30, 25, 29, 30, 28, 29, 29, 29, 30, 30, 29, 27, 30, 27, 29, 30, 29, 30, 29, 29, 30, 29, 29, 30, 30, 30, 30, 29, 30, 29, 28, 29, 29, 28, 29, 30, 27, 28, 30, 29, 29, 24, 29, 30, 29, 26, 29, 30, 29, 29, 29, 30, 29, 30, 30, 28, 26, 30, 28, 30, 28, 30, 30, 28, 23, 29, 28, 29, 29, 26, 29, 25, 29, 30, 29, 30, 30, 29, 29, 30, 29, 30, 28, 30, 29, 30, 30, 30, 30, 30, 27, 27, 29, 29, 29, 29, 30, 29, 30, 25, 30, 30, 26, 29, 30, 29, 28, 29], strides = [1, 1], support_compress = true, use_3ic_optimize = 0 : i64, weight_is_coeff = 1 : i64, with_bias = true} : (tensor<1x256x40x40x!quant.uniform<i8:f32, 0.037835844094488189>>, tensor<128x256x1x1xsi8>, tensor<1x128x1x1xi32>) -> tensor<1x128x40x40x!quant.uniform<i8:f32, 0.052162012598425199>> loc(#loc261)
    %262 = "top.Weight"() : () -> tensor<1x1x1x256xsi8> loc(#loc262)
    %263 = "tpu.Lut"(%261, %262) : (tensor<1x128x40x40x!quant.uniform<i8:f32, 0.052162012598425199>>, tensor<1x1x1x256xsi8>) -> tensor<1x128x40x40x!quant.uniform<i8:f32, 0.04747687401574803>> loc(#loc263)
    %264 = "top.Weight"() : () -> tensor<128x128x1x1xsi8> loc(#loc264)
…
    %289 = "tpu.Lut"(%287, %288) : (tensor<1x256x20x20x!quant.uniform<i8:f32, 0.056673917322834645>>, tensor<1x1x1x256xsi8>) -> tensor<1x256x20x20x!quant.uniform<i8:f32, 0.046181678740157481>> loc(#loc289)
    %290 = "tpu.MulShift"(%289) {multiplier = 1 : si32, rshift = 0 : si32} : (tensor<1x256x20x20x!quant.uniform<i8:f32, 0.046181678740157481>>) -> tensor<1x256x20x20x!quant.uniform<i8:f32, 0.046014477952755907>> loc(#loc290)
    %291 = "tpu.Concat"(%290, %188) {axis = 1 : si32, do_relu = false, only_merge = false, relu_limit = -1.000000e+00 : f64} : (tensor<1x256x20x20x!quant.uniform<i8:f32, 0.046014477952755907>>, tensor<1x256x20x20x!quant.uniform<i8:f32, 0.046014477952755907>>) -> tensor<1x512x20x20x!quant.uniform<i8:f32, 0.046014477952755907>> loc(#loc291)
    %292 = "top.Weight"() : () -> tensor<256x512x1x1xsi8> loc(#loc292)
    %293 = "top.Weight"() : () -> tensor<1x256x1x1xi32> loc(#loc293)
    %294 = "tpu.Conv2D"(%291, %292, %293) {coeff_merged = false, dilations = [1, 1], do_relu = false, do_winograd = false, dynweight_reorderd = false, group = 1 : i64, kernel_shape = [1, 1], kernel_zp = 0 : i64, multiplier = [1695561, 1765341, 77347, 1599107, 5077449, 4984837, 2103157, 266735, 3382831, 1398023, 2779741, 166427, 2353477, 2471777, 2550599, 1872289, 1316757, 1569833, 1040077, 2208727, 2632433, 900809, 1081719, 2889297, 23271, 612927, 1615105, 513979, 2902851, 3000225, 73143, 775921, 1175437, 1724149, 2664779, 2172547, 198565, 22417, 466043, 173453, 2257017, 1832405, 2480553, 59543, 2704683, 403519, 49131, 1093125, 344305, 2143959, 582501, 601673, 943211, 1232039, 483215, 142771, 4025729, 1853577, 16437, 1778015, 733621, 2520111, 2043103, 282011, 667575, 1121609, 1960219, 1477905, 1937399, 287065, 2867795, 1693387, 2281529, 4438129, 627703, 2157345, 82573, 1966585, 1247799, 631155, 940511, 1999607, 2471291, 5824809, 193495, 724381, 2298065, 1630395, 3742461, 946787, 2450495, 811411, 2974395, 311361, 776803, 2438835, 666153, 112531, 232167, 631701, 1639433, 1074823, 1783795, 1291167, 2676469, 325819, 1620481, 144539, 666383, 1841511, 1012689, 512465, 578029, 2958491, 1228529, 1058605, 2795935, 571327, 1223203, 354229, 298419, 1267277, 465073, 459287, 1342061, 1712843, 2757707, 1913101, 272265, 2929503, 288297, 2738347, 349525, 1553437, 1217995, 2088623, 1905459, 312521, 4244329, 3007805, 1916035, 356795, 1631905, 720811, 3667291, 2321195, 694875, 1201463, 2284085, 3996785, 1910295, 695113, 3605403, 1606545, 1128371, 268913, 986461, 1626893, 462549, 167717, 2968509, 1381291, 112931, 1010511, 1187873, 185957, 1554915, 2581675, 4471145, 1990323, 2305021, 470557, 307977, 673465, 613961, 95317, 2768663, 1922395, 1534879, 697431, 260317, 1655863, 1630699, 1437953, 5523, 1380873, 87683, 2199785, 607745, 659191, 886821, 2179389, 2738041, 1124839, 242487, 656951, 2106071, 2241023, 2268469, 1135737, 1883391, 6213559, 1598329, 685545, 272389, 1396059, 2096725, 2470701, 1035483, 1432103, 2612653, 2117329, 2394989, 1956163, 2913451, 1381035, 1878805, 823251, 1193325, 2500853, 392731, 329975, 2164885, 2613587, 1079805, 1843287, 1063745, 904513, 624459, 1980233, 1551753, 500751, 269587, 197983, 1934389, 1686349, 1844929, 71831, 879675, 1664171, 1523591, 194167, 157985, 2280619, 2781205, 1030235, 150885, 3219131, 2230575, 462817, 1198697, 481169, 377337, 233581, 942879, 2234749], pads = [0, 0, 0, 0], quant_mode = #tpu<rq_mode MultiplierShift>, relu_limit = -1.000000e+00 : f64, round_mode = #tpu<round_mode HalfUp>, rshift = [30, 30, 24, 30, 30, 30, 30, 27, 30, 29, 30, 26, 30, 30, 30, 29, 29, 28, 29, 30, 30, 29, 29, 30, 24, 27, 30, 27, 30, 30, 25, 28, 29, 30, 30, 30, 26, 24, 28, 27, 29, 30, 30, 25, 30, 28, 25, 29, 27, 30, 28, 28, 29, 29, 28, 26, 30, 30, 23, 29, 28, 30, 29, 27, 28, 29, 30, 29, 30, 27, 30, 30, 29, 30, 28, 30, 25, 30, 28, 28, 29, 30, 30, 30, 27, 28, 30, 30, 30, 29, 30, 29, 30, 26, 29, 29, 28, 26, 27, 28, 29, 29, 30, 29, 30, 28, 30, 26, 29, 30, 29, 28, 28, 30, 29, 28, 30, 28, 29, 27, 27, 29, 28, 27, 29, 30, 30, 30, 27, 30, 27, 30, 27, 29, 29, 30, 29, 27, 30, 30, 30, 27, 30, 29, 30, 30, 28, 29, 30, 30, 30, 28, 30, 30, 30, 27, 29, 30, 27, 26, 30, 29, 26, 28, 29, 27, 29, 30, 29, 30, 30, 27, 27, 29, 28, 25, 30, 30, 29, 28, 27, 30, 30, 30, 22, 29, 25, 30, 28, 27, 29, 30, 30, 29, 27, 28, 30, 30, 30, 29, 30, 30, 29, 28, 27, 29, 30, 30, 29, 30, 30, 30, 30, 29, 30, 29, 30, 29, 29, 30, 28, 27, 30, 30, 28, 30, 29, 29, 28, 30, 30, 28, 27, 27, 30, 30, 30, 25, 28, 30, 29, 27, 26, 30, 30, 29, 25, 30, 30, 28, 28, 28, 28, 26, 30, 30], strides = [1, 1], support_compress = true, use_3ic_optimize = 0 : i64, weight_is_coeff = 1 : i64, with_bias = true} : (tensor<1x512x20x20x!quant.uniform<i8:f32, 0.046014477952755907>>, tensor<256x512x1x1xsi8>, tensor<1x256x1x1xi32>) -> tensor<1x256x20x20x!quant.uniform<i8:f32, 0.073095148818897629>> loc(#loc294)
    %295 = "top.Weight"() : () -> tensor<1x1x1x256xsi8> loc(#loc295)
    %296 = "tpu.Lut"(%294, %295) : (tensor<1x256x20x20x!quant.uniform<i8:f32, 0.073095148818897629>>, tensor<1x1x1x256xsi8>) -> tensor<1x256x20x20x!quant.uniform<i8:f32, 0.053212513385826769>> loc(#loc296)
    %297 = "top.Weight"() : () -> tensor<256x256x1x1xsi8> loc(#loc297)
    %298 = "top.Weight"() : () -> tensor<1x256x1x1xi32> loc(#loc298)
    %299 = "tpu.Conv2D"(%296, %297, %298) {coeff_merged = false, dilations = [1, 1], do_relu = false, do_winograd = false, dynweight_reorderd = false, group = 1 : i64, kernel_shape = [1, 1], kernel_zp = 0 : i64, multiplier = [2248241, 726499, 3280749, 1120127, 384251, 2616721, 2317487, 655465, 5014785, 1026553, 5627479, 358715, 774877, 3477925, 1638367, 2512637, 391855, 3345277, 3045637, 1570251, 2218417, 745309, 833905, 2418019, 2486009, 2097675, 592975, 2577547, 155499, 1643489, 2577677, 2408567, 996743, 2907005, 774365, 697345, 384417, 565319, 1667643, 4330893, 196463, 1609225, 1486349, 1347799, 1759627, 965201, 9313273, 3353947, 3052129, 1403043, 157847, 3181193, 3035149, 2320055, 1969885, 395049, 893897, 2649579, 436721, 1131561, 1159501, 304267, 2621199, 463373, 1376519, 984951, 1184473, 2889617, 229045, 249135, 1412205, 5425895, 857163, 1768893, 911689, 1817515, 2324023, 2298823, 1722415, 3087499, 1544469, 2624297, 1971443, 1161979, 5621913, 614615, 3300171, 2067697, 47001, 540661, 1470515, 1257655, 548541, 1096293, 922313, 2304993, 2458543, 1331543, 5010593, 703941, 2513973, 4740031, 3169897, 387635, 801621, 1535485, 2681459, 711111, 1871657, 1909175, 1780479, 2748329, 321725, 224595, 275941, 3346503, 4065953, 8700321, 2771729, 284319, 3940705, 3129821, 2481275, 3143613, 1529361, 4035425, 588443, 3294055, 935263, 1599313, 781519, 3862425, 806711, 2502659, 3494579, 252785, 1264631, 4534857, 3976859, 2166401, 1663303, 582303, 2528389, 51841, 1970151, 1174769, 1415199, 888025, 8212871, 1036743, 701223, 979155, 2514837, 1317331, 5121115, 541343, 1232267, 3128077, 239857, 626739, 1325157, 973031, 4050515, 1043187, 3471999, 110923, 552255, 2020725, 4139123, 1240215, 2065125, 1212877, 194571, 1378999, 2513985, 2199551, 1071023, 484261, 3350893, 1115965, 1987357, 3030435, 1501221, 1219391, 2679527, 1085029, 2163751, 1542721, 2067663, 2582175, 564709, 1358557, 1683117, 3837553, 4211439, 2882745, 1205411, 45969, 1327157, 709505, 1885555, 56471, 3056307, 1013235, 1682103, 1498141, 1471403, 2096975, 911931, 517629, 1994627, 3878471, 293477, 2783, 1046251, 1341709, 3354695, 3016519, 3611187, 710893, 1313635, 2074123, 3047145, 839705, 4567747, 1753639, 2524181, 2874825, 296009, 2839697, 203947, 1372357, 566479, 9154651, 2380243, 1528425, 1531997, 480711, 1767437, 4156435, 6708401, 3819189, 421703, 460743, 1076581, 1400867, 1713835, 423417, 4313403, 1010985, 709753, 1468743, 3359935, 1358299, 2515129, 295525], pads = [0, 0, 0, 0], quant_mode = #tpu<rq_mode MultiplierShift>, relu_limit = -1.000000e+00 : f64, round_mode = #tpu<round_mode HalfUp>, rshift = [29, 28, 30, 28, 27, 30, 30, 28, 30, 29, 30, 27, 28, 30, 29, 30, 27, 29, 30, 29, 30, 28, 28, 29, 29, 30, 28, 30, 26, 29, 30, 30, 29, 30, 28, 28, 27, 28, 29, 30, 26, 30, 29, 30, 29, 28, 30, 30, 29, 29, 26, 30, 30, 30, 30, 27, 28, 30, 27, 29, 28, 27, 30, 28, 29, 28, 29, 29, 27, 26, 28, 30, 28, 29, 28, 30, 30, 30, 30, 30, 28, 29, 30, 29, 30, 28, 30, 29, 24, 28, 29, 29, 27, 29, 28, 30, 29, 28, 30, 28, 30, 30, 30, 27, 28, 29, 30, 28, 29, 28, 29, 29, 27, 25, 26, 30, 30, 30, 30, 26, 30, 30, 28, 30, 29, 30, 28, 30, 28, 29, 29, 29, 28, 29, 30, 26, 29, 30, 30, 29, 29, 27, 29, 25, 29, 29, 29, 29, 30, 29, 28, 29, 29, 29, 30, 27, 29, 30, 27, 28, 29, 28, 30, 29, 30, 27, 28, 30, 30, 29, 30, 29, 26, 29, 30, 30, 29, 27, 30, 28, 30, 30, 29, 29, 30, 28, 30, 29, 29, 30, 28, 29, 29, 30, 30, 30, 28, 24, 29, 28, 29, 24, 30, 28, 29, 29, 29, 30, 29, 28, 29, 30, 26, 20, 29, 28, 30, 30, 30, 28, 29, 29, 30, 27, 30, 29, 30, 30, 27, 30, 27, 29, 28, 30, 30, 29, 28, 27, 29, 30, 30, 30, 27, 27, 28, 28, 29, 27, 30, 29, 27, 29, 30, 29, 30, 27], strides = [1, 1], support_compress = true, use_3ic_optimize = 0 : i64, weight_is_coeff = 1 : i64, with_bias = true} : (tensor<1x256x20x20x!quant.uniform<i8:f32, 0.053212513385826769>>, tensor<256x256x1x1xsi8>, tensor<1x256x1x1xi32>) -> tensor<1x256x20x20x!quant.uniform<i8:f32, 0.069192503149606302>> loc(#loc299)
    %300 = "top.Weight"() : () -> tensor<1x1x1x256xsi8> loc(#loc300)
    %301 = "tpu.Lut"(%299, %300) : (tensor<1x256x20x20x!quant.uniform<i8:f32, 0.069192503149606302>>, tensor<1x1x1x256xsi8>) -> tensor<1x256x20x20x!quant.uniform<i8:f32, 0.044434648818897637>> loc(#loc301)
    %302 = "top.Weight"() : () -> tensor<256x256x3x3xsi8> loc(#loc302)
    %303 = "top.Weight"() : () -> tensor<1x256x1x1xi32> loc(#loc303)
    %304 = "tpu.Conv2D"(%301, %302, %303) {coeff_merged = false, dilations = [1, 1], do_relu = false, do_winograd = false, dynweight_reorderd = false, group = 1 : i64, kernel_shape = [3, 3], kernel_zp = 0 : i64, multiplier = [281387, 914449, 463839, 440951, 52861, 1484671, 546761, 64867, 139095, 69167, 46535, 1025081, 280613, 851725, 702625, 474417, 1171961, 296183, 1661383, 70581, 1517893, 298291, 1435673, 764805, 1324579, 1122595, 1075493, 1280431, 940459, 683231, 114063, 228183, 168431, 723173, 59481, 777569, 979335, 434827, 541671, 1313401, 770917, 235633, 678879, 1686807, 914995, 55853, 662755, 743453, 682467, 965847, 1018673, 254381, 1398427, 345907, 916385, 388659, 684101, 794595, 462361, 660807, 1636263, 863353, 341119, 516731, 527461, 398467, 291305, 2091489, 973853, 1482725, 567105, 348227, 264239, 295895, 4399, 321743, 619121, 877483, 1184163, 150715, 123829, 1201949, 711179, 728927, 1139843, 389701, 178443, 457931, 323901, 55287, 1033565, 648737, 499719, 99595, 264951, 252401, 1209019, 703819, 444935, 717971, 200445, 2553541, 5991, 258655, 401633, 342759, 573655, 170747, 750745, 797467, 560263, 173811, 1278957, 1149115, 194581, 298669, 764721, 727573, 335355, 1850109, 289599, 343743, 1308339, 75851, 302117, 401773, 302383, 809861, 914387, 2130771, 553173, 5569, 487765, 1064373, 663549, 678291, 390691, 910091, 1131137, 592121, 1355833, 1089269, 198481, 270057, 1103113, 986851, 623147, 110431, 898939, 531661, 607939, 21733, 426133, 737407, 253867, 462643, 605395, 1481327, 1366257, 145099, 501837, 1005439, 958333, 754293, 56505, 369009, 354267, 717395, 810737, 197633, 404277, 2251317, 867241, 947569, 250953, 1117741, 82417, 262751, 626717, 1029671, 261313, 455327, 583863, 962609, 869711, 469211, 673679, 1219451, 997205, 279273, 682681, 298993, 389839, 908109, 1554099, 350647, 31867, 1165897, 955971, 202639, 64557, 1351805, 878809, 1199971, 387375, 178985, 795113, 1185183, 483749, 277013, 484319, 467195, 861525, 361339, 518301, 875137, 610813, 798213, 175475, 347005, 797087, 178387, 73561, 624791, 786413, 123009, 1372385, 894513, 1370459, 15105, 423045, 607601, 212413, 616017, 1150169, 163071, 8167, 52479, 597989, 359447, 116123, 104653, 1206245, 207743, 170335, 798509, 42385, 382063, 319639, 349093, 62827, 47017, 624833, 100153, 953681, 44161], pads = [1, 1, 1, 1], quant_mode = #tpu<rq_mode MultiplierShift>, relu_limit = -1.000000e+00 : f64, round_mode = #tpu<round_mode HalfUp>, rshift = [28, 30, 30, 28, 26, 30, 29, 26, 27, 25, 26, 30, 28, 30, 29, 29, 30, 29, 30, 27, 29, 28, 30, 29, 30, 30, 29, 30, 29, 29, 27, 28, 28, 30, 27, 30, 30, 28, 30, 30, 30, 28, 30, 30, 29, 25, 30, 30, 29, 30, 30, 28, 30, 29, 30, 28, 30, 29, 29, 30, 30, 30, 29, 29, 29, 30, 28, 30, 30, 30, 29, 28, 29, 28, 23, 28, 29, 29, 30, 27, 27, 30, 30, 29, 30, 29, 28, 29, 29, 26, 29, 30, 29, 27, 29, 28, 30, 30, 29, 30, 28, 30, 23, 29, 29, 29, 30, 27, 29, 29, 29, 28, 30, 29, 28, 28, 30, 29, 29, 30, 29, 29, 30, 27, 28, 28, 27, 29, 30, 30, 30, 23, 29, 29, 29, 30, 29, 29, 29, 29, 30, 30, 28, 28, 30, 29, 30, 28, 29, 28, 29, 25, 29, 30, 28, 30, 29, 30, 30, 27, 29, 30, 30, 30, 26, 28, 29, 30, 30, 27, 28, 30, 29, 30, 28, 30, 27, 29, 30, 29, 28, 29, 29, 30, 29, 29, 30, 29, 30, 28, 29, 28, 29, 30, 30, 29, 25, 30, 30, 28, 26, 30, 29, 30, 29, 27, 30, 30, 29, 28, 29, 29, 30, 30, 28, 29, 29, 30, 28, 29, 30, 28, 27, 28, 30, 27, 30, 30, 30, 26, 29, 29, 28, 30, 30, 27, 24, 24, 29, 28, 29, 26, 30, 29, 27, 29, 25, 28, 30, 29, 25, 26, 29, 28, 30, 25], strides = [1, 1], support_compress = true, use_3ic_optimize = 0 : i64, weight_is_coeff = 1 : i64, with_bias = true} : (tensor<1x256x20x20x!quant.uniform<i8:f32, 0.044434648818897637>>, tensor<256x256x3x3xsi8>, tensor<1x256x1x1xi32>) -> tensor<1x256x20x20x!quant.uniform<i8:f32, 0.090067345669291337>> loc(#loc304)
    %305 = "top.Weight"() : () -> tensor<1x1x1x256xsi8> loc(#loc305)
    %306 = "tpu.Lut"(%304, %305) : (tensor<1x256x20x20x!quant.uniform<i8:f32, 0.090067345669291337>>, tensor<1x1x1x256xsi8>) -> tensor<1x256x20x20x!quant.uniform<i8:f32, 0.054138767716535433>> loc(#loc306)
    %307 = "top.Weight"() : () -> tensor<256x512x1x1xsi8> loc(#loc307)
    %308 = "top.Weight"() : () -> tensor<1x256x1x1xi32> loc(#loc308)
    %309 = "tpu.Conv2D"(%291, %307, %308) {coeff_merged = false, dilations = [1, 1], do_relu = false, do_winograd = false, dynweight_reorderd = false, group = 1 : i64, kernel_shape = [1, 1], kernel_zp = 0 : i64, multiplier = [332155, 330347, 2532101, 1811021, 744857, 3868463, 281229, 3198811, 909209, 221731, 3547501, 707447, 1427197, 313631, 1954823, 2006009, 2151427, 768501, 827673, 4114799, 1005783, 486077, 2514815, 2305199, 2973391, 749793, 1606081, 3415781, 1417253, 257505, 505057, 104327, 1051481, 1430559, 5893581, 2627145, 2460611, 2721159, 2752809, 1818797, 1800969, 2567097, 658201, 3375273, 2527625, 1412961, 1252241, 729927, 2553721, 956047, 935319, 1705075, 3236827, 1285561, 400069, 1684407, 2365271, 988059, 2169799, 1128475, 781089, 2648579, 857969, 2372805, 976665, 1372273, 2808739, 6054531, 1005177, 1109807, 1155557, 3010533, 1856709, 1413213, 182143, 1477065, 3336661, 1388311, 1831655, 3043469, 986519, 4628763, 726145, 2840863, 692851, 1752871, 665879, 963735, 2565497, 1363775, 1685103, 1065037, 585661, 2409169, 582357, 2373339, 366659, 1782129, 2856547, 2134041, 691479, 1206395, 2117085, 958373, 4074445, 620091, 58727, 1043509, 1368493, 1367821, 228473, 834087, 1572967, 586949, 2979669, 471685, 1063811, 2023841, 1404025, 164659, 3654191, 1148069, 2803467, 1567663, 17713, 2111691, 2306107, 707487, 2217929, 2872749, 1852141, 1810467, 2734683, 2558439, 1732589, 1400789, 825097, 4949629, 492325, 189155, 473737, 1240225, 1207221, 590643, 2641449, 2260031, 1389307, 1178765, 2013003, 386067, 2124569, 3666569, 1837789, 148461, 1344211, 1744333, 1537479, 4019375, 864445, 1366893, 128239, 3190031, 278699, 49609, 847979, 1375215, 888877, 840385, 1084937, 1628211, 2831385, 1235401, 421731, 1115591, 3238317, 404203, 1230375, 1419867, 4466513, 2037709, 899009, 365731, 1547321, 1499411, 192233, 600343, 1307515, 1101363, 466015, 200669, 24999, 324403, 179709, 337095, 2403335, 2697385, 1938547, 1236609, 1931839, 685025, 3291715, 387637, 2937689, 1708861, 136109, 40815, 3297693, 2753721, 1946035, 2806945, 1163433, 525851, 55511, 1637487, 2727243, 895837, 1799911, 1990429, 171221, 2001263, 95861, 1612267, 609987, 1583533, 1978021, 29733, 1962685, 1747117, 534651, 660391, 2330747, 1279131, 591613, 1329481, 1042923, 1080855, 543513, 1582155, 1842691, 2620701, 1367839, 3811941, 1705855, 158975, 74073, 1344417, 277069, 88235, 1855237, 535401, 378709, 3108433, 604203, 736819, 3038297, 427001], pads = [0, 0, 0, 0], quant_mode = #tpu<rq_mode MultiplierShift>, relu_limit = -1.000000e+00 : f64, round_mode = #tpu<round_mode HalfUp>, rshift = [27, 27, 30, 30, 28, 30, 27, 30, 28, 27, 30, 28, 29, 27, 29, 29, 29, 29, 29, 30, 28, 28, 30, 30, 30, 29, 29, 30, 29, 27, 28, 25, 29, 29, 30, 30, 30, 30, 30, 30, 29, 30, 28, 30, 30, 29, 29, 28, 30, 29, 30, 29, 30, 29, 27, 30, 30, 28, 30, 29, 28, 30, 29, 30, 29, 29, 30, 30, 28, 29, 29, 30, 29, 29, 27, 29, 30, 29, 29, 30, 28, 30, 29, 30, 28, 29, 28, 29, 30, 29, 30, 29, 28, 30, 28, 30, 27, 29, 30, 30, 28, 29, 29, 29, 30, 29, 25, 29, 30, 29, 26, 28, 29, 28, 30, 28, 30, 30, 29, 26, 30, 30, 30, 29, 23, 30, 29, 27, 30, 30, 29, 30, 30, 30, 30, 29, 28, 30, 28, 27, 27, 29, 29, 28, 30, 30, 29, 29, 30, 27, 30, 30, 30, 27, 29, 30, 30, 30, 28, 29, 26, 30, 27, 24, 29, 29, 29, 28, 29, 29, 30, 29, 27, 29, 30, 27, 29, 29, 30, 30, 29, 27, 29, 29, 27, 28, 29, 29, 28, 26, 24, 27, 26, 28, 30, 30, 29, 29, 30, 28, 30, 27, 30, 29, 26, 24, 30, 30, 29, 30, 29, 27, 26, 29, 30, 29, 29, 30, 26, 29, 25, 29, 29, 29, 30, 23, 29, 29, 28, 28, 30, 30, 29, 29, 29, 29, 28, 29, 30, 30, 29, 30, 29, 26, 25, 29, 27, 25, 30, 28, 27, 30, 28, 28, 30, 29], strides = [1, 1], support_compress = true, use_3ic_optimize = 0 : i64, weight_is_coeff = 1 : i64, with_bias = true} : (tensor<1x512x20x20x!quant.uniform<i8:f32, 0.046014477952755907>>, tensor<256x512x1x1xsi8>, tensor<1x256x1x1xi32>) -> tensor<1x256x20x20x!quant.uniform<i8:f32, 0.059830785826771656>> loc(#loc309)
    %310 = "top.Weight"() : () -> tensor<1x1x1x256xsi8> loc(#loc310)
    %311 = "tpu.Lut"(%309, %310) : (tensor<1x256x20x20x!quant.uniform<i8:f32, 0.059830785826771656>>, tensor<1x1x1x256xsi8>) -> tensor<1x256x20x20x!quant.uniform<i8:f32, 0.054138767716535433>> loc(#loc311)
    %312 = "tpu.Concat"(%306, %311) {axis = 1 : si32, do_relu = false, only_merge = false, relu_limit = -1.000000e+00 : f64} : (tensor<1x256x20x20x!quant.uniform<i8:f32, 0.054138767716535433>>, tensor<1x256x20x20x!quant.uniform<i8:f32, 0.054138767716535433>>) -> tensor<1x512x20x20x!quant.uniform<i8:f32, 0.054138767716535433>> loc(#loc312)
    %313 = "top.Weight"() : () -> tensor<512x512x1x1xsi8> loc(#loc313)
    %314 = "top.Weight"() : () -> tensor<1x512x1x1xi32> loc(#loc314)
    %315 = "tpu.Conv2D"(%312, %313, %314) {coeff_merged = false, dilations = [1, 1], do_relu = false, do_winograd = false, dynweight_reorderd = false, group = 1 : i64, kernel_shape = [1, 1], kernel_zp = 0 : i64, multiplier = [766023, 547873, 108759, 1605349, 3362975, 206551, 581475, 361247, 1018503, 3675173, 1609771, 1338795, 525959, 839379, 710575, 969347, 467521, 2413905, 1172175, 645891, 105829, 1471977, 4036759, 156029, 1722875, 272795, 544545, 215773, 166701, 2141051, 2282735, 709437, 2829501, 663993, 1435053, 1774007, 1993079, 1602385, 803093, 61627, 652841, 285967, 2823721, 20395, 638597, 2530673, 20007, 1594287, 14139, 25687, 3485729, 841493, 1990521, 525797, 1059193, 1723807, 3463505, 440105, 1161687, 367543, 391477, 401847, 1677485, 1156053, 2592719, 671321, 496835, 203017, 550389, 1160323, 316329, 1770387, 1634041, 1356299, 1542315, 3550209, 1578423, 755437, 324839, 152399, 1013027, 1281113, 2079811, 1740863, 1914809, 1945187, 1705625, 1707243, 866553, 857035, 196645, 188989, 171377, 342257, 1572621, 1355009, 2392923, 1859739, 1297985, 506995, 650391, 159805, 1226439, 1820477, 447087, 1836453, 324755, 726531, 456647, 3312729, 1266789, 589445, 2446407, 56865, 1550419, 2541773, 1260075, 1672951, 1616053, 263203, 473971, 366775, 3261, 778503, 1582591, 440219, 1146807, 756965, 392351, 445461, 1817741, 1907019, 2172819, 1001283, 715201, 2463071, 1252807, 1660925, 2033115, 540415, 1376565, 216983, 1329589, 1119251, 1156009, 499791, 4070859, 638069, 2050967, 1935211, 722369, 918127, 1086059, 585989, 3602841, 2660839, 178773, 608279, 1221969, 511417, 2320351, 1097879, 1263011, 1279223, 1353539, 1333067, 581307, 1509723, 1069089, 3964441, 804607, 1093997, 82025, 1212231, 1284437, 337421, 836931, 694805, 2641381, 518555, 3576793, 632395, 2457199, 857727, 1172489, 1784687, 639037, 804293, 196781, 519823, 4081501, 554867, 2544567, 270447, 956081, 619109, 343239, 2040881, 43753, 1374103, 1596363, 882963, 1860821, 4043517, 1264221, 820285, 232529, 194055, 1339743, 1901671, 1230557, 39795, 369789, 125515, 427585, 473421, 1088935, 962535, 3141437, 685357, 640599, 1919969, 366869, 707235, 1209603, 2875619, 1043455, 549273, 1543681, 2217439, 2078533, 462607, 1637471, 182199, 1478139, 1481299, 719655, 1583565, 1250059, 152943, 308661, 2794243, 1633187, 3339191, 84867, 1256501, 172789, 558621, 515111, 196413, 679777, 1692289, 471515, 112405, 190487, 3773667, 244649, 261179, 1467243, 1697831, 2001949, 3810407, 3298101, 1478415, 3357135, 219525, 942569, 1562807, 242327, 1204155, 2215771, 496461, 2051605, 1293903, 3282785, 2708267, 1802371, 1461329, 844065, 770883, 1882281, 1309363, 2519973, 2885523, 979479, 655809, 2143691, 1973329, 652427, 599123, 895607, 932919, 2709227, 49857, 986175, 621003, 3552625, 298807, 235915, 54839, 60767, 552925, 1625751, 574289, 1679895, 2573875, 738919, 388763, 691709, 37451, 1771829, 2417745, 2056529, 2368877, 2078069, 1132535, 147949, 2948523, 716161, 1106147, 3343307, 381587, 591937, 2380905, 1323061, 995593, 797385, 377817, 1935339, 1183441, 2336295, 639375, 849041, 1103881, 857933, 928643, 333699, 81539, 820147, 922675, 265963, 2565225, 2347375, 1054195, 359685, 1779471, 2396867, 1567883, 968413, 23673, 629839, 259871, 1274871, 29865, 274417, 502237, 1296367, 455287, 1658813, 1092229, 1323939, 1843739, 1779421, 468225, 381759, 112361, 36873, 2440095, 1388709, 238807, 1857865, 181439, 1471203, 651181, 3448819, 179461, 570683, 1066315, 2800575, 1435861, 1429399, 1625267, 202283, 238589, 2861517, 845159, 444569, 294091, 1964685, 866123, 874433, 1811981, 1624641, 254697, 911453, 956627, 602749, 157615, 1967097, 1016437, 591343, 463365, 3400001, 4326185, 212833, 734643, 35193, 578387, 1704503, 405209, 808257, 2000459, 976623, 3137801, 1541777, 1834363, 1297041, 1159131, 1976177, 44735, 395029, 929961, 288063, 336981, 425341, 971681, 1705757, 1678751, 587159, 583325, 3358219, 480077, 1487523, 561233, 628837, 2174121, 1141747, 1541391, 1506419, 1820243, 207, 1946381, 4618691, 367725, 419703, 89829, 1677513, 1353319, 1608891, 79499, 150293, 1775947, 276763, 1011649, 913001, 4108509, 320683, 2084233, 1019511, 2156253, 880487, 1175365, 3456873, 99971, 200413, 242509, 686253, 1553083, 1401007, 593803, 2405753, 207525, 464565, 2161673, 132299, 1241207, 597841, 1458231, 21849, 1553737, 329165, 2435473, 177389, 1355255, 82509, 1556115, 2152113, 798275, 570053, 1258995, 1211559, 3023705, 1359101, 2683113, 899535, 121791, 505173, 640811, 45621, 258693, 1851535, 839249, 5061031, 1053795, 396801, 56765, 817593, 290829, 219549, 1368575, 1000687, 3416729], pads = [0, 0, 0, 0], quant_mode = #tpu<rq_mode MultiplierShift>, relu_limit = -1.000000e+00 : f64, round_mode = #tpu<round_mode HalfUp>, rshift = [30, 29, 27, 30, 30, 28, 29, 27, 29, 30, 29, 30, 28, 28, 28, 29, 28, 30, 29, 29, 27, 30, 30, 28, 29, 27, 28, 28, 27, 30, 30, 29, 30, 30, 30, 30, 30, 29, 29, 27, 30, 29, 30, 25, 29, 30, 25, 30, 23, 25, 30, 28, 30, 29, 29, 29, 30, 29, 29, 30, 29, 29, 30, 29, 30, 29, 30, 26, 30, 30, 28, 30, 30, 30, 29, 30, 30, 29, 28, 27, 29, 29, 30, 30, 30, 30, 30, 29, 30, 29, 28, 27, 27, 28, 30, 29, 30, 29, 29, 28, 30, 27, 29, 30, 29, 30, 27, 30, 30, 30, 30, 28, 30, 25, 30, 30, 30, 30, 30, 28, 27, 28, 21, 29, 30, 29, 30, 29, 29, 29, 29, 29, 30, 30, 28, 30, 30, 29, 30, 30, 30, 29, 29, 28, 30, 28, 30, 29, 30, 30, 29, 28, 30, 29, 30, 30, 28, 30, 30, 30, 30, 29, 29, 29, 29, 29, 28, 30, 29, 30, 30, 30, 26, 30, 30, 27, 28, 29, 29, 28, 30, 30, 30, 29, 29, 30, 28, 29, 28, 28, 30, 30, 30, 29, 28, 27, 28, 30, 25, 29, 30, 30, 30, 30, 29, 29, 27, 27, 30, 30, 29, 26, 27, 27, 28, 28, 29, 29, 30, 28, 28, 29, 28, 30, 30, 30, 28, 29, 30, 30, 30, 28, 30, 26, 30, 29, 29, 30, 29, 28, 28, 30, 29, 30, 24, 29, 26, 28, 29, 27, 29, 29, 30, 29, 27, 30, 28, 27, 30, 29, 30, 30, 30, 30, 30, 26, 30, 30, 28, 29, 30, 28, 30, 30, 30, 30, 30, 30, 29, 30, 30, 29, 30, 30, 29, 30, 30, 30, 29, 29, 29, 29, 30, 27, 29, 30, 30, 27, 29, 24, 25, 28, 29, 28, 29, 30, 28, 27, 29, 24, 30, 29, 30, 30, 30, 29, 27, 30, 29, 29, 30, 28, 30, 30, 30, 30, 29, 28, 30, 28, 30, 30, 29, 28, 30, 29, 29, 26, 29, 28, 28, 30, 30, 30, 28, 30, 30, 30, 30, 24, 29, 28, 29, 26, 29, 29, 29, 28, 30, 29, 29, 30, 29, 28, 27, 26, 27, 30, 30, 29, 30, 27, 30, 30, 30, 26, 29, 29, 30, 30, 30, 29, 27, 28, 30, 28, 30, 29, 30, 30, 29, 30, 29, 29, 28, 29, 30, 26, 29, 29, 29, 28, 30, 30, 27, 29, 25, 28, 30, 29, 30, 30, 28, 30, 29, 29, 29, 30, 30, 25, 28, 29, 28, 28, 28, 30, 29, 30, 30, 30, 30, 28, 30, 27, 28, 30, 30, 30, 30, 30, 19, 30, 30, 29, 29, 27, 30, 29, 30, 26, 29, 29, 28, 30, 29, 30, 28, 30, 29, 30, 29, 29, 30, 26, 26, 28, 30, 30, 29, 29, 30, 26, 29, 30, 27, 29, 29, 29, 23, 30, 28, 30, 26, 29, 26, 29, 30, 30, 29, 29, 30, 30, 30, 30, 29, 28, 28, 29, 25, 27, 30, 28, 30, 30, 28, 25, 30, 27, 27, 30, 29, 30], strides = [1, 1], support_compress = true, use_3ic_optimize = 0 : i64, weight_is_coeff = 1 : i64, with_bias = true} : (tensor<1x512x20x20x!quant.uniform<i8:f32, 0.054138767716535433>>, tensor<512x512x1x1xsi8>, tensor<1x512x1x1xi32>) -> tensor<1x512x20x20x!quant.uniform<i8:f32, 0.10984663307086615>> loc(#loc315)
    %316 = "top.Weight"() : () -> tensor<1x1x1x256xsi8> loc(#loc316)
    %317 = "tpu.Lut"(%315, %316) : (tensor<1x512x20x20x!quant.uniform<i8:f32, 0.10984663307086615>>, tensor<1x1x1x256xsi8>) -> tensor<1x512x20x20x!quant.uniform<i8:f32, 0.087267577952755915>> loc(#loc317)
    %318 = "top.Weight"() : () -> tensor<255x128x1x1xsi8> loc(#loc318)
    %319 = "top.Weight"() : () -> tensor<1x255x1x1xi32> loc(#loc319)
    %320 = "tpu.Conv2D"(%252, %318, %319) {coeff_merged = false, dilations = [1, 1], do_relu = false, do_winograd = false, dynweight_reorderd = false, group = 1 : i64, kernel_shape = [1, 1], kernel_zp = 0 : i64, multiplier = [425979, 1860379, 368021, 1393853, 1858471, 2806787, 1538867, 1489257, 1111457, 1678157, 14087, 284781, 1623777, 283827, 1578937, 1636179, 38579, 260453, 2383193, 2394641, 1198275, 751307, 1863241, 847665, 242207, 1398623, 563361, 400697, 402605, 451261, 2236271, 1344243, 2804879, 779451, 827153, 1731583, 1446325, 261407, 2299237, 973121, 1767837, 963581, 1724905, 1957691, 2671313, 2148499, 33779, 450307, 366113, 1442509, 1392899, 2989963, 847665, 1195413, 2428987, 9205, 520429, 1153435, 74117, 461517, 1009375, 782313, 171131, 778497, 244473, 708375, 896321, 2093165, 333437, 1209723, 1019869, 609155, 1913805, 1622823, 1484487, 859113, 805687, 1298449, 565269, 2108429, 283827, 1479717, 379231, 686909, 164095, 433373, 1963415, 2049279, 1582753, 2001577, 1531235, 102619, 1622823, 2295421, 106137, 124383, 1244069, 1772607, 1203045, 3329601, 868177, 665443, 1099055, 2617887, 39861, 612017, 1578937, 1965323, 108701, 498009, 750353, 660673, 1773561, 1769745, 237079, 610109, 2804879, 2713291, 785175, 902999, 1814585, 1434877, 1810769, 2432803, 1019869, 1724905, 1906173, 425025, 2064543, 708375, 2293513, 2241995, 964535, 1532189, 96537, 1523603, 3102539, 914925, 685001, 2516759, 152885, 2138959, 1200183, 79245, 1859425, 1057077, 3226565, 1628547, 1780239, 1383359, 1385267, 1903311, 68035, 806641, 328667, 967397, 1306081, 1059939, 1666709, 801871, 913971, 798055, 1340427, 1249793, 1111457, 1161067, 1635225, 1576075, 779451, 708375, 873901, 120865, 2906007, 140721, 4090925, 387579, 211797, 3323877, 9205, 1722043, 1009375, 1261241, 1776423, 1210677, 1680065, 1712503, 678323, 274525, 1337565, 640161, 1245023, 778497, 124383, 1771653, 498009, 389487, 1385267, 919695, 223961, 246381, 319365, 2860213, 2629335, 403559, 1825079, 1826033, 365159, 870085, 1250747, 2043555, 843849, 1922391, 1725859, 2106521, 705513, 1152481, 2243903, 120865, 1530281, 398789, 1492119, 194505, 1822217, 1386221, 1249793, 2425171, 1056123, 1241207, 642069, 1857517, 1070433, 1636179, 867223, 945931, 1533143, 1684835, 1909035, 2232455, 425025, 679277, 1863241, 1350921, 1058985, 871993, 402605, 976937, 1619961, 686909, 2533931, 1110503, 2343123, 53307, 775635, 197367, 1493073], pads = [0, 0, 0, 0], quant_mode = #tpu<rq_mode MultiplierShift>, relu_limit = -1.000000e+00 : f64, round_mode = #tpu<round_mode HalfUp>, rshift = [28, 30, 28, 30, 29, 30, 30, 29, 29, 30, 23, 28, 30, 27, 29, 30, 25, 28, 30, 30, 30, 29, 30, 29, 27, 30, 29, 28, 28, 28, 30, 29, 30, 29, 29, 30, 30, 27, 30, 29, 30, 29, 30, 30, 30, 30, 24, 28, 28, 30, 30, 30, 29, 30, 30, 22, 28, 30, 26, 28, 29, 28, 27, 29, 28, 29, 29, 30, 28, 30, 29, 29, 30, 30, 30, 30, 29, 30, 28, 30, 27, 30, 28, 30, 27, 28, 30, 30, 30, 29, 29, 26, 29, 30, 26, 26, 30, 30, 29, 30, 29, 29, 30, 30, 24, 29, 30, 30, 26, 28, 29, 29, 30, 30, 27, 28, 30, 30, 29, 29, 30, 30, 30, 30, 29, 30, 30, 28, 30, 28, 30, 30, 29, 30, 26, 30, 30, 29, 29, 30, 26, 30, 30, 26, 30, 29, 30, 30, 30, 30, 30, 30, 25, 29, 28, 29, 30, 29, 30, 29, 30, 29, 30, 29, 29, 29, 30, 30, 30, 29, 29, 26, 30, 26, 30, 27, 27, 30, 22, 30, 29, 30, 30, 29, 29, 30, 29, 28, 29, 28, 30, 29, 26, 30, 28, 28, 30, 29, 27, 27, 27, 30, 30, 28, 30, 30, 28, 29, 29, 30, 29, 30, 30, 30, 28, 29, 30, 26, 30, 28, 30, 26, 30, 30, 29, 30, 29, 30, 29, 30, 29, 29, 29, 29, 30, 30, 30, 30, 28, 29, 30, 30, 29, 29, 28, 30, 30, 29, 30, 29, 30, 25, 29, 28, 30], strides = [1, 1], support_compress = true, use_3ic_optimize = 0 : i64, weight_is_coeff = 1 : i64, with_bias = true} : (tensor<1x128x80x80x!quant.uniform<i8:f32, 0.13672920708661418>>, tensor<255x128x1x1xsi8>, tensor<1x255x1x1xi32>) -> tensor<1x255x80x80x!quant.uniform<i8:f32, 0.14791108661417321>> loc(#loc320)
    %321 = "tpu.Reshape"(%320) {flatten_start_dim = -1 : i64, shape = [1, 3, 85, 80, 80]} : (tensor<1x255x80x80x!quant.uniform<i8:f32, 0.14791108661417321>>) -> tensor<1x3x85x80x80x!quant.uniform<i8:f32, 0.14791108661417321>> loc(#loc321)
    %322 = "tpu.Permute"(%321, %0) {order = [0, 1, 3, 4, 2]} : (tensor<1x3x85x80x80x!quant.uniform<i8:f32, 0.14791108661417321>>, none) -> tensor<1x3x80x80x85x!quant.uniform<i8:f32, 0.14791108661417321>> loc(#loc322)
    %323 = "tpu.Cast"(%322) {round_mode = #tpu<round_mode HalfAwayFromZero>, with_scale = true} : (tensor<1x3x80x80x85x!quant.uniform<i8:f32, 0.14791108661417321>>) -> tensor<1x3x80x80x85xf32> loc(#loc323)
    %324 = "top.Weight"() : () -> tensor<255x256x1x1xsi8> loc(#loc324)
    %325 = "top.Weight"() : () -> tensor<1x255x1x1xi32> loc(#loc325)
    %326 = "tpu.Conv2D"(%284, %324, %325) {coeff_merged = false, dilations = [1, 1], do_relu = false, do_winograd = false, dynweight_reorderd = false, group = 1 : i64, kernel_shape = [1, 1], kernel_zp = 0 : i64, multiplier = [471307, 1008001, 1239459, 322595, 3728793, 3467245, 1119101, 4261147, 837879, 834407, 854081, 2497435, 2112057, 2958037, 2131731, 723307, 45713, 373805, 3277449, 3610749, 2242831, 1377177, 229867, 872019, 1683859, 1703533, 373805, 1432727, 2003271, 2555299, 1784543, 3316797, 1513737, 394347, 286719, 1778757, 1115629, 2444199, 873755, 934513, 396083, 615679, 538719, 3108485, 2033361, 3492705, 655027, 1216313, 2520581, 672965, 341401, 3395493, 1870183, 338797, 2816847, 449897, 906159, 156379, 2839993, 707105, 599477, 4055149, 648083, 1608635, 1330885, 3451043, 3460301, 814733, 764391, 1054871, 1925733, 1882913, 92077, 1638725, 1448929, 409681, 708841, 2352773, 3777399, 1938463, 1742881, 1431569, 1556557, 373805, 194425, 231603, 995849, 2379391, 36961, 211061, 3585289, 1162499, 541323, 3499649, 1723207, 3467245, 1337829, 129255, 760919, 4173193, 2904801, 1481333, 1472075, 1671129, 909631, 2248617, 1389907, 469571, 3515851, 1703533, 3437155, 1543827, 1458187, 2036833, 2578445, 913103, 1712791, 174317, 3173293, 2311111, 1823891, 562733, 302053, 893429, 948979, 3140889, 1226729, 2212741, 192689, 3969509, 3460301, 2689545, 601213, 1223257, 83325, 672965, 3365403, 1847037, 1343615, 2839993, 893429, 3545941, 156379, 1458187, 2872397, 597741, 128821, 1330885, 3293651, 1354031, 3483447, 1739409, 3346887, 3032103, 2095855, 954187, 486641, 1438513, 210193, 1461659, 836143, 1425783, 594269, 1840093, 968653, 857553, 1435041, 780593, 773071, 1448929, 128821, 2451143, 91643, 990063, 3967195, 3316797, 284549, 1076281, 54899, 870283, 1755611, 2735837, 2101641, 193557, 2053035, 2951093, 91643, 358471, 3349201, 913103, 583275, 1413053, 469571, 433695, 1696589, 1735937, 1556557, 2958037, 2081967, 2520581, 466967, 3483447, 2643253, 1576231, 2117843, 1719735, 34339, 1079753, 1739409, 1873655, 1425783, 581539, 505447, 1477861, 2006743, 877227, 1370233, 594269, 1226729, 2647883, 655027, 819941, 931041, 2682601, 1357503, 3490391, 3420953, 1235987, 2758983, 174751, 1219785, 4032003, 1334357, 836143, 2775185, 3728793, 13779, 1709319, 1585489, 988327, 1931519, 1990541, 2761297, 1700061, 2999699, 395215, 2793701, 2434941, 1784543, 3761197, 3427897, 708841, 396951, 195727, 1377177], pads = [0, 0, 0, 0], quant_mode = #tpu<rq_mode MultiplierShift>, relu_limit = -1.000000e+00 : f64, round_mode = #tpu<round_mode HalfUp>, rshift = [28, 29, 29, 27, 30, 30, 29, 30, 28, 28, 28, 30, 30, 30, 29, 28, 24, 28, 30, 30, 30, 29, 27, 28, 29, 29, 28, 29, 29, 30, 29, 30, 29, 27, 27, 30, 29, 30, 28, 29, 27, 28, 28, 30, 29, 30, 28, 29, 30, 28, 27, 30, 30, 27, 30, 27, 28, 26, 30, 28, 28, 30, 28, 29, 29, 30, 30, 28, 28, 29, 30, 30, 25, 30, 29, 29, 28, 30, 30, 29, 29, 30, 29, 29, 27, 27, 29, 30, 24, 26, 30, 29, 27, 30, 29, 30, 29, 26, 28, 30, 30, 29, 30, 29, 28, 30, 29, 28, 30, 29, 30, 30, 29, 29, 30, 28, 29, 26, 30, 30, 30, 28, 27, 28, 29, 30, 29, 30, 26, 30, 30, 30, 28, 29, 25, 28, 30, 30, 29, 30, 28, 30, 26, 29, 30, 28, 25, 29, 30, 29, 30, 29, 30, 30, 30, 29, 28, 29, 27, 29, 30, 29, 28, 29, 28, 28, 30, 28, 30, 30, 26, 30, 25, 29, 30, 30, 27, 28, 24, 28, 29, 30, 30, 26, 29, 30, 25, 28, 30, 28, 28, 29, 28, 27, 29, 29, 30, 30, 29, 30, 27, 30, 30, 29, 30, 30, 24, 29, 29, 30, 29, 28, 28, 29, 29, 28, 29, 28, 29, 30, 28, 28, 29, 30, 29, 30, 30, 29, 30, 26, 29, 30, 29, 28, 30, 30, 22, 29, 29, 29, 30, 30, 30, 30, 30, 29, 30, 30, 29, 30, 30, 29, 27, 28, 30], strides = [1, 1], support_compress = true, use_3ic_optimize = 0 : i64, weight_is_coeff = 1 : i64, with_bias = true} : (tensor<1x256x40x40x!quant.uniform<i8:f32, 0.13626622677165354>>, tensor<255x256x1x1xsi8>, tensor<1x255x1x1xi32>) -> tensor<1x255x40x40x!quant.uniform<i8:f32, 0.12152110866141733>> loc(#loc326)
    %327 = "tpu.Reshape"(%326) {flatten_start_dim = -1 : i64, shape = [1, 3, 85, 40, 40]} : (tensor<1x255x40x40x!quant.uniform<i8:f32, 0.12152110866141733>>) -> tensor<1x3x85x40x40x!quant.uniform<i8:f32, 0.12152110866141733>> loc(#loc327)
    %328 = "tpu.Permute"(%327, %0) {order = [0, 1, 3, 4, 2]} : (tensor<1x3x85x40x40x!quant.uniform<i8:f32, 0.12152110866141733>>, none) -> tensor<1x3x40x40x85x!quant.uniform<i8:f32, 0.12152110866141733>> loc(#loc328)
    %329 = "tpu.Cast"(%328) {round_mode = #tpu<round_mode HalfAwayFromZero>, with_scale = true} : (tensor<1x3x40x40x85x!quant.uniform<i8:f32, 0.12152110866141733>>) -> tensor<1x3x40x40x85xf32> loc(#loc329)
    %330 = "top.Weight"() : () -> tensor<255x512x1x1xsi8> loc(#loc330)
    %331 = "top.Weight"() : () -> tensor<1x255x1x1xi32> loc(#loc331)
    %332 = "tpu.Conv2D"(%317, %330, %331) {coeff_merged = false, dilations = [1, 1], do_relu = false, do_winograd = false, dynweight_reorderd = false, group = 1 : i64, kernel_shape = [1, 1], kernel_zp = 0 : i64, multiplier = [284081, 576625, 820123, 1811041, 916291, 984763, 708183, 1314043, 1740261, 200607, 468147, 491997, 1453295, 1767957, 109151, 189163, 1384823, 1415597, 949373, 822431, 501229, 1624859, 101169, 1727951, 1500225, 1457911, 696643, 28009, 895519, 864745, 1851047, 55441, 900135, 1775651, 308123, 1047849, 776655, 533157, 1408673, 1349433, 1366359, 1980297, 42867, 359477, 2335735, 50873, 221187, 1149403, 902443, 1083239, 416601, 822431, 806275, 172045, 1337893, 241767, 367555, 1445601, 1726413, 1573313, 793965, 1304811, 1727951, 1629475, 1966449, 2375741, 1140171, 90879, 506999, 1123245, 195991, 1634091, 2091083, 686257, 944757, 598551, 495459, 1055543, 1918749, 2046461, 867053, 958605, 420063, 436989, 50873, 1187101, 592781, 1592547, 1241725, 815507, 1749493, 1441755, 2380357, 1731029, 384673, 464685, 61163, 1561773, 1744877, 1620243, 738957, 337743, 1368667, 933217, 1570235, 244075, 1629475, 1584853, 413139, 1474067, 92033, 1356357, 1727951, 890903, 1749493, 220033, 457761, 6287, 853205, 550467, 124057, 727417, 967837, 1324045, 157139, 297737, 1887975, 39429, 1285577, 1114013, 1573313, 1691023, 583549, 422371, 1050927, 413139, 774347, 1490993, 1365589, 1285577, 1775651, 1387131, 1366359, 1584853, 373133, 1603317, 589319, 1700255, 848589, 993995, 2318809, 2243413, 789349, 1994145, 1037079, 687411, 425833, 463531, 79435, 1891053, 235997, 7429, 541235, 890903, 7429, 423525, 947065, 1634091, 377941, 48565, 10861, 314855, 224649, 841665, 1081701, 1010921, 1357127, 1020153, 820123, 1434061, 1754109, 1877205, 770885, 1664865, 326395, 325241, 1210951, 1164021, 1797193, 1375591, 110305, 382365, 737803, 373133, 692027, 711645, 1284039, 793965, 420063, 1523305, 1655633, 23429, 575471, 1549463, 930909, 448529, 625863, 727417, 1159405, 65731, 805505, 833971, 573163, 538927, 429295, 647405, 1471759, 527387, 1404057, 119441, 716261, 345821, 159447, 624709, 288697, 718569, 302353, 612015, 327549, 647405, 740111, 2006455, 822431, 1575621, 241767, 2278803, 2091083, 50873, 897827, 433911, 1100165, 793965, 178873, 1133247, 111459, 224649, 1732567, 2064925, 1429, 815507, 172045, 423525, 1479453, 54335, 683179], pads = [0, 0, 0, 0], quant_mode = #tpu<rq_mode MultiplierShift>, relu_limit = -1.000000e+00 : f64, round_mode = #tpu<round_mode HalfUp>, rshift = [28, 29, 29, 30, 29, 29, 29, 29, 30, 27, 28, 28, 30, 30, 26, 27, 30, 30, 29, 29, 28, 30, 26, 30, 30, 30, 29, 24, 29, 29, 30, 25, 29, 30, 28, 30, 29, 29, 30, 30, 30, 30, 25, 28, 30, 25, 27, 30, 29, 30, 28, 29, 29, 27, 30, 27, 28, 30, 30, 30, 29, 29, 30, 30, 30, 30, 29, 26, 28, 30, 27, 30, 30, 29, 29, 30, 28, 29, 30, 30, 29, 30, 28, 30, 26, 30, 29, 30, 30, 29, 30, 30, 30, 30, 28, 28, 25, 30, 30, 30, 29, 28, 30, 29, 30, 27, 30, 30, 28, 30, 26, 30, 30, 29, 30, 27, 28, 22, 29, 29, 27, 29, 30, 30, 27, 28, 30, 25, 30, 29, 30, 30, 29, 28, 30, 28, 29, 30, 30, 30, 30, 30, 30, 30, 28, 30, 28, 30, 29, 29, 30, 30, 29, 30, 30, 29, 28, 28, 26, 30, 29, 22, 28, 29, 22, 28, 30, 30, 30, 26, 23, 28, 28, 30, 29, 29, 30, 29, 29, 30, 30, 30, 29, 30, 28, 28, 30, 30, 30, 30, 26, 28, 29, 28, 29, 29, 30, 29, 28, 30, 30, 24, 29, 30, 30, 29, 29, 30, 30, 26, 30, 29, 29, 29, 28, 29, 30, 29, 30, 27, 29, 28, 27, 29, 28, 29, 28, 29, 28, 29, 29, 30, 29, 30, 27, 30, 30, 25, 29, 29, 30, 29, 27, 30, 26, 30, 30, 30, 20, 29, 27, 29, 30, 28, 30], strides = [1, 1], support_compress = true, use_3ic_optimize = 0 : i64, weight_is_coeff = 1 : i64, with_bias = true} : (tensor<1x512x20x20x!quant.uniform<i8:f32, 0.087267577952755915>>, tensor<255x512x1x1xsi8>, tensor<1x255x1x1xi32>) -> tensor<1x255x20x20x!quant.uniform<i8:f32, 0.11706777244094489>> loc(#loc332)
    %333 = "tpu.Reshape"(%332) {flatten_start_dim = -1 : i64, shape = [1, 3, 85, 20, 20]} : (tensor<1x255x20x20x!quant.uniform<i8:f32, 0.11706777244094489>>) -> tensor<1x3x85x20x20x!quant.uniform<i8:f32, 0.11706777244094489>> loc(#loc333)
    %334 = "tpu.Permute"(%333, %0) {order = [0, 1, 3, 4, 2]} : (tensor<1x3x85x20x20x!quant.uniform<i8:f32, 0.11706777244094489>>, none) -> tensor<1x3x20x20x85x!quant.uniform<i8:f32, 0.11706777244094489>> loc(#loc334)
    %335 = "tpu.Cast"(%334) {round_mode = #tpu<round_mode HalfAwayFromZero>, with_scale = true} : (tensor<1x3x20x20x85x!quant.uniform<i8:f32, 0.11706777244094489>>) -> tensor<1x3x20x20x85xf32> loc(#loc335)
    return %323, %329, %335 : tensor<1x3x80x80x85xf32>, tensor<1x3x40x40x85xf32>, tensor<1x3x20x20x85xf32> loc(#loc)
  } loc(#loc)
} loc(#loc)
#loc1 = loc("images")
#loc2 = loc("images122_Conv_ui8")
#loc3 = loc("122_Conv_filter_i8")
#loc4 = loc("122_Conv_bias_int32")
#loc5 = loc("122_Conv")
#loc6 = loc("124_Mul_table")
#loc7 = loc("124_Mul")
#loc8 = loc("125_Conv_filter_i8")
#loc9 = loc("125_Conv_bias_int32")
#loc10 = loc("125_Conv")
#loc11 = loc("127_Mul_table")
#loc12 = loc("127_Mul")
#loc13 = loc("128_Conv_filter_i8")
#loc14 = loc("128_Conv_bias_int32")
#loc15 = loc("128_Conv")
#loc16 = loc("130_Mul_table")
#loc17 = loc("130_Mul")
#loc18 = loc("131_Conv_filter_i8")
#loc19 = loc("131_Conv_bias_int32")
#loc20 = loc("131_Conv")
#loc21 = loc("133_Mul_table")
#loc22 = loc("133_Mul")
#loc23 = loc("134_Conv_filter_i8")
#loc24 = loc("134_Conv_bias_int32")
#loc25 = loc("134_Conv")
#loc26 = loc("136_Mul_table")
#loc27 = loc("136_Mul")
#loc28 = loc("137_Add")
#loc29 = loc("138_Conv_filter_i8")
#loc30 = loc("138_Conv_bias_int32")
#loc31 = loc("138_Conv")
#loc32 = loc("140_Mul_table")
#loc33 = loc("140_Mul")
#loc34 = loc("141_Concat")
#loc35 = loc("142_Conv_filter_i8")
#loc36 = loc("142_Conv_bias_int32")
#loc37 = loc("142_Conv")
#loc38 = loc("144_Mul_table")
#loc39 = loc("144_Mul")
#loc40 = loc("145_Conv_filter_i8")
#loc41 = loc("145_Conv_bias_int32")
#loc42 = loc("145_Conv")
#loc43 = loc("147_Mul_table")
#loc44 = loc("147_Mul")
#loc45 = loc("148_Conv_filter_i8")
#loc46 = loc("148_Conv_bias_int32")
#loc47 = loc("148_Conv")
#loc48 = loc("150_Mul_table")
#loc49 = loc("150_Mul")
#loc50 = loc("151_Conv_filter_i8")
#loc51 = loc("151_Conv_bias_int32")
#loc52 = loc("151_Conv")
#loc53 = loc("153_Mul_table")
#loc54 = loc("153_Mul")
#loc55 = loc("154_Conv_filter_i8")
#loc56 = loc("154_Conv_bias_int32")
#loc57 = loc("154_Conv")
#loc58 = loc("156_Mul_table")
#loc59 = loc("156_Mul")
#loc60 = loc("157_Add")
#loc61 = loc("158_Conv_filter_i8")
#loc62 = loc("158_Conv_bias_int32")
#loc63 = loc("158_Conv")
#loc64 = loc("160_Mul_table")
#loc65 = loc("160_Mul")
#loc66 = loc("161_Conv_filter_i8")
#loc67 = loc("161_Conv_bias_int32")
#loc68 = loc("161_Conv")
#loc69 = loc("163_Mul_table")
#loc70 = loc("163_Mul")
#loc71 = loc("164_Add")
#loc72 = loc("165_Conv_filter_i8")
#loc73 = loc("165_Conv_bias_int32")
#loc74 = loc("165_Conv")
#loc75 = loc("167_Mul_table")
#loc76 = loc("167_Mul")
#loc77 = loc("168_Concat")
#loc78 = loc("169_Conv_filter_i8")
#loc79 = loc("169_Conv_bias_int32")
#loc80 = loc("169_Conv")
#loc81 = loc("171_Mul_table")
#loc82 = loc("171_Mul")
#loc83 = loc("172_Conv_filter_i8")
#loc84 = loc("172_Conv_bias_int32")
#loc85 = loc("172_Conv")
#loc86 = loc("174_Mul_table")
#loc87 = loc("174_Mul")
#loc88 = loc("175_Conv_filter_i8")
#loc89 = loc("175_Conv_bias_int32")
#loc90 = loc("175_Conv")
#loc91 = loc("177_Mul_table")
#loc92 = loc("177_Mul")
#loc93 = loc("178_Conv_filter_i8")
#loc94 = loc("178_Conv_bias_int32")
#loc95 = loc("178_Conv")
#loc96 = loc("180_Mul_table")
#loc97 = loc("180_Mul")
#loc98 = loc("181_Conv_filter_i8")
#loc99 = loc("181_Conv_bias_int32")
#loc100 = loc("181_Conv")
#loc101 = loc("183_Mul_table")
#loc102 = loc("183_Mul")
#loc103 = loc("184_Add")
#loc104 = loc("185_Conv_filter_i8")
#loc105 = loc("185_Conv_bias_int32")
#loc106 = loc("185_Conv")
#loc107 = loc("187_Mul_table")
#loc108 = loc("187_Mul")
#loc109 = loc("188_Conv_filter_i8")
#loc110 = loc("188_Conv_bias_int32")
#loc111 = loc("188_Conv")
#loc112 = loc("190_Mul_table")
#loc113 = loc("190_Mul")
#loc114 = loc("191_Add")
#loc115 = loc("192_Conv_filter_i8")
#loc116 = loc("192_Conv_bias_int32")
#loc117 = loc("192_Conv")
#loc118 = loc("194_Mul_table")
#loc119 = loc("194_Mul")
#loc120 = loc("195_Conv_filter_i8")
#loc121 = loc("195_Conv_bias_int32")
#loc122 = loc("195_Conv")
#loc123 = loc("197_Mul_table")
#loc124 = loc("197_Mul")
#loc125 = loc("198_Add")
#loc126 = loc("199_Conv_filter_i8")
#loc127 = loc("199_Conv_bias_int32")
#loc128 = loc("199_Conv")
#loc129 = loc("201_Mul_table")
#loc130 = loc("201_Mul")
#loc131 = loc("202_Concat")
#loc132 = loc("203_Conv_filter_i8")
#loc133 = loc("203_Conv_bias_int32")
#loc134 = loc("203_Conv")
#loc135 = loc("205_Mul_table")
#loc136 = loc("205_Mul")
#loc137 = loc("206_Conv_filter_i8")
#loc138 = loc("206_Conv_bias_int32")
#loc139 = loc("206_Conv")
#loc140 = loc("208_Mul_table")
#loc141 = loc("208_Mul")
#loc142 = loc("209_Conv_filter_i8")
#loc143 = loc("209_Conv_bias_int32")
#loc144 = loc("209_Conv")
#loc145 = loc("211_Mul_table")
#loc146 = loc("211_Mul")
#loc147 = loc("212_Conv_filter_i8")
#loc148 = loc("212_Conv_bias_int32")
#loc149 = loc("212_Conv")
#loc150 = loc("214_Mul_table")
#loc151 = loc("214_Mul")
#loc152 = loc("215_Conv_filter_i8")
#loc153 = loc("215_Conv_bias_int32")
#loc154 = loc("215_Conv")
#loc155 = loc("217_Mul_table")
#loc156 = loc("217_Mul")
#loc157 = loc("218_Add")
#loc158 = loc("219_Conv_filter_i8")
#loc159 = loc("219_Conv_bias_int32")
#loc160 = loc("219_Conv")
#loc161 = loc("221_Mul_table")
#loc162 = loc("221_Mul")
#loc163 = loc("222_Concat")
#loc164 = loc("223_Conv_filter_i8")
#loc165 = loc("223_Conv_bias_int32")
#loc166 = loc("223_Conv")
#loc167 = loc("225_Mul_table")
#loc168 = loc("225_Mul")
#loc169 = loc("226_Conv_filter_i8")
#loc170 = loc("226_Conv_bias_int32")
#loc171 = loc("226_Conv")
#loc172 = loc("228_Mul_table")
#loc173 = loc("228_Mul")
#loc174 = loc("229_MaxPool")
#loc175 = loc("230_MaxPool")
#loc176 = loc("231_MaxPool")
#loc177 = loc("232_Concat")
#loc178 = loc("233_Conv_filter_i8")
#loc179 = loc("233_Conv_bias_int32")
#loc180 = loc("233_Conv")
#loc181 = loc("235_Mul_table")
#loc182 = loc("235_Mul")
#loc183 = loc("236_Conv_filter_i8")
#loc184 = loc("236_Conv_bias_int32")
#loc185 = loc("236_Conv")
#loc186 = loc("238_Mul_table")
#loc187 = loc("238_Mul")
#loc188 = loc("238_Mul_to_309_Concat")
#loc189 = loc("243_Resize")
#loc190 = loc("243_Resize_to_244_Concat")
#loc191 = loc("244_Concat")
#loc192 = loc("245_Conv_filter_i8")
#loc193 = loc("245_Conv_bias_int32")
#loc194 = loc("245_Conv")
#loc195 = loc("247_Mul_table")
#loc196 = loc("247_Mul")
#loc197 = loc("248_Conv_filter_i8")
#loc198 = loc("248_Conv_bias_int32")
#loc199 = loc("248_Conv")
#loc200 = loc("250_Mul_table")
#loc201 = loc("250_Mul")
#loc202 = loc("251_Conv_filter_i8")
#loc203 = loc("251_Conv_bias_int32")
#loc204 = loc("251_Conv")
#loc205 = loc("253_Mul_table")
#loc206 = loc("253_Mul")
#loc207 = loc("254_Conv_filter_i8")
#loc208 = loc("254_Conv_bias_int32")
#loc209 = loc("254_Conv")
#loc210 = loc("256_Mul_table")
#loc211 = loc("256_Mul")
#loc212 = loc("257_Concat")
#loc213 = loc("258_Conv_filter_i8")
#loc214 = loc("258_Conv_bias_int32")
#loc215 = loc("258_Conv")
#loc216 = loc("260_Mul_table")
#loc217 = loc("260_Mul")
#loc218 = loc("261_Conv_filter_i8")
#loc219 = loc("261_Conv_bias_int32")
#loc220 = loc("261_Conv")
#loc221 = loc("263_Mul_table")
#loc222 = loc("263_Mul")
#loc223 = loc("263_Mul_to_289_Concat")
#loc224 = loc("268_Resize")
#loc225 = loc("268_Resize_to_269_Concat")
#loc226 = loc("269_Concat")
#loc227 = loc("270_Conv_filter_i8")
#loc228 = loc("270_Conv_bias_int32")
#loc229 = loc("270_Conv")
#loc230 = loc("272_Mul_table")
#loc231 = loc("272_Mul")
#loc232 = loc("273_Conv_filter_i8")
#loc233 = loc("273_Conv_bias_int32")
#loc234 = loc("273_Conv")
#loc235 = loc("275_Mul_table")
#loc236 = loc("275_Mul")
#loc237 = loc("276_Conv_filter_i8")
#loc238 = loc("276_Conv_bias_int32")
#loc239 = loc("276_Conv")
#loc240 = loc("278_Mul_table")
#loc241 = loc("278_Mul")
#loc242 = loc("279_Conv_filter_i8")
#loc243 = loc("279_Conv_bias_int32")
#loc244 = loc("279_Conv")
#loc245 = loc("281_Mul_table")
#loc246 = loc("281_Mul")
#loc247 = loc("282_Concat")
#loc248 = loc("283_Conv_filter_i8")
#loc249 = loc("283_Conv_bias_int32")
#loc250 = loc("283_Conv")
#loc251 = loc("285_Mul_table")
#loc252 = loc("285_Mul")
#loc253 = loc("286_Conv_filter_i8")
#loc254 = loc("286_Conv_bias_int32")
#loc255 = loc("286_Conv")
#loc256 = loc("288_Mul_table")
#loc257 = loc("288_Mul")
#loc258 = loc("289_Concat")
#loc259 = loc("290_Conv_filter_i8")
#loc260 = loc("290_Conv_bias_int32")
#loc261 = loc("290_Conv")
#loc262 = loc("292_Mul_table")
#loc263 = loc("292_Mul")
#loc264 = loc("293_Conv_filter_i8")
#loc265 = loc("293_Conv_bias_int32")
#loc266 = loc("293_Conv")
#loc267 = loc("295_Mul_table")
#loc268 = loc("295_Mul")
#loc269 = loc("296_Conv_filter_i8")
#loc270 = loc("296_Conv_bias_int32")
#loc271 = loc("296_Conv")
#loc272 = loc("298_Mul_table")
#loc273 = loc("298_Mul")
#loc274 = loc("299_Conv_filter_i8")
#loc275 = loc("299_Conv_bias_int32")
#loc276 = loc("299_Conv")
#loc277 = loc("301_Mul_table")
#loc278 = loc("301_Mul")
#loc279 = loc("302_Concat")
#loc280 = loc("303_Conv_filter_i8")
#loc281 = loc("303_Conv_bias_int32")
#loc282 = loc("303_Conv")
#loc283 = loc("305_Mul_table")
#loc284 = loc("305_Mul")
#loc285 = loc("306_Conv_filter_i8")
#loc286 = loc("306_Conv_bias_int32")
#loc287 = loc("306_Conv")
#loc288 = loc("308_Mul_table")
#loc289 = loc("308_Mul")
#loc290 = loc("308_Mul_to_309_Concat")
#loc291 = loc("309_Concat")
#loc292 = loc("310_Conv_filter_i8")
#loc293 = loc("310_Conv_bias_int32")
#loc294 = loc("310_Conv")
#loc295 = loc("312_Mul_table")
#loc296 = loc("312_Mul")
#loc297 = loc("313_Conv_filter_i8")
#loc298 = loc("313_Conv_bias_int32")
#loc299 = loc("313_Conv")
#loc300 = loc("315_Mul_table")
#loc301 = loc("315_Mul")
#loc302 = loc("316_Conv_filter_i8")
#loc303 = loc("316_Conv_bias_int32")
#loc304 = loc("316_Conv")
#loc305 = loc("318_Mul_table")
#loc306 = loc("318_Mul")
#loc307 = loc("319_Conv_filter_i8")
#loc308 = loc("319_Conv_bias_int32")
#loc309 = loc("319_Conv")
#loc310 = loc("321_Mul_table")
#loc311 = loc("321_Mul")
#loc312 = loc("322_Concat")
#loc313 = loc("323_Conv_filter_i8")
#loc314 = loc("323_Conv_bias_int32")
#loc315 = loc("323_Conv")
#loc316 = loc("325_Mul_table")
#loc317 = loc("325_Mul")
#loc318 = loc("326_Conv_filter_i8")
#loc319 = loc("326_Conv_bias_int32")
#loc320 = loc("326_Conv")
#loc321 = loc("349_Reshape")
#loc322 = loc("350_Transpose")
#loc323 = loc("350_Transpose_f32")
#loc324 = loc("474_Conv_filter_i8")
#loc325 = loc("474_Conv_bias_int32")
#loc326 = loc("474_Conv")
#loc327 = loc("497_Reshape")
#loc328 = loc("498_Transpose")
#loc329 = loc("498_Transpose_f32")
#loc330 = loc("622_Conv_filter_i8")
#loc331 = loc("622_Conv_bias_int32")
#loc332 = loc("622_Conv")
#loc333 = loc("645_Reshape")
#loc334 = loc("646_Transpose")
#loc335 = loc("646_Transpose_f32")

